squat_model.pth (torch, 63792 bytes, 7 tensors)

model.0.weight f4 [128, 36]
000000 ac d9 45 3d be 66 25 3c 0b 72 41 be 21 b4 96 bd
       0.04830329 0.010095296 -0.1889116 -0.073585756
000010 df 41 16 bd d0 a7 71 b9 48 bc 0a be 7e 4b 33 be
       -0.036683913 -0.00023046066 -0.13548386 -0.17509267
000020 ee 6f ec 3d a7 2d e7 bd 12 bc 30 3d d0 d6 a1 bc
       0.115447864 -0.11288004 0.043148108 -0.01975575
000030 3a 54 0d bd 16 a3 5d 3d 64 71 1d bd 63 0b d4 bd
       -0.034504153 0.05411061 -0.038438216 -0.10353734
000040 56 18 1d be e0 a9 f0 3d d3 da 34 3e 98 41 b5 bd
       -0.15341315 0.11751151 0.176616 -0.08850402
000050 72 2b 02 3e 8d d5 83 be c8 10 43 3d 40 2c f6 3c
       0.12711886 -0.25748864 0.047623426 0.030050397
000060 6b 99 1a 3e 8a 81 e0 3d d6 39 ea bd 1b 69 c6 be
       0.15097587 0.109622076 -0.114368126 -0.38752064
000070 2f 68 23 3c 05 69 83 bd c9 da 4a 3e 2e 82 e0 3d
       0.00997357 -0.06416515 0.19810022 0.1096233
000080 ba 80 1e be 65 51 bd be 96 ae 4a bd a3 28 1b bc
       -0.15478793 -0.36976162 -0.049482904 -0.009470138
000090 ae 2d 06 be 45 f5 49 3e 85 f7 36 be 5e 84 22 3e
       -0.13103363 0.19722469 -0.17867859 0.15870807
0000a0 1e ba 34 3e bd 6b db bd 0a 54 0a be 76 74 2d bd
       0.17649123 -0.10713909 -0.13508621 -0.042347394
0000b0 a5 cd 97 bd 0d 1d 2b 3e ec 26 c1 bc ba b3 fe ba
       -0.074122705 0.167103 -0.02357813 -0.0019432225
0000c0 c5 df a7 3d 74 39 a0 bd ca 09 1d 3e a0 95 42 3d
       0.081969775 -0.07823458 0.15335765 0.047505975
0000d0 25 9f ca 3c 09 f4 1f 3e e7 be 3b bd 0a b6 0e 3d
       0.02473409 0.15620436 -0.045836356 0.034841575
0000e0 bf 76 d3 bd c8 bd 0e be df e8 9e 3d 92 1d 91 bd
       -0.103253834 -0.13939583 0.077592604 -0.07085718
0000f0 23 9f 49 3e 74 47 49 3d 85 23 ec 3c 94 71 2e bd
       0.19689612 0.04914041 0.02882553 -0.042588785
000100 c1 97 9f 3d 73 e6 aa bd 19 be ed bc b0 fc 11 be
       0.07792617 -0.08344736 -0.02902131 -0.14256549
000110 f6 24 ca 3d e9 4b bb 3c 95 d5 30 be 47 59 c6 3d
       0.09870331 0.022863345 -0.17268975 0.09684997
000120 bd 3a 4b 3d 4a f4 3a 3c 26 d4 03 bd 93 0e 44 be
       0.049616564 0.011410782 -0.032184742 -0.19146185
000130 cb fa 23 be 77 cd fb 3d d1 7c 95 3d f2 99 a3 bd
       -0.16013639 0.12295049 0.072991975 -0.07988347
000140 bd 2f d6 bd c9 bf 48 bd 21 66 25 3e 4e 9a 67 bc
       -0.10458324 -0.049011026 0.1615224 -0.01413591
000150 6c 3d 15 3d 6f 24 2f 3e e6 3c e3 bb c9 70 4c 3c
       0.03643553 0.17103742 -0.00693475 0.012478062
000160 d6 a9 78 bc eb e2 f8 3d ba 0e 00 3e a8 5b 0d 3e
       -0.015177211 0.12152656 0.12505618 0.13804495
000170 59 e8 a6 bd e1 16 70 3e 1b 86 5c bd fc 3f df ba
       -0.081497855 0.23446228 -0.05383883 -0.0017032619
000180 fb d9 33 bb f7 13 a8 3d fe 44 e3 3c 2e 49 60 3d
       -0.002744316 0.08206933 0.027742859 0.05475729
000190 25 df 1e 3e ad ee 5b 3d 96 59 dd 3c 3c 00 e0 bd
       0.1551481 0.053694416 0.027020257 -0.10937545
0001a0 f9 cf 96 3d cd 9d 14 3e f5 79 87 3d af 09 8f 3d
       0.073638864 0.14513321 0.06615058 0.06984269
0001b0 77 72 29 3e 36 53 50 3d 3d 4a e8 3c 35 a5 1e bc
       0.16547571 0.050860606 0.028355712 -0.009682943
0001c0 23 12 27 be 65 2c 0d 3e 67 99 b7 3d 79 ba 0a 3d
       -0.16315512 0.13786466 0.08964806 0.03386924
0001d0 6c 9d 4f bd 4d 12 b9 bd 85 84 e7 3d ed 33 b7 3d
       -0.05068724 -0.09036694 0.11304573 0.08945451
0001e0 dd 34 e9 3d 2e 95 88 3d 10 a2 1e bd 47 00 d5 3d
       0.11387036 0.06669079 -0.038728774 0.104004435
0001f0 ed c9 72 bd b9 6c 9d bc f6 f3 32 3d ec 40 d5 bd
       -0.059274603 -0.019216882 0.04368969 -0.104127735
000200 10 4b 4e bd a3 47 89 3d 84 01 32 3e 0a 64 40 3d
       -0.050364554 0.06703117 0.1738339 0.046970405
000210 a8 a0 1d be 85 bb 09 3e 4e 73 c7 3d b5 ba 4d ba
       -0.15393317 0.1345044 0.097387895 -0.0007847951
000220 91 cf ac 3d 71 5e ad 3c 77 06 28 be df 32 af bd
       0.08438028 0.021163197 -0.16408716 -0.08554625
000230 0b 21 e3 3d 53 cb 93 3d 19 58 61 bd e0 72 0c be
       0.11090287 0.072165154 -0.055015657 -0.13715696
000240 7e 0c 12 3e 33 39 14 bd e7 14 66 bd 7a 61 17 3e
       0.14262578 -0.036187362 -0.056172278 0.14783278
000250 cb f6 89 3d d2 2b 10 bd d5 f9 d2 ba 99 55 bc 3d
       0.06736525 -0.03519804 -0.0016096184 0.09196014
000260 32 c3 e3 3d 0a 64 13 be 02 26 dc bc 82 71 2b be
       0.11121215 -0.1439363 -0.026873592 -0.16742519
000270 fc d4 ba bd 69 b8 4c bd 22 05 0a 3e 65 fd 18 3e
       -0.09122655 -0.049980555 0.1347852 0.14940412
000280 5a e4 07 be a6 e6 c2 3c aa 2d e7 bd 4b 75 f2 bd
       -0.13270703 0.023791622 -0.112880066 -0.11838778
000290 1c cd 95 3b 47 54 5a 3d 4e 2a c6 3b 50 27 02 3c
       0.00457157 0.05330303 0.0060475236 0.007943943
0002a0 2f 77 b0 bd fd b2 9b 3d d7 38 1c be 9d 7e 01 be
       -0.086164825 0.07602499 -0.15256058 -0.12645955
0002b0 45 35 14 be a8 d6 db bd f4 a6 b0 bd 41 bb 0d be
       -0.14473446 -0.10734302 -0.08625594 -0.13840963
0002c0 73 90 8a bd a6 c9 d8 3d 05 63 36 be 88 46 19 3c
       -0.06765833 0.105853364 -0.1781121 0.009355195
0002d0 c9 90 1a 3e 12 05 e6 bc d4 68 63 bd f9 cb f3 bc
       0.15094294 -0.02807859 -0.055519894 -0.029760348
0002e0 49 65 ae bd 3c 53 73 bd 7e e1 85 3d 24 7b df 3c
       -0.08515412 -0.05940555 0.0653715 0.027280398
0002f0 27 07 28 bd 08 17 4d be eb 36 92 3d b3 27 0c bd
       -0.041022446 -0.20028317 0.07139381 -0.034217548
000300 25 65 00 3e 70 d8 de bd 1c 5e db bd 65 e4 4b bd
       0.12538584 -0.10881126 -0.10711309 -0.04977836
000310 0b 6a ef 3b da 25 e0 bc f2 72 9d 3d 4e e5 1e 3d
       0.0073063425 -0.027361799 0.0768794 0.0387929
000320 d4 cf ab 3c 1b be 60 be 5a 86 32 be 8d 3a 34 bc
       0.020973124 -0.2194752 -0.17434064 -0.011000288
000330 d1 0e 3f 3e 35 a1 3b bd b6 92 2c 3e 24 b2 07 be
       0.18657996 -0.045808036 0.16852841 -0.13251549
000340 d7 f7 fc bd 5a 9f 30 bc 37 9e 08 3e a4 3f ab 3d
       -0.12351959 -0.01078018 0.13341604 0.08361748
000350 94 ba 61 3c de 85 07 be 93 84 a8 bd 0d 06 e0 bd
       0.013777394 -0.1323466 -0.082284115 -0.10938654
000360 6d 28 e4 3d 67 07 cf bd 78 4d 6c bd 08 cd 52 be
       0.11140523 -0.10108834 -0.057691067 -0.20586026
000370 cc e2 6b be 62 02 d3 bc 1f b7 c4 bd 0c 33 4d 3e
       -0.23035735 -0.025757972 -0.0960524 0.20039004
000380 1c 5c 12 3d 9b 27 d3 bc 91 48 bb 3b c8 65 05 3e
       0.035732374 -0.025775721 0.0057154377 0.13027108
000390 b1 57 11 3e 95 5c 1e 3e 02 eb 54 bd c5 60 9c bd
       0.14193608 0.15465005 -0.051981933 -0.07635645
0003a0 63 1d 25 3e 27 e6 49 be 00 5a bd 3d ed 42 06 bd
       0.16124491 -0.19716702 0.09245682 -0.03277867
0003b0 74 53 26 bd 23 f2 25 3e d9 a6 02 3e 31 65 1a bd
       -0.04060693 0.16205649 0.1275896 -0.03769416
0003c0 77 93 e2 3d e8 f9 c5 3c e0 a1 dd 3d 79 1e 29 3e
       0.11063283 0.024167016 0.10821891 0.1651553
0003d0 0e 0c 00 be 13 36 c2 3c ad 05 f0 bd d6 c4 02 be
       -0.12504598 0.023707425 -0.117198326 -0.127704
0003e0 5b fa 97 bc 9b 8e 03 3d 34 46 62 ba 41 e0 16 be
       -0.018551996 0.03211842 -0.0008631677 -0.14733984
0003f0 b3 51 a9 bd 83 a5 8d 3d f8 0e a9 bd 67 b8 74 bd
       -0.08267536 0.069163345 -0.08254808 -0.059746172

model.0.bias f4 [128]
000000 62 de e0 3d 39 2b 16 3e 24 d0 16 be 79 d0 b0 bd
       0.10979916 0.14664926 -0.14727837 -0.08633513
000010 08 dd 0e 3e fb 6f 0a 3e dc a9 40 3d 00 32 fb 3d
       0.13951504 0.1351928 0.04703699 0.12265396
000020 41 60 a6 bd 53 11 86 3d 93 2c 0e be bd 75 f9 3b
       -0.08123828 0.06546273 -0.13884191 0.0076129124
000030 ce d6 8e bd e7 f0 02 3e ff d3 2f 3d 25 dc 4f 3c
       -0.069745645 0.1278721 0.042926785 0.012686764
000040 a0 23 df bc f4 ec 95 bd 9d ff 06 bd b9 76 23 3e
       -0.027238667 -0.07320586 -0.032958616 0.15963258
000050 b8 03 51 3d ab 97 cd bd 2a d6 d1 bc f6 79 86 bd
       0.051028937 -0.10038694 -0.025614817 -0.06566231
000060 04 dd 5a 3d ec ad ce bd 88 01 a2 bd d3 2d 5d 3c
       0.053433433 -0.10091767 -0.07910448 0.013499695
000070 e8 41 03 be 96 91 43 bd 39 4e e0 3d 9e 13 c2 bd
       -0.1281811 -0.047746263 0.1095242 -0.09476398
000080 76 92 f0 bc 83 b7 f3 bd 0c 30 13 3e 99 2e c0 bc
       -0.029366713 -0.119002365 0.14373797 -0.02345972
000090 ae f0 d6 3d 72 65 01 3d c3 5d 03 be 52 f5 bd bc
       0.10495125 0.031590886 -0.12828736 -0.023188267
0000a0 ba a6 13 bc 9c 8a 35 3e e2 18 21 bd 85 e2 15 be
       -0.009011919 0.17728657 -0.03933037 -0.14637192
0000b0 98 85 b7 bd 6d df 0a 3e 73 aa a2 bb 22 a3 fa 3d
       -0.08961028 0.13561793 -0.004964167 0.12238146
0000c0 12 54 18 3e 8e 50 a2 bd 53 f5 b8 bd e3 fc 0b 3e
       0.1487582 -0.07925521 -0.09031167 0.13670687
0000d0 57 d0 ff bd ba 61 b4 3d 17 7c 1d bd 64 64 1e 3e
       -0.124909095 0.08807702 -0.03844842 0.15467983
0000e0 e7 70 d2 3d d6 41 e6 3d f9 8c 0c 3e 0e d5 68 bd
       0.10275441 0.11243026 0.13725652 -0.05684381
0000f0 a8 3c 7d 3d 3a cb 31 bc 58 63 1d 3e 00 a2 dd bb
       0.061825424 -0.010851676 0.15369928 -0.0067636967
000100 0b fe 37 3d 30 a6 36 be a4 53 d6 bd 16 aa 05 3c
       0.04492001 -0.17836833 -0.10465172 0.008158227
000110 b4 6d e2 3d a9 03 18 3e a6 81 4b 3d 08 0c 34 bc
       0.110560805 0.14845146 0.04968419 -0.010989197
000120 e4 d8 f5 bd fb 2b 38 be 76 a5 ea 3d 39 a1 63 3d
       -0.12004259 -0.17985527 0.114573404 0.055573676
000130 27 e9 83 bd a9 55 2d 3d 98 35 16 be 43 a4 d2 3d
       -0.06440955 0.04231802 -0.14668882 0.10285237
000140 84 29 bc bd e9 de fb bd 48 71 cf 3d 59 d4 6d bd
       -0.09187606 -0.12298376 0.101290286 -0.05806384
000150 ad d0 dd bc e0 1e 16 3c 89 64 7b 3d 1e 7f b2 3d
       -0.027077043 0.009162635 0.061375175 0.08715652
000160 d2 d1 e3 3d 0d 1c 81 bd c6 f6 c0 3c f7 a0 05 3d
       0.111240044 -0.063041784 0.02355517 0.03262421
000170 97 f4 ae 3c c6 40 8f bd 22 c1 2e 3d 50 28 39 3d
       0.021356864 -0.069947764 0.042664655 0.04520446
000180 88 84 20 bc e0 7b 23 3e 6f ad 0c be ae e0 f1 bc
       -0.009797223 0.15965223 -0.13738035 -0.029526081
000190 6e 89 8e 3d 16 bf 87 bd af 67 fa bc 64 30 b8 3d
       0.069598064 -0.066282436 -0.030567018 0.08993605
0001a0 18 a1 d4 3d f6 7a 94 3c ed f5 f8 3d 5c 59 01 be
       0.10382289 0.018125039 0.121562816 -0.12631744
0001b0 c3 a6 80 3c 50 e5 9d 3d 0b 61 88 bd 55 71 0b bd
       0.015704518 0.077097535 -0.066591345 -0.03404363
0001c0 40 2b 29 3e a5 00 06 3e 3e a9 ab bd 1d bc 0c 3e
       0.16520405 0.13086183 -0.0838189 0.13743635
0001d0 d6 7b a2 3b 0b 3c 8e 3d cd f2 a1 3d b0 52 26 3d
       0.00495861 0.06945046 0.07907639 0.0406062
0001e0 82 43 1c 3d d1 84 00 3e d4 c8 ed 3d 43 d0 ab 3d
       0.038150318 0.12550665 0.116105705 0.08389332
0001f0 13 91 a2 3d e2 2a 88 3d 9e 84 b6 bd 33 87 aa bd
       0.07937827 0.06648804 -0.089120135 -0.083265685

model.3.weight f4 [64, 128]
000000 65 13 05 bd b4 6a 05 bd 9b d8 6f 3d d8 47 1d 3d
       -0.0324892 -0.032572463 0.05855618 0.038398594
000010 94 6f 4d 3d eb 76 2c 3d 66 56 ee 3d 92 90 b0 3c
       0.050155237 0.042105597 0.11637573 0.021553311
000020 8e 94 f8 3d f3 24 a8 bd 8b 26 95 3d 1d 78 6f 3c
       0.121377096 -0.082101725 0.07282742 0.01461604
000030 c5 c2 38 bc 3e b1 2b be d5 eb 6d bd f5 d9 7a ba
       -0.011276905 -0.16766831 -0.058086235 -0.00095692213
000040 bc c7 87 bc fe b0 16 3d 3d f7 b0 bc 7c 51 39 be
       -0.016574733 0.036789887 -0.021602267 -0.1809749
000050 35 e9 53 b9 74 ba f3 bc 28 0f 19 3d 3a 6d 63 bc
       -0.00020209404 -0.029751994 0.03736797 -0.013881022
000060 ee b5 8a 3d 7c 07 2d 3c 66 2a 5f bd 06 13 09 3d
       0.067729816 0.010560866 -0.054483794 0.033465408
000070 c9 9d 8a bc 8f f4 2d 3d cd 28 ee 3c 6f 86 17 3c
       -0.016920941 0.042469557 0.02907219 0.00924836
000080 95 e3 d5 3d 20 2e 01 bd 56 fd 10 bd 86 0e ee 3d
       0.104437985 -0.03153813 -0.03539785 0.11623864
000090 3a 2e 01 3e d7 86 bc bd 5b 38 4f bd 65 f1 37 3d
       0.1261529 -0.09205406 -0.050590854 0.044907946
0000a0 e4 c1 75 3c 5e e2 97 3d 3e 09 7c 3c c0 a6 a8 3c
       0.01499984 0.07416223 0.015383063 0.020587325
0000b0 43 1f d4 bd c3 0a 55 bd f7 1c 95 bc 88 ab dd 3d
       -0.10357525 -0.052012216 -0.018202288 0.108237326
0000c0 f8 6b 08 be 71 ce e1 bc c8 6d 33 3d db 61 0b 3d
       -0.13322437 -0.02756426 0.043805867 0.03402887
0000d0 4d 4b e1 bd 08 c0 15 3e 96 5d 8b 3d f0 8d e4 3d
       -0.110006906 0.14624035 0.068049595 0.11159885
0000e0 90 10 28 bd 16 83 b4 3c 4e 5d cb 3d 53 68 cb 3b
       -0.04103142 0.022035163 0.09929906 0.006207505
0000f0 fd 42 85 bd 97 4c 1c 3d 43 b7 26 be 11 87 5d 3d
       -0.065069176 0.03815898 -0.16280846 0.054083887
000100 09 9f 6b 3d 09 df 55 bd 9e 63 20 bc d5 1f 95 bd
       0.057524715 -0.052214656 -0.009789376 -0.07281462
000110 26 d7 3b bc 9b 66 4b 3d 66 96 a6 3d 1c 97 09 3e
       -0.01146487 0.0496584 0.08134155 0.1343655
000120 a6 d9 0c 3d d0 5f 8e bd 32 a2 2a 3d 29 9a 83 bc
       0.034387253 -0.069518685 0.041658588 -0.01606472
000130 7d 12 15 3d 13 e9 a5 3d d2 6d 2b 3d a4 c2 21 bd
       0.036394585 0.08101096 0.04185278 -0.039492264
000140 67 8c c4 bd 70 6d 6a bd d0 23 cf 3d c2 a9 ed 3d
       -0.09597092 -0.057233274 0.101142526 0.11604644
000150 a4 77 a2 3b d5 4d 1a 3e 49 62 dd bd d7 be f0 bd
       0.00495811 0.15068753 -0.10809762 -0.1175515
000160 12 55 24 be 62 50 2d bd c6 b3 cd b7 75 a4 dd 3d
       -0.16048077 -0.042312987 -2.4521618e-05 0.10822383
000170 12 b8 c5 3d 48 e6 37 bd 4d 7e 8f 3d 8e 61 f4 bd
       0.09654249 -0.044897348 0.07006512 -0.119326696
000180 ab 81 90 3d c2 8d d6 bd 64 44 88 3d 28 0b a5 bd
       0.07055982 -0.10476257 0.066536695 -0.080587685
000190 d4 47 11 3d 0e db a6 bd 05 13 28 bd e5 80 39 3d
       0.03546889 -0.0814725 -0.041033763 0.04528894
0001a0 0c 17 43 3d 62 ca fd 3a ad 35 3b 3d e6 74 22 3d
       0.0476294 0.0019362683 0.045705486 0.039662264
0001b0 8e 49 dc 3d 45 3b 9f 3c 33 b6 35 bc e6 b1 bb ba
       0.10756217 0.019437442 -0.011090803 -0.0014319986
0001c0 c6 06 ce 3c 49 2e 0a be 68 05 88 3d d0 d9 85 3d
       0.025149714 -0.13494219 0.06641656 0.06535685
0001d0 bb f1 0f 3d e7 d1 8f bc 1e cb ae ba 0b 45 cc 3d
       0.03514264 -0.017556144 -0.001333568 0.099741064
0001e0 91 b7 5f 3d 36 25 ac 3c 9a 7a a8 3d 51 b8 f5 bc
       0.054618422 0.021013837 0.082265094 -0.029995115
0001f0 6d a9 7a bd c9 d0 bf 3d af 90 69 bd 80 5c 25 3d
       -0.061196733 0.093659945 -0.057022747 0.040371418
000200 9a e8 d6 3d 3e 37 2c 3e eb 20 a8 3d 51 69 4a bc
       0.10493584 0.16817948 0.082094036 -0.012354211
000210 c6 64 2d 3b 3c 32 44 3d 57 a5 e5 ba 40 a3 38 bd
       0.002645777 0.04789947 -0.0017520589 -0.045077562
000220 11 21 3e bc a1 e7 d6 bc a2 84 a5 bd fb 31 c1 3d
       -0.011604563 -0.026233496 -0.08081938 0.09433361
000230 03 56 8d bd 19 6f 46 3d 30 3b 32 3d 4c 97 04 bd
       -0.06901171 0.048445795 0.043513477 -0.03237085
000240 bd c8 03 bd 1e a4 4e 3d 37 9b 05 3c f1 11 2d 3e
       -0.03217386 0.050449483 0.008154682 0.16901375
000250 1b ea 57 3d 86 23 52 3d 7e 24 fb 3d 88 ba 9a bb
       0.052713495 0.05130341 0.1226282 -0.0047219433
000260 b9 04 72 3d 2e 7a 82 3d ca 00 89 bc c9 60 99 bd
       0.059086535 0.0637096 -0.016724009 -0.074891634
000270 28 08 8a bc 75 7b a7 3d 5e cb e2 3d a2 37 54 3c
       -0.016849592 0.081778444 0.110739455 0.012952717
000280 1d a7 d5 3d 9f 69 01 bd 7b 76 74 bd c8 bd e8 3d
       0.10432265 -0.03159487 -0.059683304 0.11364323
000290 e7 93 00 3e 0a 96 59 3d 23 7a 10 3d 55 f4 f1 3c
       0.1255642 0.053121604 0.03527273 0.029535452
0002a0 18 a1 f4 3b 5d 75 30 3e 4b 15 b7 3d da 3e bc bc
       0.007465493 0.1723227 0.08939608 -0.022979189
0002b0 ee 6b 15 3e d7 88 95 3d f9 c4 05 3d ff 6c b3 3c
       0.14591953 0.07301491 0.03265855 0.02190256
0002c0 2d a2 3b 3e e7 25 bc 3b 99 c3 0f bd d0 01 a7 bd
       0.18323584 0.005741823 -0.035098646 -0.081546426
0002d0 4c 82 1e 3e 07 2e 36 bd 61 3c fe 3d 43 cb 57 3d
       0.15479392 -0.04447749 0.1241386 0.05268408
0002e0 86 08 28 3e 92 65 a8 3d cd 9f c1 3b a9 41 73 bd
       0.16409501 0.08222498 0.0059089423 -0.05938879
0002f0 f3 64 56 3e 65 2a 7b 3d b1 e3 db 3b 6e dc a5 bd
       0.20936947 0.061319727 0.0067104925 -0.08098684
000300 4a fc 66 3d 3b 5c a9 3d 34 3e 40 3d 81 ec 0f 3a
       0.056392945 0.08269545 0.04693432 0.0005490259
000310 ae 52 d3 3b 57 cf f4 3d 37 f0 de 3c cc c4 c2 bc
       0.006449065 0.119536094 0.027214153 -0.02377548
000320 8e 46 86 3d 2e 0b 98 3d 9e fa 55 bc a7 71 c0 3a
       0.06556426 0.07424007 -0.01306024 0.0014682309
000330 b1 21 c0 3d c3 1f 55 bd 1e 48 2c 3d e6 27 fd 3d
       0.09381426 -0.052032243 0.042060964 0.12361126
000340 78 48 38 3d a0 75 d9 3d 6b 5f c7 3d ee 68 d5 ba
       0.044990987 0.10618138 0.097349964 -0.0016281882
000350 0a 01 8b bb 4f 02 8e b9 6c 59 f6 3d 0a 6b a1 3d
       -0.004242067 -0.0002708607 0.120287746 0.07881744
000360 a9 e0 2b 3d 1a 4a 06 3e f8 b1 6a bd a8 52 a9 bb
       0.0419623 0.13114205 -0.05729863 -0.005167324
000370 cc 6a 49 3d 2f d0 0e 3e 59 24 0c 3e ee 6f 43 3e
       0.049174115 0.13946603 0.1368574 0.19085667
000380 da ec 94 3d ed 63 58 ba 8a 8e 65 bd 41 7f 47 3e
       0.07271738 -0.0008254636 -0.05604414 0.19482137
000390 17 34 d0 3d 82 99 5d 3d 7a 58 87 3d e9 42 61 3c
       0.10166185 0.054101475 0.066086724 0.013748863
0003a0 3a 93 ce 3b 3b 0a 93 3d 75 99 a8 3d 81 bd 88 bc
       0.006304172 0.07179686 0.082323946 -0.016691925
0003b0 ab be f9 3d 23 40 a2 bc 95 63 04 3e 89 60 2e 3e
       0.1219457 -0.019805973 0.12928613 0.17029013
0003c0 01 7d f5 3d 7a 0f c0 3d 57 81 66 bc 57 e8 44 3d
       0.11986733 0.09377952 -0.014068923 0.04807314
0003d0 2e b4 0f bd d1 62 4a 3d 24 e1 cd 3d e9 2f 59 3d
       -0.035083942 0.049410645 0.10052708 0.053024206
0003e0 15 17 36 3d 2a 11 3b 3d 5d b8 bb 3a bb f6 1b 3d
       0.044455606 0.045670666 0.0014321912 0.038077097
0003f0 71 6d 91 3c 56 fa c7 3d 2d 5b ad 3d 21 94 07 3c
       0.017752381 0.09764545 0.08464656 0.008275063

model.3.bias f4 [64]
000000 b7 9c 2d 3d d5 1a 3f 3c 19 1b 29 bd 56 ec 4b bd
       0.042385783 0.011664112 -0.041285608 -0.049785934
000010 27 4e 89 3d a0 d2 41 3d a0 93 0c bc d2 75 86 bd
       0.067043595 0.04732001 -0.008580118 -0.06565441
000020 b6 27 17 bc 62 6f cd 3d fc 30 0c bd 81 5f 9b bc
       -0.009225776 0.1003101 -0.034226403 -0.018966438
000030 b6 97 9f bd 78 7a be bd f5 0c 36 3c c1 21 79 3a
       -0.077926084 -0.09300703 0.011111488 0.0009503626
000040 3c e1 07 bd fb eb 83 3d 22 8e 54 bc 2d 60 90 3d
       -0.033173785 0.06441494 -0.01297334 0.07049594
000050 bb f5 c5 3c f8 46 ac 3c ea e3 09 3c ab a7 ec 3d
       0.024165025 0.021029934 0.008416155 0.115554176
000060 a0 d1 d7 bc 62 67 59 bd 7b e0 7d bd 4b 0c 7c 3d
       -0.026345074 -0.05307711 -0.06198166 0.06153516
000070 dc 9c 42 bb 1b f4 1f 3d 86 1e 17 bd 1f 56 32 bd
       -0.0029695546 0.039051156 -0.036894344 -0.043539163
000080 05 e6 8a bb 46 c5 bd 3c cd 6a 5e 3c bf 12 96 3b
       -0.0042388462 0.023165356 0.013575268 0.0045798714
000090 88 7d 83 3c ed 7a 1c 3d 5a b9 07 3c da a9 dd bc
       0.016051069 0.03820317 0.008283937 -0.02705853
0000a0 69 f1 fb 3c 48 80 59 bd 9a 23 81 3d 05 18 2e bb
       0.030754762 -0.053100854 0.063056186 -0.002656461
0000b0 ea 7f 8d bd b0 73 cb bd ea fe 93 3d 6c a2 a6 3d
       -0.06909163 -0.09934175 0.072263554 0.08136448
0000c0 ad bf c3 bc cc e0 1c bd 87 44 88 3d 0a 69 7a 3d
       -0.02389511 -0.03830032 0.066536956 0.06113533
0000d0 ec 6a 3f bd 26 49 8c 3d e3 e8 0f 3d c9 c3 4c bc
       -0.046732828 0.068498895 0.035134207 -0.012497851
0000e0 88 3b 5d bd b6 a3 0d 3d 2f 6d 2b 3d 27 00 c2 3d
       -0.05401185 0.034579955 0.041852172 0.09472685
0000f0 36 f0 a1 bd c1 3e 95 3d ca a8 32 bd b0 56 63 bd
       -0.07907145 0.0728736 -0.043618 -0.055502594

model.6.weight f4 [32, 64]
000000 88 8c ca bc 86 23 ae bc 73 1c 65 bc 23 72 fb 3c
       -0.024725214 -0.021257173 -0.013983834 0.030694073
000010 10 76 14 bd a2 db 61 3e c9 55 29 be 3e 19 68 be
       -0.036245406 0.2205644 -0.1653663 -0.22665879
000020 60 e8 7e bc 50 7b d7 bc 37 40 4c bd 4c 9b 8d bd
       -0.015558332 -0.026303917 -0.049865928 -0.06914386
000030 30 a0 88 bd a4 2b f4 3d 78 9e 44 3e eb bf 32 3e
       -0.06671178 0.11922386 0.19201076 0.17456023
000040 d3 00 f0 3d 7c 61 90 3e 44 1a 90 3d ca 50 e8 3d
       0.11718907 0.28199375 0.0703626 0.11343534
000050 21 19 62 3d 5d d3 1b 3d a5 ac 1a 3e b1 5b 67 3d
       0.055199746 0.03804337 0.15104921 0.056483928
000060 cf f0 94 bd 01 81 47 bd 0a 49 dd bd 1e 03 46 3e
       -0.07272493 -0.048707012 -0.10804947 0.19337127
000070 3b 67 49 be a6 18 63 bc b5 51 2d bc 06 11 ab 3c
       -0.19668286 -0.013860857 -0.0105785625 0.02088214
000080 3c f3 03 3d 15 da da bd ae bc 79 bc 97 a4 82 3e
       0.03221439 -0.10686127 -0.015242739 0.25516197
000090 b2 ef 02 be 98 da 93 bd 83 d1 5a be c2 e4 5b 3e
       -0.12786749 -0.07219428 -0.21368985 0.21473983
0000a0 1b 6e 02 be 4d b4 68 be c4 36 9c 3e 4d 99 62 3e
       -0.12737314 -0.2272503 0.30510533 0.22128792
0000b0 7c 40 43 3d 4f 1e ac bc a3 f6 09 3d b6 b7 5f 3d
       0.04766892 -0.021010546 0.033682477 0.05461856
0000c0 38 da fc bd 9f 21 4c be 86 37 c5 3d ea f6 8a 3e
       -0.123463094 -0.199347 0.09629731 0.27141505
0000d0 b5 32 17 3d 19 f5 a2 3d ae 81 8d 3d 60 d3 63 be
       0.036913592 0.07956905 0.069095 -0.22248602
0000e0 f1 f9 dc 3d 7e a1 76 bd a0 94 e3 bc 08 f4 0e 3e
       0.1078986 -0.060212605 -0.02778083 0.13960278
0000f0 7d 54 5d bc 43 1d 9c 3d 4d a0 56 3e 2c fb 7e bd
       -0.013508913 0.07622769 0.20959587 -0.062251255
000100 5f 5c 7b bd 45 ed 74 bd 23 66 bb 3d ea 5d e2 bd
       -0.06136739 -0.05979659 0.091503404 -0.11053069
000110 24 f9 dc 3d cd 49 72 bc 4b 61 e6 3d 55 1f 0e 3e
       0.10789707 -0.014788103 0.11249026 0.1387914
000120 48 b5 ed bc 7e f0 1f 39 70 2d 0e 3e cc aa a2 3d
       -0.029017106 0.00015253012 0.1388452 0.07942733
000130 d4 38 ac 3d 4f 15 6a 3c c2 a0 b2 3d f8 44 49 be
       0.084092766 0.014287307 0.08722068 -0.19655216
000140 36 0a da 3d 90 4f 3d 3d eb 6b 54 bd d6 1b 94 3d
       0.10646479 0.046218455 -0.05186073 0.07231872
000150 90 d4 bc 3d 8c 11 6f 3e 08 47 0f be 8c 36 94 bd
       0.092202306 0.23346537 -0.1399194 -0.072369665
000160 d6 da 45 3c ab 70 e5 3d e9 73 02 bd 4f 60 1b 3d
       0.0120761 0.1120313 -0.03184882 0.037933644
000170 fd 92 13 3e 75 b2 c7 3d 40 53 91 3d 4a e4 b6 3d
       0.1441154 0.09750835 0.07095957 0.089302614
000180 e1 b0 9a 3c bb 33 29 3d fa 8d 23 3c 1d f8 3f bd
       0.01888317 0.0413091 0.00998258 -0.04686748
000190 8a 26 10 3e 54 2a c8 3d 9d ce 80 3d bb 47 2f be
       0.14077201 0.097736984 0.06289408 -0.17117207
0001a0 a9 e2 b9 3d 0d b8 85 3d 27 3b 5e be 2f a0 92 bd
       0.09076435 0.065292455 -0.21702252 -0.07159459
0001b0 68 65 c0 bd fc 4b ac bd ae 4b cb bd ba 4e 32 3e
       -0.09394342 -0.0841293 -0.09926544 0.17412844
0001c0 23 d3 19 3e 2c d4 24 3d d4 47 a0 3c 83 15 be bc
       0.15021949 0.040241405 0.0195655 -0.023203617
0001d0 9a 99 68 3e 76 77 60 bc 5a 39 b7 3d c6 df d8 3d
       0.22714844 -0.013700357 0.08946486 0.105895564
0001e0 64 97 3d bd 58 ca 2a 3e 92 2c 3b 3d 76 ca 16 bd
       -0.046286955 0.1667875 0.045696802 -0.036814176
0001f0 de 25 56 bd 87 ce b2 3c 84 4f c0 bd 9d df 82 3d
       -0.052282207 0.021826996 -0.093901664 0.06390307
000200 2d 11 21 3e e1 be 95 3d a3 3b a6 bd ba da 73 bd
       0.15729208 0.07311798 -0.081168436 -0.059534766
000210 e0 77 da 3d b2 9b 65 bd ee 7a 24 3e ec 47 d2 3d
       0.106673956 -0.056056686 0.16062519 0.10267624
000220 0a f1 c6 3d 72 13 8b 3d a2 94 4f 3d d2 b7 fa 3d
       0.09713943 0.06790818 0.050678857 0.12242092
000230 de 31 62 bc 92 1e 6e 3d 60 13 29 bc d2 23 98 bd
       -0.013805835 0.058134623 -0.010319561 -0.07428707
000240 40 74 3d 3e d0 57 cc bb 58 ef 4b be 20 48 7a 3d
       0.18501377 -0.006236054 -0.19915521 0.06110394
000250 49 d3 0d 3e ea 3e 4c 3e b5 10 1b be 6a bc 6e bd
       0.1385013 0.19945875 -0.15143092 -0.058285154
000260 62 a1 be 3d 67 be 9c ba a0 3e cf bd 7b e0 14 3d
       0.09308125 -0.00119586 -0.10119367 0.036346894
000270 3a 70 bb bc 9f 69 28 3e 32 8b 47 3c b7 1f 8c ba
       -0.022880662 0.16446541 0.012179183 -0.0010690604
000280 91 0d 13 bd 84 04 6b 3d 82 94 d0 3d fc 20 4f bc
       -0.03590161 0.057377353 0.101845756 -0.012642141
000290 f1 21 94 3d c7 9e b3 bd e0 33 23 3d 79 7b 5c be
       0.07233036 -0.08770519 0.039844394 -0.21531476
0002a0 d8 1d c2 3d 3d 5c 1f 3e 2a 9f 30 be bf 1a 8a bc
       0.094783485 0.1556253 -0.17248216 -0.016858457
0002b0 48 92 8d bd 9e 24 82 3d fd 9d a6 3c 88 cd 32 3d
       -0.069126666 0.063546404 0.020339007 0.04365304
0002c0 fd 22 d4 3d 69 33 cd 3d 45 03 fb bc 4a b4 2e be
       0.10358236 0.10019571 -0.030641207 -0.17060962
0002d0 3c 0b 16 3d 10 13 27 3e fc f4 21 bd 38 82 7f bc
       0.036631808 0.16315866 -0.039540276 -0.015595011
0002e0 d7 12 07 bd 61 1f 1c 3d 99 e2 cb 3c 10 91 23 be
       -0.03297695 0.038115863 0.024888324 -0.15973306
0002f0 1c b3 b1 3d ba 78 6a 3e d9 b7 30 be da 63 6d 3e
       0.086767405 0.22897616 -0.17257632 0.23182622
000300 46 4e 01 3d 63 0c 0b 3e cf 7f b1 3c 0b be 88 bd
       0.031568788 0.13578944 0.02166739 -0.06676873
000310 d0 d4 a2 3d fc 8b 11 3e ff 80 0d 3c 83 93 0f be
       0.07950747 0.14213556 0.008636712 -0.14021115
000320 b0 e9 af 3c ee e3 64 3d 15 c7 be bd 1b 24 6f 3d
       0.021473736 0.055881433 -0.09315316 0.058384042
000330 ac 68 6b 3b dc 71 cf 3d c0 76 d8 3d 1c cc 69 3e
       0.0035920544 0.10129139 0.10569525 0.22831768
000340 d6 ea a2 3d 83 3d 8c 3e c8 0d 4e 3e 65 1e b0 3c
       0.07954948 0.2739068 0.20122445 0.021498868
000350 7f d6 00 3b 35 b1 4c 3d e1 30 87 3e 1a e9 38 bc
       0.00196591 0.049973685 0.2640448 -0.0112860445
000360 4b b7 f5 bc ef 0e 89 bd 75 c7 08 be 45 d9 a0 3d
       -0.029994627 -0.066923015 -0.13357337 0.07853941
000370 77 09 3e be e1 2a 83 3c b3 0a a8 bd cb c8 13 be
       -0.18558298 0.016011657 -0.08205166 -0.14432065
000380 7c 6a a1 3d 02 eb f5 bd 2c 1c 67 3c 66 41 85 3e
       0.078816384 -0.12007715 0.014105838 0.26026458
000390 f4 97 1b be 7f 1d f0 3c 4c 81 3d bd ec ff 55 3e
       -0.15194684 0.02931094 -0.046265885 0.20898408
0003a0 82 38 7d bd a0 d0 53 3d 3d 34 b0 3d 9c 60 b1 3d
       -0.06182147 0.051712632 0.08603714 0.08661005
0003b0 0e 8e ad 3d 68 df b9 3c 6e c8 0e 3e 15 26 93 3c
       0.084743604 0.022689536 0.13943645 0.017962495
0003c0 c2 26 23 be 72 a1 e8 bc bf 1a 8a 3d 75 2b 5b 3e
       -0.15932754 -0.028397296 0.06743383 0.21403296
0003d0 2a 3f 23 be b4 89 1a 3d 3f ec c2 bc 29 9d b0 3b
       -0.15942064 0.03772898 -0.023794292 0.0053898287
0003e0 c9 cd 00 b9 0f f7 a3 bd 34 56 47 bb 91 5c 5c 3e
       -0.00012283692 -0.08006107 -0.0030416371 0.21519686
0003f0 01 ef c5 bc 37 57 9a bd 23 bb 61 3e 92 c9 ef bd
       -0.024161818 -0.07536166 0.22044043 -0.11708368

model.6.bias f4 [32]
000000 65 e1 bf 3d 8a 48 99 3d 2d 4d f6 3c 33 84 2e bd
       0.093691625 0.07484539 0.030066097 -0.042606544
000010 37 1a dc 3d 6d 35 94 3d d6 dd 1a bd 19 75 2f bd
       0.107471876 0.07236753 -0.037809215 -0.042836282
000020 24 42 b1 3d ca af dd 3d 65 0f 42 bd 15 40 ab 3d
       0.086551934 0.10824545 -0.047377963 0.08361832
000030 4b 6e 91 3d 8a 6d 06 3e 2e 0c 39 3d 41 cb 60 3d
       0.07101115 0.13127723 0.04517763 0.054881338
000040 a8 08 6e bd 6a 73 58 3d c0 4a 62 3d 41 82 c9 3d
       -0.058113724 0.052844442 0.05524707 0.09839297
000050 3e d3 f6 3d 57 5a 9a bc c3 43 4a bc 66 61 ad 3d
       0.1205201 -0.018841906 -0.012345257 0.08465843
000060 a7 0c 95 3d c1 6e a7 bd e6 b0 8d 3c d2 6c 2e bd
       0.07277804 -0.081754215 0.017296266 -0.042584248
000070 59 51 f0 bd ba 0e db 3d 32 85 a4 3b 1e ce dd bd
       -0.11734266 0.10696168 0.005020761 -0.10830329

model.8.weight f4 [1, 32]
000000 41 b3 45 be ff be 15 3e 10 72 87 3e a6 90 a3 be
       -0.19306661 0.1462364 0.2645421 -0.31946295
000010 0f a0 81 be 02 82 62 3e 76 9b 3b 3e 4d 3c 1d be
       -0.25317428 0.22119907 0.18321022 -0.15355034
000020 fb ba 42 3e 95 13 ac be 1e cc 70 3e ab ac 9c 3e
       0.1901664 -0.3360869 0.23515365 0.30600485
000030 1f 12 a7 be 6b ce 77 be c8 ff 9e be ce aa 90 3e
       -0.32631013 -0.24199836 -0.3105452 0.28255314
000040 69 95 36 3e 86 ef 92 3e 65 a5 73 be 90 5f 39 3e
       0.17830433 0.28698367 -0.23793562 0.1810286
000050 95 9f 60 3e 21 46 f5 3d 82 79 22 3e 26 64 91 be
       0.21935876 0.11976267 0.15866664 -0.2839672
000060 41 12 34 3e fb 31 10 be f9 c7 8a be df f2 61 3e
       0.17585088 -0.14081566 -0.27105692 0.22065304
000070 06 39 d4 bd 9e b0 94 be 8f 4f 59 3e 31 8a a9 bd
       -0.10362439 -0.29040998 0.21221755 -0.08278311
