squat_model.pth (torch, 79152 bytes, 7 tensors)

model.0.weight f4 [128, 66]
0	0xbcbdd867	-0.023174478
1	0xbdfcde8f	-0.12347137
2	0xbba7f22b	-0.005125304
3	0xbd7d5abe	-0.061854117
4	0x3d96a0ea	0.07354911
5	0xbc8139ce	-0.015774634
6	0xbd28a439	-0.04117224
7	0x3d151896	0.0364004
8	0x3cb6e8fa	0.022327889
9	0xbdba8384	-0.09107116
10	0xbe00835b	-0.12550108
11	0xbda5ccec	-0.08095726
12	0xbdddfa81	-0.108387955
13	0x3b4bc93a	0.0031095282
14	0xbcd820ef	-0.026382891
15	0x3d60a46c	0.054844305
16	0xbca96674	-0.020678736
17	0xbc5fee0c	-0.013667595
18	0xbd53698b	-0.051614325
19	0x3dd10c63	0.10207441
20	0x3d6c76dd	0.057730544
21	0x3d2a5baf	0.041591343
22	0xbdb647ce	-0.089004144
23	0xbd879de3	-0.066219114
24	0x3d2f0bf3	0.042736005
25	0x3d48de34	0.049040034
26	0xbdaf2b96	-0.08553235
27	0x3d243eab	0.040098827
28	0x3d1a582d	0.037681747
29	0x3d95265b	0.07282706
30	0x3d4cd2e2	0.0500058
31	0xbbf210a7	-0.007387239
32	0x3c2d7cdc	0.010588851
33	0xbdc03a4b	-0.093861185
34	0xbda67abc	-0.081288785
35	0x3dc01290	0.093785405
36	0x3dd6ac69	0.104821034
37	0xbc15df50	-0.00914748
38	0xbdb7d549	-0.08976228
39	0xbc8b84b6	-0.017031055
40	0xbd46d598	-0.048543543
41	0xbd2a7f67	-0.041625407
42	0xbe05dc9b	-0.13072436
43	0x3d94add6	0.07259719
44	0xbd27a6ae	-0.040930443
45	0xbdb41717	-0.087934665
46	0xbdd3b9c8	-0.10338169
47	0xbd1db2e4	-0.03850068
48	0xbdf67064	-0.120331556
49	0xbdb8fb5f	-0.0903232
50	0xbdf494d2	-0.11942448
51	0x3dd0eeef	0.10201823
52	0x3dad37b1	0.08457888
53	0x3dd90935	0.10597459
54	0xbda2f66c	-0.079571575
55	0xbc24e43d	-0.010064182
56	0x3dc5ded7	0.09661644
57	0xbde569f5	-0.1120185
58	0x3d8e53f0	0.069496036
59	0xbde29f97	-0.110655956
60	0x3da644a2	0.081185594
61	0x3d587324	0.05284418
62	0x3dd28d15	0.102808155
63	0x3d5b9359	0.05360732
64	0xbdb3bf0b	-0.08776673
65	0x3d623899	0.055229757
66	0x3be6d212	0.0070440853
67	0x3da0409e	0.07824825
68	0xbd5f9b4c	-0.054591462
69	0x3cf9497e	0.030430552
70	0xbdbf6ca3	-0.09346893
71	0x3cc8c377	0.024507267
72	0x3c32c50c	0.010911237
73	0xbdad4a30	-0.08461416
74	0x3ded403e	0.11584519
75	0xbd9cc303	-0.07654383
76	0x3c78e35b	0.0151909245
77	0xbc55a1eb	-0.0130390925
78	0xbd015369	-0.031573687
79	0xbd96b6aa	-0.07359059
80	0xbcdb45f7	-0.02676676
81	0x3d1fa8b3	0.038979243
82	0xbce58eec	-0.028022252
83	0x3df3831f	0.11890244
84	0xbd63c670	-0.055609167
85	0xbd277526	-0.040883206
86	0xbc691aa1	-0.01422754
87	0x3da1afc2	0.07894851
88	0xbc9dd279	-0.0192654
89	0x3d579ffe	0.052642815
90	0xbdf43c97	-0.11925619
91	0x3d75d25f	0.06001508
92	0xbd8c4dba	-0.06850763
93	0x3dc26783	0.094923995
94	0x3c1d2ada	0.009592736
95	0xbcb11a3a	-0.021618951
96	0xbd0e7c45	-0.03478648
97	0xbddadfe0	-0.10687232
98	0xbdc7cc76	-0.09755795
99	0x3ba7e7ac	0.005124053
100	0x3cf34882	0.02969766
101	0xbdd619b0	-0.10454118
102	0xbdda0546	-0.10645537
103	0x3cdfed37	0.027334793
104	0xbd35653c	-0.044285998
105	0xbcf44aa9	-0.029820757
106	0x3cb17e84	0.021666773
107	0x3d8e5b71	0.06951035
108	0x3d35f47f	0.044422623
109	0x3dbd8b58	0.09255093
110	0xbd9eaa3d	-0.07747314
111	0xbcbc05d2	-0.022951994
112	0xbd0d194a	-0.034447946
113	0xbcd0f25c	-0.025506191
114	0x3dd920df	0.10601973
115	0xbd7107f7	-0.058845486
116	0xbd88ee0a	-0.06686027
117	0xbdad2ff0	-0.08456409
118	0x3df154d2	0.11783756
119	0x3b8bebfe	0.004270076
120	0xbd985812	-0.07438673
121	0xbcb845e4	-0.022494264
122	0x3d5caedb	0.053877693
123	0xbd36d0a1	-0.044632558
124	0x3d1bdf86	0.038054965
125	0x3aa96426	0.0012923523
126	0xbd37b9a8	-0.04485479
127	0x3d6ea1b9	0.0582597
128	0xbd9ad9b9	-0.075610586
129	0x3daed0df	0.08535933
130	0xbdcb03ac	-0.0991281
131	0xbdbc6cc9	-0.092004366
132	0xbc8da2ac	-0.017289482
133	0x3cba08f5	0.02270935
134	0x3de9d373	0.11417284
135	0xbdb89315	-0.09012429
136	0x3db6524b	0.08902415
137	0xbc1507cc	-0.009096097
138	0x3cdc939c	0.026925854
139	0x3e116d7f	0.14201926
140	0xbdac1dfe	-0.08404158
141	0x3d298a58	0.0413917
142	0x3dd7ee9b	0.10543557
143	0x3becd8c7	0.0072279903
144	0xbd4a6eac	-0.04942195
145	0xbcc5aa2d	-0.024128998
146	0xbd839055	-0.064240135
147	0xbcba6bf6	-0.022756558
148	0x3dbef610	0.093242764
149	0x3e151b78	0.1456126
150	0x3d3254f3	0.043538045
151	0x3df29631	0.11845053
152	0xbacc6afe	-0.0015595851
153	0x3dfc5769	0.1232136
154	0x3d820522	0.06348635
155	0x3be79808	0.007067684
156	0x3de1a8be	0.11018513
157	0x3d0b0a98	0.03394565
158	0x3d99c5e2	0.07508446
159	0xba4eb533	-0.0007885277
160	0x3dc450af	0.09585702
161	0x3cb3abba	0.021932472
162	0x3bfed475	0.0077767917
163	0x3e13bf9e	0.14428565
164	0x3dd86abf	0.10567235
165	0x3d2e16ff	0.0425024
166	0x3e158e04	0.14604956
167	0x3d4ff106	0.050766967
168	0xbc73d1fa	-0.014881605
169	0x3e1ba479	0.1519946
170	0x3e040b2f	0.12894891
171	0x3d2f7a83	0.042841446
172	0x3b8e0738	0.0043343566
173	0x3dec259e	0.115306124
174	0x3e13eeb3	0.14446525
175	0x3dcb5997	0.09929197
176	0x3be204d8	0.00689755
177	0x3e0bbb4d	0.13645668
178	0xbbf41297	-0.007448505
179	0x3d8c968b	0.06864651
180	0xbdba4b13	-0.090963505
181	0xbc99d599	-0.01877861
182	0xba8fa1f9	-0.0010958306
183	0xbbe22b28	-0.0069021173
184	0x3cde17d6	0.027110975
185	0x3db849be	0.0899844
186	0xbdadd1a2	-0.0848725
187	0xbd55ae0f	-0.05216795
188	0xbd20084a	-0.039070405
189	0x3d20d884	0.039268985
190	0xbd3c9c96	-0.04604777
191	0x3a8dafcb	0.0010809837
192	0x3d1ee41d	0.038791765
193	0x3d6ee232	0.058321185
194	0x3cc0c766	0.02353258
195	0x3dbcf9c3	0.09227326
196	0xbd64475b	-0.055732112
197	0xbac06851	-0.0014679526
198	0xbc9a39d3	-0.0188264
199	0xbd556f0a	-0.05210785
200	0xbb920520	-0.0044561774
201	0x3ddb5e24	0.10711315
202	0x3e0f20fd	0.13977428
203	0x3ddb22e6	0.10700016
204	0x3d9dbd15	0.0770208
205	0x3c888399	0.016664313
206	0x3d0fae94	0.0350786
207	0xbd0ce5c2	-0.0343988
208	0xbd52b1e6	-0.05143919
209	0xbd2a24e6	-0.041539095
210	0xbdc67f15	-0.09692208
211	0x3d2df0b7	0.04246589
212	0xbdb84bb7	-0.089988165
213	0xbce2ec83	-0.027700668
214	0xbd3984a3	-0.045292508
215	0x3cf1b3ca	0.029504675
216	0xbd91c790	-0.07118142
217	0x3d9a6514	0.0753881
218	0xbdbdca51	-0.092671044
219	0x3e16764c	0.14693564
220	0xbd9f0f69	-0.07766611
221	0x3c8fce7c	0.017554514
222	0x3d3b580e	0.045738272
223	0x3d032521	0.03201783
224	0xbd706c0d	-0.058696795
225	0xbd5f48c8	-0.05451277
226	0xbd436c9c	-0.047711
227	0xbd6304f9	-0.055424664
228	0x3bc04b47	0.0058683488
229	0x3daabfa7	0.08337336
230	0x3da52278	0.08063215
231	0xbd5758b3	-0.052574825
232	0xb9f7a0a5	-0.000472312
233	0x3dd1309c	0.1021435
234	0x3d9febf6	0.07808678
235	0x3d2e297a	0.042520024
236	0x3cb31a46	0.021863114
237	0x3cebce5c	0.028784923
238	0x3dc2dcd7	0.09514778
239	0x3e09f774	0.13473302
240	0x3e0db0f8	0.1383704
241	0x3d65ade6	0.056074046
242	0x3d285646	0.0410979
243	0x3e070e22	0.13188985
244	0x3d580f7d	0.052749146
245	0xbd98d7e0	-0.0746305
246	0x3e0fb0c4	0.14032274
247	0x3dc2a61e	0.095043406
248	0x3de94434	0.11389962
249	0xbd2a89f2	-0.04163546
250	0xbdbc119e	-0.09183048
251	0x3dbfa33e	0.09357308
252	0x3d863ada	0.06554194
253	0xbb75464f	-0.003742594
254	0x3da71746	0.08158736
255	0x3cb21c8f	0.021742133

model.0.bias f4 [128]
0	0x3dab7f59	0.08373899
1	0xbdf82f71	-0.12118424
2	0x3cdf9e68	0.027297214
3	0x3d997980	0.074938774
4	0xbdc73ed7	-0.097287826
5	0x3e16ad4f	0.1471455
6	0xbdd6d5cf	-0.104899995
7	0xbda4afaa	-0.08041318
8	0x3d90adf3	0.07064428
9	0x3e0b04bb	0.13576023
10	0xbd6b01b6	-0.05737468
11	0x3dd4d11e	0.103914484
12	0x3d68b5bc	0.05681394
13	0xbce760bb	-0.028244367
14	0x3e208558	0.15675867
15	0x3c8e81fb	0.017395964
16	0xbda70b02	-0.081563964
17	0x3d84543d	0.0646138
18	0xbd3b62e4	-0.045748606
19	0x3dc1cfc7	0.094634585
20	0xbce1cc25	-0.027563164
21	0x3d74c240	0.059755564
22	0x3d1b2613	0.037878107
23	0xbd05cb40	-0.032664537
24	0xbdc153ed	-0.09439836
25	0xbcd54991	-0.026036056
26	0x3d5fe95e	0.054665916
27	0xbd71eb83	-0.059062492
28	0x3e19eb57	0.15031181
29	0xbc9adb94	-0.018903531
30	0xbd00ad7c	-0.031415448
31	0x3e0f6ea3	0.14007048
32	0xbc9e69cd	-0.01933756
33	0xbd0fe2da	-0.035128452
34	0x3c98d64e	0.018656876
35	0x3de1b79d	0.110213496
36	0xbd9d9af4	-0.076955706
37	0xbd482a34	-0.048868373
38	0xbd6c6085	-0.057709236
39	0xbc8f39ab	-0.017483553
40	0xbd4cd515	-0.0500079
41	0x3cac9350	0.021066338
42	0x3c942b83	0.018087154
43	0x3dd2621c	0.10272619
44	0x39710d48	0.00022988499
45	0x3dd046bd	0.10169742
46	0xbdbaa110	-0.091127515
47	0x3d3e3b32	0.04644317
48	0x3e10e69a	0.14150468
49	0xbc828dd6	-0.015936773
50	0xbbc06ddf	-0.0058724727
51	0xbd3f0c53	-0.046642613
52	0xbdaba454	-0.083809525
53	0x3c93fb58	0.018064186
54	0x3d8e4cfc	0.06948277
55	0x3aaca5b9	0.0013171948
56	0x3db1ec27	0.086876206
57	0x3e15d90e	0.14633581
58	0xbb2d1bb7	-0.0026414224
59	0xbddabb91	-0.10680307
60	0x3cacb9ea	0.021084744
61	0x3d3e02c4	0.046389356
62	0x3e19bcd0	0.15013433
63	0x3e052081	0.1300068
64	0xbdf3711f	-0.118868105
65	0x3d83a1f6	0.06427376
66	0x3d11b226	0.035570286
67	0xbc8f0fa6	-0.017463516
68	0xbce71a7e	-0.028210875
69	0xbc782a03	-0.015146735
70	0xbd6407bb	-0.055671435
71	0xbd6e160e	-0.0581265
72	0x3c01a8ab	0.007913749
73	0x3d20bad8	0.039240688
74	0x3b1b5907	0.0023704187
75	0x3de9895c	0.11403152
76	0x3d9535cb	0.07285651
77	0x3daa299a	0.08308716
78	0xbd154cc0	-0.036450148
79	0x3d8fcdd8	0.070216835
80	0x3dd53981	0.104113586
81	0x3d934265	0.07190398
82	0x3dd413bd	0.10355327
83	0xbc80293c	-0.015644662
84	0x3dafd870	0.08586204
85	0xbd9500e6	-0.07275562
86	0x3d73fcb4	0.05956717
87	0x3dc32344	0.09528211
88	0x3bce48e5	0.006295311
89	0x3d2877ea	0.041129984
90	0x3e092840	0.1339426
91	0x3e2039d1	0.15647055
92	0x3d46f8a3	0.048576962
93	0x3d6f5b68	0.05843678
94	0xbd8ad134	-0.067781836
95	0x3d6826b2	0.056677528
96	0x3e118f6e	0.1421487
97	0x3dc3a68c	0.09553251
98	0xbcc1b479	-0.023645626
99	0x3de02506	0.10944562
100	0xbde15a5c	-0.11003563
101	0x3d0db19e	0.034593217
102	0x3c6d5087	0.014484531
103	0x3d100bd2	0.035167523
104	0xbda4572c	-0.08024439
105	0x3d495839	0.0491564
106	0xbd64a751	-0.055823628
107	0x3b13333a	0.0022460953
108	0x3dbed7e1	0.093185194
109	0xbd611a70	-0.054956853
110	0x3dcfc870	0.10145652
111	0x3e250f81	0.16119196
112	0xbda24b85	-0.079245605
113	0x3de6fb37	0.11278384
114	0x3de72808	0.11286932
115	0xbcc7aadf	-0.02437347
116	0x3ded1f46	0.115782306
117	0xbcfe42d4	-0.031037726
118	0x3d1c39a9	0.038140927
119	0xbc049cc1	-0.008094014
120	0x3c866a0a	0.016407985
121	0xbd99c63f	-0.075085156
122	0x3d68ab1b	0.056803804
123	0x3de77231	0.11301077
124	0x3d9c179d	0.076216914
125	0x3ccfccd2	0.02536622
126	0xbdd2fa77	-0.10301679
127	0x3d603e13	0.0547467

model.3.weight f4 [64, 128]
0	0xbcc783e4	-0.024354883
1	0xbda3fea0	-0.0800755
2	0x3cad9e1c	0.021193556
3	0xbd24f918	-0.040276617
4	0x3cff8366	0.031190585
5	0xbbb498a5	-0.0055113607
6	0x3d761f28	0.060088307
7	0x3db1f700	0.0868969
8	0xbc2d1f5a	-0.010566557
9	0x3d9417fd	0.07231138
10	0xbce06bfa	-0.027395237
11	0xbcb39d37	-0.021925552
12	0xbcd1355e	-0.025538143
13	0xbd6c490d	-0.057686854
14	0xbd2db38f	-0.04240757
15	0xbd1128ba	-0.03543923
16	0xbcfc2512	-0.030779395
17	0x3cd71775	0.026256302
18	0xbd0bfed8	-0.034178585
19	0x3df8ad1e	0.121423945
20	0x3cf74dd7	0.030188484
21	0x3dc50faf	0.09622132
22	0xbdb28276	-0.0871629
23	0x3d8f9254	0.07010332
24	0x3d8aa1fe	0.06769179
25	0xbd0908a1	-0.033455495
26	0xbd116cc0	-0.035504103
27	0x3d99ea1f	0.07515358
28	0x3bdd7b06	0.0067590503
29	0x3da739bc	0.08165309
30	0x3d279b48	0.040919572
31	0xbd04e6e8	-0.03244677
32	0x3d5214c1	0.051289324
33	0xbc2d6ad1	-0.010584549
34	0x3d2fe17a	0.04293964
35	0x3d84b8cc	0.0648056
36	0x3d23cf60	0.03999269
37	0xbc997510	-0.018732578
38	0xbda07c7a	-0.07836242
39	0x3dc3cfd9	0.09561128
40	0x3c245325	0.010029589
41	0x3dacc92b	0.08436807
42	0x3d717502	0.058949478
43	0xbd0b01a9	-0.03393713
44	0x3da275fe	0.079326615
45	0xbc982623	-0.018572873
46	0x3cbcad89	0.023031967
47	0x3ddd33a2	0.10800864
48	0x3dda36aa	0.106549576
49	0x3d93e722	0.072218195
50	0xbc951000	-0.018196106
51	0xbc24e350	-0.010063961
52	0xbd805cc3	-0.06267693
53	0xbdaf2d19	-0.085535236
54	0x3dc13565	0.09434012
55	0xbd229ed3	-0.039702248
56	0x3dbe7922	0.09300448
57	0xbc28d2a2	-0.010304125
58	0xbd3d3803	-0.046195995
59	0x3c022553	0.007943469
60	0xbc978737	-0.018497093
61	0x3d68d261	0.056841258
62	0x3dbedccb	0.09319457
63	0xbc8dcf87	-0.01731087
64	0x3d061557	0.032735195
65	0x3d215376	0.039386235
66	0x3d6868ce	0.056740575
67	0x3de2005e	0.11035226
68	0x3d03d7a9	0.03218809
69	0xbd3b2ffb	-0.045700055
70	0x3d2cee9f	0.042219754
71	0xbd46597c	-0.048425183
72	0x3d929c09	0.071586676
73	0xbbb5d89b	-0.005549503
74	0x3c81da0b	0.015851041
75	0x3bd6336c	0.0065368917
76	0xbcaf8b25	-0.021428654
77	0xbb972f14	-0.0046137664
78	0xbb4e58d8	-0.003148606
79	0x3d40ccf3	0.047070455
80	0x3dba9c52	0.09111847
81	0x3d3d01f3	0.046144437
82	0xbda109e9	-0.07863218
83	0x3b9c63a6	0.004772621
84	0xbb735840	-0.0037131459
85	0x3ca1ff58	0.019775078
86	0x3dc8b777	0.09800618
87	0x3c987e2b	0.01861485
88	0x3c18b6ff	0.009320973
89	0x3cbc997a	0.023022402
90	0x3b108c0a	0.0022056126
91	0x3e829221	0.25502113
92	0x3df8ccfe	0.12148474
93	0xbd044873	-0.032295655
94	0x3d81106f	0.063019626
95	0xbd7afe4c	-0.061277673
96	0xbcb36ed3	-0.021903431
97	0xbd8b7b69	-0.06810648
98	0xbcab655f	-0.020922361
99	0x3dcc3cdf	0.09972548
100	0xbcbf87e9	-0.023380237
101	0x3d05a13a	0.03262446
102	0xbc972f31	-0.01845512
103	0xbd5f0de4	-0.054456607
104	0xbbe17244	-0.0068800766
105	0x3d4b7d79	0.049680207
106	0xbbda0b38	-0.0066541694
107	0xbd092599	-0.03348312
108	0x3c5f36dc	0.013623919
109	0xbc8b349b	-0.016992858
110	0x3d956458	0.0729453
111	0x3d547e04	0.05187799
112	0xbc9d0ea8	-0.019172028
113	0x3d5888a4	0.052864686
114	0xbcb89b68	-0.022535041
115	0x3df98958	0.12184399
116	0xbd04ada8	-0.032392174
117	0x3db1d069	0.08682329
118	0xbd3823c2	-0.044955976
119	0xbd536977	-0.05161425
120	0x3db6249a	0.088937
121	0xbaec851a	-0.0018045038
122	0x3c2f9636	0.010716965
123	0x3d57e069	0.05270425
124	0x3dbd940a	0.09256752
125	0xbb1d6797	-0.0024018043
126	0xbd8c6213	-0.06854644
127	0xbd6c427a	-0.057680584
128	0x3cbf132c	0.023324572
129	0x3d8c3886	0.068467185
130	0x3cbefe72	0.023314688
131	0xbd96630a	-0.07343109
132	0xbd795528	-0.060872227
133	0x3d468337	0.04846498
134	0x3cfe917b	0.03107523
135	0xbcbfe16b	-0.023422917
136	0xbc311325	-0.010807787
137	0xbd79f704	-0.061026588
138	0x3d41f1d9	0.047349785
139	0x3d55075f	0.052008983
140	0x3d0ce4ee	0.034398012
141	0x3cfd862c	0.030947767
142	0x3d81b6c6	0.063336894
143	0xbd93b3bd	-0.07212017
144	0xbb118633	-0.0022205233
145	0x3bfa91ae	0.007646761
146	0xbc2fafb4	-0.010723043
147	0xbd9dbd0e	-0.07702075
148	0x3b93526e	0.0044959104
149	0x3c14f7d8	0.009092294
150	0xbcaea103	-0.02131701
151	0xbd0cba02	-0.03435708
152	0xbd9bc217	-0.07605379
153	0xbc171973	-0.009222376
154	0xbd98b1bc	-0.07455775
155	0x3d3dead7	0.04636654
156	0xbd9cdd02	-0.076593414
157	0x3d0533cc	0.0325201
158	0x3d63f999	0.055657957
159	0x3cebea1f	0.028798161
160	0xbc13850e	-0.009003891
161	0x3d131db9	0.035917018
162	0x3d10fbf3	0.035396527
163	0x3d12d350	0.035846055
164	0x3db12dec	0.08651337
165	0x3d46d589	0.048543487
166	0x3b0d7267	0.0021583082
167	0xbcfe71ce	-0.031060126
168	0xbcdbd17d	-0.02683329
169	0xbd8e6812	-0.069534436
170	0x3d65cdb4	0.056104377
171	0x3d3d122f	0.04615992
172	0x3d414d3f	0.04719281
173	0xbdc69dd8	-0.09698075
174	0x3c9445fa	0.018099774
175	0xbda31599	-0.07963104
176	0x3badaf78	0.0053004585
177	0x3d8be3d3	0.068305634
178	0xbd4de9b0	-0.05027169
179	0xbd9a1a34	-0.07524529
180	0xbd61888c	-0.055061862
181	0xbc30b687	-0.010785705
182	0x3d48a6c0	0.04898715
183	0x3d897410	0.0671159
184	0xbc0849d1	-0.00831838
185	0xbb4879e1	-0.0030590224
186	0x3d3fa099	0.046784017
187	0x3bfddad3	0.007747033
188	0xbd2d1eac	-0.04226558
189	0x3d418909	0.047249828
190	0xbd08a115	-0.033356745
191	0xbda0417e	-0.07824992
192	0x3b7b613d	0.003835752
193	0xbd0bd091	-0.03413445
194	0xbd59970d	-0.05312257
195	0xbd0a4762	-0.033759482
196	0x3d8dbebf	0.069211476
197	0xbd9f06aa	-0.07764943
198	0x3cba7e6c	0.02276536
199	0xbda9b2e9	-0.082860775
200	0xbd8c670e	-0.068555936
201	0xbcfc6e28	-0.030814245
202	0x3d945149	0.072420664
203	0xbccd26e0	-0.025042951
204	0xbcb9986e	-0.022655692
205	0xbc4afdcb	-0.0123896105
206	0x3d1f2f65	0.03886356
207	0xbd3dacdb	-0.046307426
208	0xbc1dfddc	-0.009643044
209	0xbb52ce21	-0.003216632
210	0xbba6aae9	-0.005086292
211	0xbd254efa	-0.04035852
212	0xbd887833	-0.06663551
213	0x3cb4fb23	0.022092408
214	0xbbe0dc3f	-0.006862193
215	0xbd809eb0	-0.06280267
216	0x3cadc265	0.021210859
217	0xbcb77969	-0.02239676
218	0xbd4c98e3	-0.04995049
219	0xbd58976d	-0.052878786
220	0xbc2b924b	-0.010471891
221	0xbaab4373	-0.0013066366
222	0x3d7bdf65	0.061492343
223	0x3ccf31ee	0.025292363
224	0xbcd8b672	-0.026454184
225	0x3ceafa8c	0.028683923
226	0x3d86f1f2	0.06589116
227	0x3d1325e4	0.035924807
228	0x3d979b3c	0.074026555
229	0x3d352047	0.044220235
230	0xbcddfc35	-0.0270978
231	0x3d1e6002	0.03866578
232	0x3c862785	0.016376266
233	0xbc6756cd	-0.014119816
234	0xbbf7b5a4	-0.007559495
235	0xbda95d27	-0.082697205
236	0x3ce66293	0.028123176
237	0xbd905766	-0.0704792
238	0xbcd6f658	-0.026240513
239	0xbca58f27	-0.020209862
240	0xbd2f1570	-0.042745054
241	0xbd56320c	-0.052293822
242	0x3d12fae6	0.035883807
243	0xbdaf1cab	-0.0855039
244	0x3d9a417e	0.07532023
245	0x3d9162fe	0.070989594
246	0x3d38a442	0.045078523
247	0x3cd43e92	0.025908742
248	0xbd15c065	-0.036560435
249	0xbcc39bad	-0.023877943
250	0x3caf76c8	0.021418944
251	0x3c366d9b	0.01113453
252	0xbd90429b	-0.07043954
253	0xbda56521	-0.080759294
254	0xbd2792ce	-0.04091149
255	0x3cd1cc8f	0.025610236

model.3.bias f4 [64]
0	0x3df094a9	0.11747105
1	0x3c683748	0.014173336
2	0xbd588a46	-0.052866243
3	0x3d8fcd20	0.07021546
4	0xbc74d96d	-0.0149444165
5	0x3db0475b	0.0860736
6	0xbd44789c	-0.047966585
7	0xbd3e3b32	-0.04644317
8	0x3d8ed18d	0.069735624
9	0x3ba6733f	0.0050796564
10	0xbd244b9c	-0.04011117
11	0xbd2bffc8	-0.04199198
12	0x3dce100e	0.10061656
13	0x3d5b6da1	0.053571347
14	0xbd41f622	-0.04735387
15	0x3ddf508e	0.109040365
16	0x3d12613a	0.035737254
17	0xbce8ac1d	-0.028402383
18	0x3d38b76d	0.045096803
19	0xbced5970	-0.028973311
20	0xbd804a61	-0.06264187
21	0x3c87dcb4	0.016584732
22	0x3cdac257	0.026703997
23	0x3c67a458	0.014138304
24	0x3deb0605	0.114757575
25	0x3cec53b8	0.028848514
26	0xbd45b34b	-0.04826669
27	0x3c63314c	0.013866734
28	0xbcb3d303	-0.021951204
29	0xbc2d0cbc	-0.010562118
30	0xbdc8669a	-0.09785195
31	0xbd0ab36e	-0.033862524
32	0x3d3eec95	0.04661234
33	0xbc839006	-0.016059887
34	0x3d791cd8	0.060818523
35	0xbc56c60a	-0.01310874
36	0x3cd38f3d	0.025825137
37	0x3c6e20e9	0.014534214
38	0xbb9024f1	-0.004398935
39	0x3c1fa5fc	0.009744164
40	0x3d82d51d	0.063883044
41	0x3d868f53	0.06570306
42	0xbdae848c	-0.08521375
43	0x3dc05650	0.09391463
44	0x3d596fe9	0.05308524
45	0x3dd19035	0.102325834
46	0x3ce8391f	0.02834755
47	0xbd838d29	-0.064234085
48	0x3d825dd6	0.06365554
49	0xbd0cd961	-0.034386996
50	0xbcb5f19e	-0.022209939
51	0x3d90c9a6	0.070697114
52	0xbd47b10a	-0.048752822
53	0x3dec3423	0.11533382
54	0x3cf98d85	0.03046299
55	0x3de390bc	0.1111159
56	0x3b918046	0.00444034
57	0x3d238e01	0.039930347
58	0xbc760608	-0.015016086
59	0x3c69185a	0.014226997
60	0x3d5c5ccd	0.05379944
61	0xbdb136e4	-0.08653048
62	0x3bbe5af2	0.0058091814
63	0xba62f13d	-0.0008657163

model.6.weight f4 [32, 64]
0	0xbdd463d8	-0.10370606
1	0x3d8643cd	0.06555901
2	0xbdd47e2b	-0.10375627
3	0x3dac87bd	0.084243275
4	0xbcdcedf5	-0.026968936
5	0xbdfde717	-0.123975925
6	0xbdf88a00	-0.121356964
7	0x3d7ae888	0.061256915
8	0xbd99cde7	-0.07509976
9	0xbd6af960	-0.05736673
10	0xbd262a07	-0.040567424
11	0xbbdd8768	-0.0067605264
12	0xbd83cc44	-0.06435445
13	0xbde7b376	-0.11313526
14	0x3d40b0fa	0.047043778
15	0x3d98798a	0.07445057
16	0x3b2e6cbc	0.0026615104
17	0xbc99357a	-0.018702257
18	0xbd7a640c	-0.06113057
19	0x3da827c8	0.08210713
20	0x3dc17ed9	0.094480224
21	0x3cf0f6dc	0.029414587
22	0x3db98a15	0.0905954
23	0xbd3378c2	-0.043816335
24	0x3d84c65c	0.064831465
25	0xbcae10d6	-0.021248262
26	0xbd004c6a	-0.031322874
27	0x3c6c06c7	0.014405913
28	0x3d4b9fbb	0.049712878
29	0xbdba3f0e	-0.09094058
30	0xbd6c069f	-0.057623502
31	0xbdeab845	-0.11460928
32	0x3ce099a1	0.027417006
33	0x3d6c489b	0.05768643
34	0xbe0f20bb	-0.1397733
35	0x3b33b725	0.0027422395
36	0x3dc3e3ec	0.09564957
37	0xbd330e56	-0.043714844
38	0xbdde9d71	-0.10869873
39	0xbc115c64	-0.008872125
40	0x3bcc3b0b	0.0062326244
41	0x3d49419e	0.049134843
42	0x3d5862c2	0.052828558
43	0xbca65f16	-0.020309012
44	0x3dad4f03	0.08462336
45	0x3c86a523	0.016436165
46	0x3d3a9f1c	0.045561895
47	0xbdd66a1a	-0.10469456
48	0x3d122ece	0.035689168
49	0x3d8b1dcf	0.06792795
50	0xbd809b67	-0.06279641
51	0xbd292748	-0.041297227
52	0xbe194948	-0.14969361
53	0xbcb012f7	-0.021493418
54	0xbc5e1f05	-0.0135572
55	0x3d592180	0.053010464
56	0xbd9bde5b	-0.0761077
57	0xbc427815	-0.01186945
58	0xbc27e925	-0.010248457
59	0xbd893853	-0.06700196
60	0x3d51e992	0.05124814
61	0xbdbd5149	-0.092440195
62	0x3d702037	0.058624472
63	0x3d155e5a	0.036466934
64	0xbde7e1a8	-0.113223374
65	0x3dbe62bc	0.09296176
66	0x3c74e932	0.014948176
67	0xbd48dc26	-0.049038075
68	0xbcaf3169	-0.021385865
69	0xbddf95bc	-0.109172314
70	0x3c7f1211	0.015568272
71	0xbd519357	-0.051165905
72	0xb9c76205	-0.00038029268
73	0x3d926170	0.07147491
74	0xbe059f6a	-0.13049093
75	0xbdc0b5cd	-0.09409676
76	0x3c8e4aeb	0.017369708
77	0xbe02c267	-0.12769471
78	0x3d1e9234	0.03871365
79	0xbd530da4	-0.05152668
80	0x3c1cc7ce	0.0095691215
81	0x3da87921	0.082262285
82	0xbcdb44db	-0.026766231
83	0x3d0ec4ab	0.034855526
84	0x3db3b326	0.08774404
85	0xbca20908	-0.019779697
86	0xbd314de7	-0.043287184
87	0xbd9d8ec8	-0.07693249
88	0xbbd3b973	-0.0064613163
89	0x3cf80243	0.030274516
90	0x3d548c7c	0.05189179
91	0x3d096830	0.033546627
92	0xbd9a0187	-0.075198226
93	0xbdd37872	-0.103257075
94	0xbc43a8fd	-0.011942145
95	0x3b6b7635	0.0035928611
96	0x3c3b36b5	0.011426617
97	0x3c6f7c2c	0.014617007
98	0xbd792217	-0.060823526
99	0x3db90911	0.090349324
100	0x3d14fbe7	0.036373045
101	0x3d106495	0.035252172
102	0xbc30e443	-0.010796609
103	0xbd727e12	-0.05920226
104	0x3d944184	0.072390586
105	0xbdde0627	-0.10841017
106	0x3da2ce4f	0.079495065
107	0x3cbf7df0	0.023375481
108	0xbdc725eb	-0.09724029
109	0xbc15d1c7	-0.009144253
110	0x3d686e9b	0.056746107
111	0xbc255200	-0.010090351
112	0x3c9bfe19	0.019042062
113	0xbdb8455c	-0.08997604
114	0x3d2b5c1d	0.041835893
115	0x3dd675de	0.104717
116	0xbe012301	-0.12611009
117	0xbdc64967	-0.09681969
118	0xbd41fe7c	-0.047361836
119	0x3da14725	0.07874898
120	0xbde6145c	-0.11234352
121	0xbdd40772	-0.103529826
122	0xbb84d6e0	-0.0040539354
123	0xbd43ef0a	-0.047835387
124	0xbdf2dc2f	-0.11858403
125	0x3d8681fb	0.065677606
126	0x3dcb2045	0.09918264
127	0xbdff4711	-0.12464727
128	0xbe0aae5f	-0.1354308
129	0x3cdf8761	0.027286233
130	0xbd69444f	-0.05694991
131	0x3c2badb2	0.010478424
132	0xbca61fdf	-0.02027887
133	0x3da04a86	0.07826714
134	0xbd0f0351	-0.034915272
135	0x3d8fb068	0.07016069
136	0xbdb5c2b3	-0.088750266
137	0x3d9ccdc4	0.07656434
138	0xbdd088d9	-0.101823516
139	0xbdf18f39	-0.11794896
140	0x3db2b25a	0.08725424
141	0x3db038ed	0.08604608
142	0xbc8208b5	-0.015873292
143	0xbe01b752	-0.12667587
144	0x3d9ca720	0.07649064
145	0x3d395db5	0.04525538
146	0x3db70f7c	0.089385
147	0x3c4cf69a	0.012509966
148	0xbd9389dc	-0.07204029
149	0x3d86e59e	0.06586765
150	0x3cb11739	0.021617519
151	0x3d37a442	0.044834383
152	0x3d79d4db	0.06099401
153	0xbe104fd5	-0.14092954
154	0x3de13daf	0.10998093
155	0x3d4049aa	0.04694525
156	0x3d9b66df	0.075879805
157	0x3dd6d36b	0.104895435
158	0x3daf5c9f	0.08562588
159	0x3d5f30ee	0.054490022
160	0xbe06c309	-0.13160338
161	0xbdc3ed9e	-0.09566806
162	0xbd9b3177	-0.07577794
163	0xbcd72b1a	-0.02626567
164	0x3d059116	0.032609068
165	0xbd99dadd	-0.07512448
166	0x3d5654eb	0.052327078
167	0xbd978441	-0.07398272
168	0xbe12de97	-0.14342724
169	0x3d3dd646	0.046346925
170	0x3d1688c1	0.036751512
171	0x3991efd0	0.0002783523
172	0x3d2845d6	0.041082226
173	0x3b988af1	0.004655235
174	0x3de2aa59	0.110676475
175	0x3dfec88a	0.124405935
176	0xbd585129	-0.052811775
177	0xbdd0dffd	-0.101989724
178	0xbdb75d7b	-0.08953377
179	0xbd7f94be	-0.06239771
180	0xbdfdffb6	-0.124022886
181	0xbde1fc9e	-0.11034511
182	0xbd4a3c61	-0.049373988
183	0x3d7be356	0.0614961
184	0x3c18b364	0.009320114
185	0xbccef897	-0.025265021
186	0x3cab94c6	0.020944964
187	0x3b8d69ee	0.0043156063
188	0xbe05565c	-0.13021225
189	0xbcc79ec9	-0.024367707
190	0x3d820359	0.06348295
191	0x3daa77e1	0.08323646
192	0x3ce7ce8c	0.028296731
193	0xbddf93bc	-0.1091685
194	0x3d321e2c	0.043485805
195	0x3d7be170	0.06149429
196	0x3da2385d	0.07920907
197	0x3cb9a6e1	0.022662582
198	0xbd398991	-0.04529721
199	0x3ddbaf10	0.1072675
200	0xbddfc169	-0.10925562
201	0xbd2f6a44	-0.042825952
202	0xbda9ee84	-0.08297446
203	0x3dd0aeda	0.101896
204	0xbd5ab0d6	-0.0533913
205	0x3d21ac40	0.03947091
206	0xbdcde56a	-0.10053523
207	0x3d7096fc	0.05873774
208	0x3d80246e	0.062569484
209	0xbd14db05	-0.036341686
210	0xbc3fb468	-0.011700727
211	0x3d0ef498	0.03490123
212	0x3d3d7b74	0.046260312
213	0xbd2a3e14	-0.04156311
214	0xbdf89cb4	-0.12139264
215	0x3c8c75b2	0.017145965
216	0xbdc36625	-0.09540967
217	0x3cfd57a5	0.030925581
218	0x3dd91a48	0.10600716
219	0xbcc43f98	-0.023956105
220	0xbc343f70	-0.011001453
221	0xbdb495a8	-0.08817607
222	0x3b61e700	0.0034469962
223	0x3d9c139c	0.07620928
224	0xbda77eb4	-0.081784636
225	0x3d0f0d7c	0.03492497
226	0xbc326f6e	-0.010890825
227	0xbdbf775e	-0.09348939
228	0xbdc21bb4	-0.0947794
229	0xbcdb7b8e	-0.026792314
230	0xbd998e4e	-0.074978456
231	0xbe04b022	-0.12957814
232	0xbd24517c	-0.040116772
233	0xbde856ec	-0.11344704
234	0xbd8c82ea	-0.068609074
235	0xbda9d9ac	-0.08293471
236	0xbd524d4c	-0.051343247
237	0xbd20085c	-0.039070472
238	0xbd902f94	-0.07040325
239	0xbce67c00	-0.0281353
240	0xbd741204	-0.059587494
241	0x3d50734f	0.050891217
242	0xbd1d5b51	-0.038417164
243	0xbc3970f0	-0.01131843
244	0xbd2aa68e	-0.041662745
245	0x3c94bce8	0.018156484
246	0x3da67b9c	0.08129045
247	0x3ce6867d	0.0281403
248	0xbd37fe20	-0.044920087
249	0xbdbfb667	-0.09360962
250	0x3da33490	0.0796901
251	0xbd390f78	-0.045180768
252	0xbd66814a	-0.056275643
253	0xbdf4bcaa	-0.11950047
254	0x3d55c2ef	0.052187856
255	0x3df391d0	0.11893046

model.6.bias f4 [32]
0	0xbdc42e02	-0.09579088
1	0x3bca12fb	0.0061668134
2	0xbdef8546	-0.11695342
3	0x3d404df9	0.04694936
4	0x3d315dac	0.043302223
5	0xbdf602e7	-0.12012272
6	0xbd9f3ae9	-0.07774908
7	0xbd5150c6	-0.051102422
8	0x3de25fb7	0.110534124
9	0x3de4425a	0.11145468
10	0x3e167bee	0.14695713
11	0x3d0f49de	0.034982555
12	0xbdee9aec	-0.11650643
13	0xbd89778d	-0.067122556
14	0xbdf2c4f8	-0.11853975
15	0xbcd4d728	-0.0259815
16	0xbba7a7bc	-0.005116431
17	0x3c541b22	0.012945922
18	0x3da7563a	0.08170743
19	0x3d12a06f	0.035797533
20	0x3cab8d0e	0.020941284
21	0x3decb0d7	0.11557167
22	0xbd0967d6	-0.03354629
23	0xbda9b31c	-0.082861155
24	0x3ca586f3	0.02020595
25	0x3dad53b4	0.08463231
26	0x3e14efe9	0.14544643
27	0xbe04d6f8	-0.12972629
28	0x3d311db3	0.043241214
29	0x3c973361	0.018457117
30	0x3cb24ac1	0.021764161
31	0xbdf953a3	-0.121741556

model.8.weight f4 [1, 32]
0	0xbe17acaf	-0.14811967
1	0xbdb60236	-0.088871405
2	0xbdd6dff8	-0.104919374
3	0xbdef35f8	-0.116802156
4	0xbe246b4e	-0.16056558
5	0xbe1b18b2	-0.1514614
6	0x3ed701dd	0.4199361
7	0x3df7c31f	0.12097763
8	0x3cce9303	0.025216585
9	0x3d7d9745	0.06191184
10	0x3e3cc0ce	0.18432924
11	0x3e391259	0.18073405
12	0xbd49a32b	-0.049227875
13	0x3e3ac4e7	0.18239175
14	0x3bce94b1	0.0063043465
15	0x3e409653	0.18807344
16	0x3dfb5a95	0.122731365
17	0xbe162f36	-0.14666447
18	0xbcab4010	-0.02090457
19	0xbd1fb4e9	-0.03899089
20	0x3daa09e7	0.0830267
21	0x3e077554	0.13228351
22	0xbd5dba96	-0.05413302
23	0x3d644c81	0.055737022
24	0x3e4353ad	0.19074889
25	0xbdc33252	-0.09531082
26	0x3dc55dd2	0.096370354
27	0xbdf3c74b	-0.119032465
28	0xbb95aa1e	-0.0045673987
29	0xbdf72d04	-0.12069133
30	0xbd8b1669	-0.06791384
31	0xbd1565b9	-0.036473963
