squat_model.pth (torch, 79152 bytes, 7 tensors)

model.0.weight f4 [128, 66]
00000000: d8aa fcbc 4387 1c3e aeb9 96bd f4fc c13d
00000010: 1cb3 7cbd 63b1 283d f37f b3bd 19df 073d
00000020: ac59 df3d 24a8 c7bd de1d 44bc 6fd0 d7bd
00000030: e073 cc3d 01d1 4e3d d1b8 f53c 3c75 a4bd
00000040: 5c46 b53d 92d3 843d 6bef f13d 26f3 b33d
00000050: 70fb fe3d 7b92 c03d 5e48 493d f479 f83d
00000060: c546 ea3d d95a f23d 3dbc 98bb a6ce aabc
00000070: 2875 213e da2f a4bd b959 21bd 97b8 9abd
00000080: 8e58 b33d f5af a0bd 6203 153c c371 093c
00000090: efc2 30bd 821d 023d 4754 963c 89bb 2e3d
000000a0: 35b3 133d 3b3a 0dbd 514d 103e a627 eb3d
000000b0: 3c86 a33d db70 c43c 761c 003e a79c e53d
000000c0: e079 aabc 8171 fd3d 8bc9 173e 2e00 963d
000000d0: 7fc6 383d 5b9d 4abd 7246 a33d 2d59 ed3d
000000e0: 743b 993d e31f 4cbd c3c7 723d d52a d53d
000000f0: 9bb2 673d 258f 77bd 261a 963d 4a25 d83d
00000100: db43 733d 2f0b d33d 93a3 00be 589f c4bd
00000110: 67e3 1b3d 5119 1fbd c4df 633d f60f 3d3c
00000120: b7b4 c5bd d4ba b9bd 3c6b bd3d 2318 91bd
00000130: 4cd9 9b3d caa4 b5bd b947 32bc b91c 36bd
00000140: 0c9c b8bd 1f04 3fbd ca39 cb3d 76a1 d13c
00000150: b6ce a33d a4d3 993d 5f5f d7bd 62bc d0bd
00000160: c42b 253d f840 bf3c ae3b d93d b46c 38bd
00000170: 3085 97bc f6ef 06be 5347 74bd c1c9 e13d
00000180: 17f0 c53c 3f1f b1bd dea4 bd3d e242 d03d
00000190: e3ef de3d 8fa2 abbd eccd bbbc 4e83 fbbc
000001a0: e6dc dc3d 6a3a e2bd 1789 a4bd 40ec c23d
000001b0: a12a 903d d3fd 1ebd e16a 9ebc bc14 433d
000001c0: 8b92 2bbd dbb4 7bbd 2596 f7bb b15c 9f3c
000001d0: d5dd 293c 5646 913c 17c8 ebbd ecbd c2bd
000001e0: 8200 8bbc cc86 693d ac28 b73d c759 ff3c
000001f0: 4845 60bd 3236 bebc 66b2 103d ed23 1c3d
00000200: e380 8bbd 4ae4 123c 8746 8a3d 8ea9 703d
00000210: fee6 ec3d 037a 873b e488 a3bd 408d 8d3d
00000220: 3ed3 bebd df8f 0e3d 66d3 d8bd 0297 773d
00000230: f88d e53c 8d51 b93b 24b3 ab3d 9e62 983c
00000240: 2d9b 3d3d 4b5b 99b9 9b88 86bd 4f19 c6bd
00000250: 323d f9bd 32fd 8cbd 2583 973d a584 a4bd
00000260: b980 e6bd d6de 2cbd f4a5 8dbd 368e b03b
00000270: 8fcf b93d f17c 973d 4e4c 1ebc 23e2 9e3d
00000280: fc23 bfbd 96d0 f6bd fc33 9fbd db92 b2bc
00000290: 5a07 a8bd 0c9b 233c 5dad 1abd ddd8 c63d
000002a0: 6903 bcbd 612b cb3d e523 a5bd f243 c83c
000002b0: 40c5 ef3d 26e1 423d 8744 f7bd b707 573d
000002c0: 5331 9d3d 5344 df3d bdc1 93bd 5135 bfbd
000002d0: c913 633d de55 e9bc d1db 343c 5460 8c3d
000002e0: 34ae 893c 6689 d73d 0c28 08bd d8c3 b73d
000002f0: de61 4bbd 66c3 a8bd 3871 7bbc 9ab1 9ebd
00000300: 8184 693d 4b76 bbbd 291b 1fbd 8c3e 9ebd
00000310: 23f7 bf3d 2571 903d 0a2b 92bd e4f5 dc3c
00000320: 5da3 c83d 8d87 73bd 72dd 233d 2a51 4d3d
00000330: 1456 8d3d 2790 81bd 9f59 94bd 159e dcbd
00000340: ba02 8cbd e6a3 48bd 2448 92bd 1ef3 553d
00000350: 8b69 f83c 0844 c7bd a7a0 ef3c 323d d9bd
00000360: 14b8 bb3d 5a8a 80bd 12a4 503d 51f9 023d
00000370: bc9f 803d 7580 2dbd 23bc 6f3d 24e9 99bd
00000380: 03d7 b63c 328f b6bd 205f 213c 9086 51bd
00000390: afe2 453d 9105 12bd 39aa c1bb 1bfa a93b
000003a0: 6f9f eebd 3d58 843c d7b1 8b3d e9f5 c13d
000003b0: ea9c ca3d d0eb 64bd 4073 833b 0bbb e3bd
000003c0: 75af c23c fa2a 0b3d f536 ea3c 54d7 c8bc
000003d0: eac9 1a3d 0760 943d acdd adbd e266 daba
000003e0: 7f39 1ebc ab16 57bd 738c 753d 8e33 c53d
000003f0: 58b9 87bd bd6c 1ebd a15c 1abd 3a59 623d
-0.030843183 0.15285973 -0.07359634 0.09472075 -0.06169425 0.041184794 -0.08764639 0.033171747
0.109057754 -0.09748867 -0.0119700115 -0.105378024 0.09983039 0.05049229 0.029995354 -0.08030173
0.088513106 0.06485666 0.118132435 0.08786611 0.12450302 0.09402939 0.04914128 0.12132636
0.114392795 0.11833734 -0.0046611116 -0.02085049 0.15767348 -0.080169395 -0.039392207 -0.07554739
0.08757125 -0.07846061 0.009095045 0.008388939 -0.043154653 0.031766422 0.018350733 0.042659316
0.036059577 -0.03447936 0.14091994 0.11482172 0.079845876 0.023979595 0.12510857 0.1121152
-0.020810068 0.12375165 0.14822976 0.07324253 0.045111176 -0.049466472 0.07972421 0.115892746
0.07482043 -0.049835097 0.05927254 0.1040856 0.056566816 -0.060439248 0.07329206 0.10553987
0.059390884 0.103048675 -0.12562399 -0.09600705 0.038058665 -0.038842503 0.05563332 0.01153945
-0.09653609 -0.09068838 0.09248969 -0.07084682 0.076098055 -0.08869322 -0.010881358 -0.044460986
-0.090141386 -0.04663479 0.09923132 0.025589686 0.07998411 0.0751107 -0.105162375 -0.10192181
0.04032494 0.02334641 0.10607086 -0.045025542 -0.018496126 -0.13177475 -0.059638333 0.1102481
0.024162335 -0.08648538 0.092599615 0.10169007 0.108855985 -0.08380615 -0.02292534 -0.03070226
0.107843205 -0.11046298 -0.0803396 0.09517717 0.07039381 -0.038816284 -0.019338073 0.047627196
-0.0418878 -0.061451774 -0.0075557404 0.019453378 0.01036783 0.017733734 -0.115127735 -0.09508881
-0.016968016 0.057013318 0.089433044 0.031170739 -0.05475357 -0.023219202 0.035326384 0.0381202
-0.068116926 0.008965561 0.06751733 0.05875545 0.11567496 0.004134418 -0.07985094 0.06911707
-0.09317635 0.034805175 -0.10587196 0.060446747 0.028021798 0.0056554736 0.08383778 0.018601712
0.046290565 -0.00029250453 -0.06569024 -0.09672796 -0.12169875 -0.06884231 0.07398061 -0.080331124
-0.11255021 -0.0422047 -0.06916419 0.0053880466 0.09072792 0.073968776 -0.009661747 0.07757976
-0.09333035 -0.12051503 -0.07773587 -0.021798542 -0.08204527 0.0099856965 -0.03776299 0.09709332
-0.09180338 0.09920383 -0.08063487 0.024446461 0.11707544 0.047578 -0.120736174 0.05249759
0.076754235 0.10901704 -0.07214687 -0.09336341 0.05543879 -0.028483327 0.011038736 0.06854311
0.0168067 0.105242535 -0.033241317 0.08972901 -0.04965388 -0.08240394 -0.015346818 -0.077487186
0.05701113 -0.09153422 -0.03884426 -0.077267736 0.093733095 0.070528306 -0.07137115 0.026972719
0.09796784 -0.059455443 0.04000611 0.050126232 0.06901184 -0.06326323 -0.07243656 -0.10772339
-0.068364576 -0.04898443 -0.07142666 0.052233808 0.030323764 -0.09729773 0.02925141 -0.10607375
0.091659695 -0.062763885 0.05093772 0.031976048 0.06280467 -0.042358834 0.05852903 -0.07515171
0.022319322 -0.08914031 0.00984934 -0.05115372 0.048311885 -0.03564984 -0.0059101847 0.0051872856
-0.11651503 0.016155357 0.0682103 0.09470732 0.0989321 -0.05588895 0.0040115416 -0.1111966
0.023765305 0.033976533 0.028590659 -0.024516739 0.037790217 0.07244878 -0.08489546 -0.0016662742
-0.009657263 -0.052511852 0.059948396 0.09628974 -0.066271484 -0.03867792 -0.037685994 0.055260874

model.0.bias f4 [128]
00000000: cad4 fcbc 2094 06be b4a6 e1bd fc10 b8bd
00000010: 77da c63d 8644 e6bd 4305 07be 83b1 a2bd
00000020: d8c8 98bc 7e8d bf3c 66fb 88bd 4184 343e
00000030: d558 36bd bd42 fbbd 6a19 333c 388f c2bd
00000040: a266 e939 1ca6 b83d 2bce ce3d d064 b9bd
00000050: 1414 2b3d 085b 933d 75dc f43d bcd4 d0bd
00000060: afbb 0f3e b293 80bd 8804 cb3d f6ca d93c
00000070: 6fae bcbd 40c6 0d3e 5349 233e 1927 46bd
00000080: 25d6 4bbd 61b8 a3bd 8493 ad3d fe00 c53d
00000090: 6e23 c8bd cc8b 68bc c098 2d3e 91b8 95bd
000000a0: 0401 3b3d 1542 883d 07a8 a3bd 9cc1 2f3d
000000b0: 73ca 6c3d 27af d33d 14f4 ca3d 235d 3abd
000000c0: 9222 f43d e10c b5bb a13f ac3d c6a8 c83d
000000d0: a44b 97bd be23 fa3d e1a7 b0bc 435c adbd
000000e0: 9bfc 483d c651 a63c afa5 b9bd c156 5a3d
000000f0: 8f98 943d f6a9 b5bd a1df b8bd b31a 80bd
00000100: 13ea ed3c 8d32 7fbd 8c19 eb3d 5b06 c03c
00000110: 4e2c e1bc 4015 f43d 9147 55bd 79ab 16bd
00000120: ac05 9abd 3da4 febd 03ea db3d 6385 123e
00000130: 71f1 fe3d ce86 1bbd 0419 1a3d c952 11bd
00000140: 44e1 84bc 4bd4 0bbe f8a7 f13d 23dd b53d
00000150: b480 3a3c 73b8 993d fea5 5abd c402 6bbd
00000160: 91d2 5abd 7895 c63d bea0 103d b03e 85bd
00000170: 7dec ab3d 97c9 37bd 67a4 2bbc 762f aebd
00000180: 4af1 863d 0062 de3d 5713 f93d bdba 6c3d
00000190: 8cee 003e 384f 683d 5871 cc3b d6ed 243d
000001a0: b496 fbbc 991e 443d 8c41 043e 9e2c d53d
000001b0: 3a59 7d3d 94bc dc3d fb2a 023e c6a5 86bd
000001c0: a15b 89bd 3ff8 f9bd b67b 6f3d 4376 343d
000001d0: 1848 d3bd b0b1 0e3e 5dba 9a3d 2a80 e9bd
000001e0: 6042 0b3e d4a2 af3d 71e7 903d 5b48 d9bb
000001f0: 65e6 b93d 7d4a a6bc f7bf a63d 08d7 b63d
-0.030863184 -0.13142443 -0.11018124 -0.089876145 0.097096376 -0.112435386 -0.13185601 -0.07944014
-0.018650457 0.023382898 -0.066885754 0.17628576 -0.04451831 -0.12268589 0.010931352 -0.09499973
0.0004451769 0.09016058 0.10097917 -0.090524316 0.041767195 0.07195097 0.11956111 -0.10196826
0.1403644 -0.06278171 0.09912974 0.026586037 -0.09212958 0.13845158 0.1594594 -0.04837713
-0.04976477 -0.07994152 0.08475402 0.0961933 -0.09772383 -0.014193486 0.16952801 -0.07310594
0.045655265 0.06653229 -0.07991033 0.04290925 0.057810258 0.10336142 0.099098355 -0.04549898
0.11920656 -0.005525217 0.08410574 0.09797816 -0.07387474 0.122138485 -0.021564426 -0.08464863
0.04906903 0.020302664 -0.09064805 0.05330539 0.07255661 -0.08870308 -0.09027029 -0.062550925
0.02904228 -0.06230407 0.11479482 0.02344053 -0.027486946 0.119181156 -0.052070204 -0.036784623
-0.07520613 -0.1243367 0.107379936 0.14308695 0.12448395 -0.037970357 0.037621513 -0.03547934
-0.016220696 -0.13655202 0.117996156 0.08880069 0.011383224 0.07505884 -0.05338096 -0.057375684
-0.053423468 0.09696478 0.035309546 -0.06506097 0.08394716 -0.044869985 -0.010476208 -0.08505146
0.06588991 0.10858536 0.12161892 0.057795275 0.12590998 0.056716174 0.0062390976 0.04026588
-0.03071151 0.047880743 0.12915629 0.10408901 0.06185267 0.10778156 0.12711708 -0.065745875
-0.0670693 -0.12205552 0.05846759 0.044058096 -0.10316485 0.1393497 0.07555077 -0.114013985
0.13599539 0.08575979 0.07075394 -0.00663094 0.090771474 -0.02029919 0.08142083 0.08927733

model.3.weight f4 [64, 128]
00000000: 9e59 fb3c b3b0 983c ba0e 6e3d c7f1 8b3b
00000010: 2c8a 103e 503a 403d b674 9dbc 9fbe 763d
00000020: 51db 1fbc 7a05 e3bd fa5f eabc 39cb 9d3d
00000030: 611c 4dbc 5715 e33c c06a f53d d792 b3bd
00000040: a0b0 db3d 096b 313d f5e1 d23d ed4b e83d
00000050: 7c8c 2aba f366 55bd ef71 ce3d c5f2 e6bd
00000060: 0cf2 1e3d f4d0 753c f849 2bbd cf3a 6f3d
00000070: e87d b4bd b5fd 343d 004c acbc dd4a a13c
00000080: d74d f5bc ac6e 9d3c 20f1 da3d 4bdd 993c
00000090: 7189 b53c c776 133d ca6f ee3c 7e9f c9bd
000000a0: d57e e5bd 6a64 303d 827a 9bbb 3cb3 b8bc
000000b0: 6640 afbc e230 1c3d d2bb 87bd c4fc 623d
000000c0: 0276 40bb 5b0d 46bc ab86 f5bd d53a 86bd
000000d0: 8f60 dc3c e0e4 303d c484 3c3c 5dc7 babd
000000e0: 02ca bbbd c858 053d 5930 35bc 91d8 df3d
000000f0: a90a fe3d c44e 0d3d cc8a 633a 61b1 1a3c
00000100: 2226 edbc a939 0c3e c472 abbd e7fe 2f3c
00000110: 58d6 963d 41de a13d b833 8abc cf91 9b3c
00000120: 22ab c7bc 4f5e 7f3d 0ad5 edbd a6fb 1bbd
00000130: 2b85 8b3d 5770 5f3b 540d a0bd 7b46 ab3d
00000140: 798e dd3c 6add 95bd f914 813d fc36 d73d
00000150: 19f4 373b 2773 65bc 517c f73d 37a9 81bd
00000160: ba35 9e3d b590 0bbd 9e2f c03d a669 1cbd
00000170: 25e5 e83d 502c 263d 896b b3bd 17f1 b03d
00000180: f270 923d 3cac d63d dab7 263d 3e7a ccbd
00000190: f07a e63c 7b9d 3b3d f503 20bd 00bc 413d
000001a0: ff47 1dbd ddc5 c03c b6cd 043e 7d16 79bd
000001b0: f059 a43d af95 afbd 3d67 9e3d 7588 ed3d
000001c0: 305b 36bb 97c2 97bc 27dd 213d 39ec 4cbd
000001d0: 9e01 16be b052 623c 2585 65bd 6153 a33c
000001e0: 967d 2c3c fb40 e5bd 33a0 b0bb 6a4a 61bc
000001f0: e3f1 683d 044d 64bd fea1 163e a5ab c73c
00000200: 380b 0bbd 2bef aa3d 22e9 66bd 11be 17bc
00000210: 5c71 13bb 3de9 9bbd e776 963d 518e a93d
00000220: cf35 58bd 01a4 543d b391 863d ba5f 47bd
00000230: 66fb b33d 4755 b33c af39 5f3d 8f22 ac3d
00000240: 5043 963d e525 76bd d2bf 32bd 2450 803d
00000250: 5e08 863c 9e48 753d 7a71 2cbc 091d fa3b
00000260: 22ed c3bd dc38 d23c ebd1 dfbb b93f 66bc
00000270: 60aa b5bd 4942 3b3c 91e2 d23c b839 1abd
00000280: 7af5 9e3c 7885 2f3c aaea 14bc e4bd 743d
00000290: 1316 7fbd 712c 94bb c250 d43c 2ce9 b2bd
000002a0: be1f 86bd 1278 c73a a43d 8e3d 0ccf adbc
000002b0: 25fd b53a fde3 53bd d2af 713d f696 90bd
000002c0: a5bd 6c3d 0d44 213c f473 783d d874 403d
000002d0: f0e2 7cbd a7a3 23bd fc43 16bd dcc1 1ebd
000002e0: 4882 7dbd cce4 17bd b124 0bbd 1412 26bd
000002f0: 1e94 f03c de81 1a3d 8c95 e3bb 6041 fcbc
00000300: 2e12 4d3d d10e a5bd 797f cabd 5743 4d3d
00000310: 89e6 143b 83a0 2abd 982e 653d 9c12 6d3b
00000320: 73f7 a43b 7ab6 833b 1288 823b 3efc 9cbd
00000330: f042 ff3c f815 34bd 6380 4bbd c53b 9bbd
00000340: d7a9 493d 2004 033c 7ea9 993d 72ec 4cbd
00000350: 37b2 16bd 0132 b3bd 21ff 163d 9f8a 903d
00000360: af39 993d 8d4c 833c e095 27bd 0f8a a7bc
00000370: e67f a6bc 51e0 873d 84ad ff3b e795 f9bb
00000380: b968 88bd 1d30 68bd 73ea 01bd 9cce 163c
00000390: f13a 96bd ff60 c63c b5f8 ab3c bd4d ebbb
000003a0: 8a7a 9d3d 3afe 383d 6a2e 393c 5462 463d
000003b0: d112 6dbd 828d 37bd 61a1 5cbd 3623 a33d
000003c0: d804 3a3d ed1f a1bc 9272 d83c 62b5 b7bd
000003d0: 7251 0dbd 49cf 96bd 9fb4 2dbd 7d48 89bc
000003e0: b011 86bd 32d9 83bd 5020 00bc 5910 f53c
000003f0: bd60 a93c aca3 9c3a a350 93bd fb10 24bd
0.030682381 0.018638944 0.058119513 0.0042707655 0.14115208 0.04693061 -0.019220691 0.060240384
-0.009756879 -0.11085029 -0.028610218 0.07704777 -0.012518973 0.027720137 0.119832516 -0.08768242
0.10727048 0.043314967 0.10297004 0.11342607 -0.0006505919 -0.052100133 0.10080325 -0.11276773
0.038805053 0.015003432 -0.04181859 0.058405694 -0.08813077 0.044187266 -0.021032333 0.019689018
-0.029944343 0.019217812 0.10690522 0.018782279 0.022160264 0.036001947 0.02910604 -0.09844874
-0.11205832 0.043064512 -0.0047448287 -0.022546403 -0.021393012 0.038132556 -0.06627621 0.055416837
-0.0029367213 -0.012088145 -0.119885765 -0.0655419 0.026901511 0.043187022 0.011506263 -0.09120057
-0.09169389 0.03255537 -0.01105889 0.10929979 0.12404377 0.034498945 0.0008680045 0.0094417045
-0.028948847 0.1369387 -0.08371499 0.010741926 0.073651016 0.0790372 -0.016870365 0.018990425
-0.024373595 0.0623458 -0.116128996 -0.038081788 0.06812509 0.003409406 -0.07815042 0.083630525
0.027045475 -0.07317622 0.06302828 0.10508534 0.0028069078 -0.014004505 0.12084258 -0.06331103
0.07725091 -0.03407355 0.09384082 -0.03818669 0.11371831 0.040569603 -0.08760745 0.08639734
0.07150449 0.1048207 0.04070268 -0.09984253 0.028134793 0.045804482 -0.039066274 0.04729843
-0.03839874 0.023531849 0.12969097 -0.060812462 0.08024967 -0.08573472 0.07734535 0.11598293
-0.0027825348 -0.018525405 0.039517548 -0.050029967 -0.14649054 0.01381366 -0.05603518 0.01993722
0.010527989 -0.11194035 -0.005390191 -0.013750652 0.056871306 -0.05573751 0.14710233 0.024373839
-0.033946246 0.08346399 -0.056374677 -0.009261624 -0.0022497987 -0.07612846 0.073468976 0.08279098
-0.05278569 0.05191422 0.06570759 -0.048675276 0.08788185 0.02189125 0.05449837 0.08405029
0.073370576 -0.060094733 -0.043639965 0.062652856 0.016361412 0.059883706 -0.010525102 0.007632856
-0.09566714 0.025661878 -0.006830444 -0.014053279 -0.08870387 0.011429378 0.0257428 -0.0376527
0.019404162 0.010712974 -0.009089151 0.059751406 -0.06227691 -0.0045218994 0.025917415 -0.0873588
-0.06549023 0.0015218279 0.06945351 -0.021216892 0.0013884647 -0.0517311 0.059005566 -0.070600435
0.057798047 0.009842885 0.060657457 0.04698643 -0.061739862 -0.039950993 -0.03668593 -0.038759097
-0.061891824 -0.037083432 -0.03397054 -0.040544584 0.029367503 0.037721507 -0.0069453176 -0.030792892
0.050066166 -0.08059467 -0.09887595 0.05011305 0.0022720417 -0.041656982 0.05595264 0.0036174422
0.005034381 0.0040195556 0.003983506 -0.07665299 0.031159848 -0.043966264 -0.049682986 -0.075797595
0.049234238 0.007996589 0.07503031 -0.05003018 -0.036791053 -0.08749772 0.036864404 0.0705769
0.074817054 0.016027713 -0.040914416 -0.020451574 -0.020324659 0.06634582 0.007802667 -0.0076167467
-0.06660599 -0.05668651 -0.03171773 0.009204533 -0.07335461 0.024216173 0.020992616 -0.007180898
0.07689388 0.045164324 0.01130257 0.048433617 -0.057879273 -0.044812687 -0.05386484 0.079657
0.045414776 -0.019668544 0.026421819 -0.08970143 -0.0345015 -0.07363755 -0.04240858 -0.016758198
-0.065463424 -0.06437911 -0.007820204 0.029915022 0.020676011 0.0011950633 -0.071931146 -0.040055256

model.3.bias f4 [64]
00000000: 3055 343d 507e a2bd 093d c13d 60cf 64bc
00000010: e10e 6b3d 50f6 0bbd 9e29 75bc 459b 963d
00000020: b945 fcbc 46fd 803c 829e 483d a8a2 6c3d
00000030: 121d 1cbd 5379 c03d 72f6 d33d e2b4 143d
00000040: 95c4 513d 2fda a3bd 43d3 f13c 9a8c f53d
00000050: 4dae c03d 7815 d5bc 3499 883d 8901 033d
00000060: d12e 8d3c c3ca 6ebb ea36 fabc 62b6 8abd
00000070: 76dc 2abd 9215 81bd 062f 243d 0059 943d
00000080: 8c4c 843d 8671 5b3b f94e 01bd 5480 87bd
00000090: 2c3f 99bc 99c9 943d 225d 1fbd 95c9 8e3d
000000a0: 7de6 6c3d f8ba bebd 492c a63d d61e 903d
000000b0: ee4a 05bd b9bb 493c 8651 a2bd 62da 9a3c
000000c0: df85 22bd b6d8 81bb 9371 fa3b 7366 773d
000000d0: 6c48 1ebd 4a5f f3bc 6132 4c3c dd7c 3b3d
000000e0: 5adf 0cbc 8733 09bc ed18 36bd e43a ba3d
000000f0: 98b1 813d aa01 75bd 4753 bf3d 28ef c0bb
0.044026554 -0.079342484 0.0943547 -0.013965458 0.057387237 -0.03417045 -0.014963536 0.07353834
-0.030794965 0.01574577 0.04897929 0.05777231 -0.03811366 0.09398141 0.1034974 0.036305316
0.051212866 -0.080005996 0.029519683 0.11989708 0.09408245 -0.026011214 0.06669846 0.031983886
0.017234238 -0.0036436773 -0.030543763 -0.06773068 -0.041714154 -0.06302942 0.040083908 0.07243538
0.06459913 0.0033484413 -0.031569455 -0.066162735 -0.01870688 0.07265014 -0.038907178 0.069720425
0.057837 -0.09313005 0.081139155 0.070371315 -0.03254216 0.012312823 -0.079257056 0.018902961
-0.03967845 -0.0039626015 0.0076429336 0.060400438 -0.038643286 -0.029708523 0.012463183 0.045773376
-0.008598173 -0.0083741015 -0.044457365 0.09093264 0.063327014 -0.05981604 0.09342056 -0.0058878846

model.6.weight f4 [32, 64]
00000000: a171 e6bb 0ab5 9cbd a01b 913d d94b e43c
00000010: 50d2 eabd 08d6 8f3c 1942 cb3d c53f 77bc
00000020: d627 a13d 0e20 023c 2d7f 1abd c86b f43d
00000030: 0eac 5fbd f4fd fc3b 5f20 143e 4a3b 923c
00000040: 0745 793d 228d 2cbe be68 883c 2519 0a3d
00000050: ddf4 b13d 5723 f13c 0cec b83c aa10 41bc
00000060: 204a 6d3d e112 823d 8986 b9bd 1d10 823a
00000070: 48d0 e6bd e136 2d3e 505f eabd 53f3 1fbd
00000080: 3a6e 7dbd a490 a43d 7c31 1dbe 13ed 2d3d
00000090: 4f07 13be e869 a43c d712 283d 1f5f e23d
000000a0: 8073 f83d abfd 24bb 11f9 0f3e e222 a23b
000000b0: ad05 2a3e 42f4 053e ee21 c43d d2c4 e2bd
000000c0: 6b79 923c 1d65 26bd 1ebd d63c d755 913c
000000d0: 73b3 7b3d 7f7e 90bc ecbf da3d cb5f 0abe
000000e0: c820 2e3e e09e f53d f65b e43c 7fd6 553d
000000f0: 693c 923c 1811 5b3d 418b 7a3d 70cc 033e
00000100: 7004 e63d 8a0e cfbd 02d7 a13d c8b0 053d
00000110: 97b3 b63d 0fae a83d d012 473d 8bd3 2a3e
00000120: 5be8 b13c 9b23 3c3e c765 7f3d fd79 3abe
00000130: c0f7 b8bd 26b3 043e c8ab 86bd d720 f2bd
00000140: 7efe b83d b0be 1d3e f403 2bbd 7183 f03d
00000150: f3f3 6ebd 8389 90bc 72de de3d 3fe4 efbd
00000160: 6cf1 57bd 6af4 c4bd 7e22 ff3d 5271 38bb
00000170: c6f6 a33c 86d2 1fbe 5304 ac3d 7253 4d3d
00000180: 6d48 f93d 22b8 7a3e 3551 27ba 0f1e 0abd
00000190: 11f3 513e 05c2 363e f408 f93c 59c4 58bd
000001a0: d2c1 3f3d 2492 8d3b 55e6 abbd af7b 203e
000001b0: bb51 c13c cfb3 61bc 7ea6 3abd ab7b 61bd
000001c0: 8fca 083e 92e7 edbc fed7 303e 2672 953c
000001d0: 87e2 ebbd 7545 15be 59be 19be ccbe e43c
000001e0: 79e6 e13c 67da 653c 9b02 11bc bb45 e53d
000001f0: 0688 4b3e 506d 7cbd 6a21 0fbd aad7 b63d
00000200: 5017 0b3e dc5a a7ba ecf0 dbbd 9eb6 2ebd
00000210: c1e5 873b 612a 263d 401e 793d 20af 01bd
00000220: 00c4 f639 6d07 8b3d ee7e 4dbd 28bb bd3c
00000230: d061 d13d 3f04 c23d 10cf 5fbd 1e06 22be
00000240: 29a0 20bd eb87 7b3e 7c44 033d 54e5 403e
00000250: 4d96 d23d 539c e5bd 5dbe 353e 1a95 18be
00000260: b03c d13d 3675 a4bd fc77 943b 446c 3fbd
00000270: e235 b53d 6cd5 90bd 7608 183c 49b6 c83b
00000280: 3dfa fdbb e1bf 603e c155 1b3e a908 d43d
00000290: 1da0 8bbc aa77 393e dd1c a03c 4256 133d
000002a0: cf9e a1bd c81b b5bb 2e18 39bc ec8c 2abd
000002b0: be96 bf3c fc89 0e3d 6a10 65bd cecf c43d
000002c0: cc4c 883d d6c1 adbd 52c6 863e aeff e43d
000002d0: 70e5 f0bd b871 623d d3d0 933d 68f5 09bd
000002e0: 2727 15be 1e0b 84bd d71e c33d cb57 ba3d
000002f0: d265 bdbc 00b5 c6bd 112f c83d 7997 983c
00000300: 634a 21bd f44b 84bd 012b 213e 5e08 213e
00000310: 2cf8 0b3c c29c 933d 87f7 1c3e 3564 9bbd
00000320: f103 90bd ce10 093d 8aab 95bd 8448 abbc
00000330: e270 e3bc b577 04be 7f0d 0fbd 5c77 243e
00000340: 4d4b 643d 300a 16be 3254 2cbd d706 1abe
00000350: 1fa5 f43d 96a4 94bd a00e d03b 2737 9d3d
00000360: c4aa 163e 1555 a13a baed 8a39 3bd8 ff3d
00000370: 2ec8 903d 12b3 f03d b4ae 1bbe 0ab2 99bd
00000380: 60e8 a83b 4ab9 e6bd 567e 23bd 024a bbbc
00000390: 55af 973d 883c 623d 8781 a03d 5f1e d4bc
000003a0: e120 bb3c 55d3 cfbd cc60 2a3e c60d cd3d
000003b0: 9386 7e3d 39dd 223e aae8 0fbc c845 8fbd
000003c0: 2063 b0bd 1bda 15bd 1f8a 0cbe 017f 82bd
000003d0: d1c9 67bd 7ac6 193c 8a29 b23d 6efa 14be
000003e0: 2bab 94bc 80c8 83bd c171 3c3e 444a b0bd
000003f0: 1d6a a0bd 5460 35bd 0865 8d3d ecb4 dcbd
-0.0070325886 -0.07651718 0.07085347 0.027868198 -0.11465895 0.017558113 0.099247165 -0.015090887
0.07868926 0.007942213 -0.03771894 0.1193462 -0.054607444 0.0077207033 0.14465474 0.017850537
0.060856845 -0.16850713 0.016651507 0.033715386 0.08689282 0.029435797 0.022573493 -0.011783758
0.05793202 0.06351257 -0.09058864 0.0009923015 -0.11270195 0.16915466 -0.11443961 -0.03905041
-0.0618727 0.080354005 -0.15350908 0.04246242 -0.14358257 0.020070031 0.041033592 0.11053299
0.12131405 -0.0025175612 0.14059855 0.004948006 0.16603728 0.13081458 0.09576784 -0.11072697
0.017880162 -0.040623773 0.026213225 0.017741127 0.061450433 -0.017638443 0.106811374 -0.13513105
0.17004693 0.119931936 0.027875882 0.052206513 0.017851071 0.0534831 0.06116796 0.12870955
0.11231315 -0.10110195 0.079023376 0.032639295 0.08920973 0.08236324 0.048601925 0.1668226
0.021717241 0.18372957 0.06235292 -0.18210597 -0.090316296 0.12958965 -0.065757334 -0.1182267
0.090329155 0.15404773 -0.041751817 0.117438205 -0.058338117 -0.017643696 0.10882272 -0.11713456
-0.052720472 -0.09616931 0.12457751 -0.0028143716 0.020015132 -0.15607652 0.08399262 0.050128408
0.12172017 0.24484304 -0.0006382645 -0.033720072 0.20502879 0.1784745 0.030399777 -0.052921627
0.0468157 0.0043204 -0.08393542 0.15672182 0.023598542 -0.01377578 -0.045568936 -0.05504958
0.1335852 -0.029041085 0.17269894 0.018242907 -0.11517816 -0.14577277 -0.15014018 0.02792301
0.027575718 0.014029122 -0.008850719 0.11194941 0.19876108 -0.061627686 -0.034943976 0.089278534
0.13583112 -0.0012768167 -0.107393116 -0.042654626 0.004147262 0.04056776 0.060819864 -0.031661153
0.00047066808 0.06788526 -0.050169878 0.023160532 0.102237344 0.09473466 -0.05464083 -0.15822646
-0.03921524 0.24563567 0.032047734 0.18837482 0.10282574 -0.11211457 0.17748399 -0.14900628
0.10216653 -0.08030169 0.004530905 -0.04673411 0.08848168 -0.07071957 0.009279361 0.0061252457
-0.007750778 0.21948196 0.15169431 0.10353214 -0.017044121 0.18112054 0.019545013 0.035970934
-0.078916185 -0.0055269934 -0.011297269 -0.0416383 0.02338731 0.03479956 -0.055923857 0.09609948
0.06655273 -0.08484237 0.2632318 0.111815795 -0.11762512 0.055284232 0.072175644 -0.033681303
-0.14565717 -0.06447433 0.095273666 0.090987764 -0.02311984 -0.09702492 0.09774602 0.018626915
-0.03937758 -0.064597994 0.15739061 0.15725848 0.0085430555 0.072076336 0.15328799 -0.07587472
-0.07032002 0.03346329 -0.07308109 -0.020908602 -0.027763788 -0.1293629 -0.03492498 0.16061157
0.055735875 -0.14652324 -0.042072482 -0.15041672 0.11945557 -0.07257955 0.0063493997 0.07676535
0.1471358 0.0012308682 0.0002649853 0.124924146 0.07069431 0.11752905 -0.15203363 -0.075046614
0.0051546544 -0.1126581 -0.039915405 -0.022862438 0.07406489 0.05523351 0.078372054 -0.025893388
0.022842826 -0.1014773 0.16638488 0.10012393 0.06214006 0.15904702 -0.008783499 -0.069957316
-0.086126566 -0.036584955 -0.13724564 -0.0637188 -0.05658895 0.009385699 0.08699329 -0.14548656
-0.018148025 -0.06434727 0.18402769 -0.08607915 -0.078327395 -0.04428132 0.06904036 -0.107766956

model.6.bias f4 [32]
00000000: e127 043e 3f71 13bd 2e0f 603d 7fe9 ef3d
00000010: f141 2fbd 0f16 bf3d 211c f23d 60d3 9abd
00000020: c5d3 a93d 02a4 393d 77e7 3abc 3b99 6b37
00000030: 3549 9dbd a2ae 7abc a6b5 353d 9ebf 8e3d
00000040: e3b1 3ebb 7191 cd3d 2c47 ee3d a95d b03d
00000050: f328 bc3d 9505 e0bc 6660 b8bc 55d8 0d3d
00000060: 8a8e 4fbd 431a 67bc c1aa 9ebd 4319 0dbe
00000070: 304e 753c 0fac db3d eca3 ca3d d8b3 9cbd
0.12905838 -0.03599667 0.054701976 0.11714458 -0.042787496 0.09330379 0.118217714 -0.07559848
0.08292345 0.045322426 -0.011407725 1.4042768e-05 -0.07679979 -0.015300425 0.044362687 0.06970142
-0.0029097728 0.10037506 0.11634669 0.08611614 0.09187498 -0.027346412 -0.022506904 0.03463014
-0.050673045 -0.014105382 -0.077474125 -0.13779168 0.014972255 0.10726177 0.09894547 -0.0765149

model.8.weight f4 [1, 32]
00000000: cc17 bebd 80f1 1b3e f811 8a3e 95b7 4ebe
00000010: 6327 57be 27fd 163e 12e5 063e 8e30 c0bd
00000020: 2019 65be a7d3 5bbe 26b0 0ebe 4d6b 95bd
00000030: 380d 593e 21dd 19be 60c5 3e3e 4a19 9ebd
00000040: f04c 593e 2192 033e 86e8 8ebd a74d 5abe
00000050: e6d0 193e a083 f7bd d1bf 43be 1145 72be
00000060: d43e eabd 292f 193e 5f3a 3c3e 63e1 d23b
00000070: d3fa 293e 3786 aebd 249f 403e e349 d4bd
-0.09281883 0.15228844 0.26966834 -0.20187218 -0.21011119 0.14745007 0.13173321 -0.09384261
-0.22372866 -0.21467458 -0.13934383 -0.072958566 0.21196449 -0.1502576 0.1862998 -0.07719667
0.21220756 0.12848713 -0.06977944 -0.21318685 0.15021095 -0.12085652 -0.19116141 -0.23659159
-0.11437765 0.14959396 0.18381642 0.0064355596 0.16599588 -0.08521693 0.18810707 -0.10365655
