squat_model.pth (torch, 213874 bytes, 11 tensors)

gru.weight_ih_l0 f4 [192, 66]
0	0xba26ca98	-0.0006362586
1	0x3dd4d02a	0.10391267
2	0x3d3ab5fb	0.045583706
3	0x3ceab5ae	0.028651085
4	0x3dda08aa	0.10646184
5	0xbdca669f	-0.09882855
6	0x3d9840fc	0.0743427
7	0x3e0f1d7d	0.13976093
8	0x3daf9452	0.08573212
9	0x3cf3b27d	0.029748196
10	0xbcac9ada	-0.021069933
11	0x3cd5d19f	0.026100932
12	0x3e036708	0.12832272
13	0xbda3175c	-0.0796344
14	0x3daa9029	0.083282776
15	0xbd072f5f	-0.03300416
16	0x3cc5a0d0	0.024124533
17	0xbe08a8c0	-0.13345623
18	0xbbab59d2	-0.0052292133
19	0xbcd2c058	-0.025726482
20	0xbceb673d	-0.028735751
21	0x3dde4c20	0.108543634
22	0x3de952aa	0.1139272
23	0x3c909a32	0.017651651
24	0xbd2142c1	-0.039370302
25	0xbcd284f3	-0.02569816
26	0xbd83fe58	-0.064449966
27	0x3d59b23d	0.053148497
28	0x3d0359b7	0.03206798
29	0x3da6f5d9	0.081523605
30	0x3d85aa78	0.06526655
31	0x3d1bef10	0.038069785
32	0x3d75a02e	0.059967212
33	0x3d360002	0.0444336
34	0x3df9abdc	0.12190983
35	0xbc69af9a	-0.014263058
36	0x3e00402c	0.1252448
37	0x3b4cac0d	0.003123048
38	0xbca49a54	-0.02009312
39	0xbd3b56de	-0.04573714
40	0xbd5f0d08	-0.054455787
41	0x3db2bed0	0.08727801
42	0x3d91641f	0.07099175
43	0x3dfec209	0.12439353
44	0xbd97f9f9	-0.074207254
45	0xbd8248ca	-0.0636154
46	0x3dcf9c69	0.10137255
47	0xbc95f4b5	-0.018305162
48	0x3d5d94f4	0.05409713
49	0x3e07e00e	0.13269064
50	0x3d2059d3	0.039148163
51	0x3dfe6eef	0.12423503
52	0xbd656188	-0.056001216
53	0xbce58cd6	-0.028021257
54	0x3d784d36	0.06062051
55	0x3c7c8f0a	0.015414963
56	0xbdbed0b0	-0.09317148
57	0xbd65247c	-0.055942997
58	0xbc8039c5	-0.015652547
59	0xbbcca79a	-0.0062455656
60	0xbd4f2deb	-0.0505809
61	0x3d056e51	0.03257591
62	0x3dfe852f	0.124277465
63	0x3d2506d4	0.040289715
64	0x3daae3d4	0.08344236
65	0xbd9119c7	-0.07084995
66	0x3dabe0da	0.083924964
67	0x3cb68207	0.022278799
68	0x3bdbfd5f	0.006713554
69	0xbdd8ee6a	-0.10592349
70	0xbd85ebe0	-0.0653913
71	0x3d88d4b1	0.06681193
72	0x3c94e36c	0.01817485
73	0x3c24416d	0.010025364
74	0xbcf37899	-0.029720591
75	0xbd21f341	-0.039538626
76	0xbddb4f28	-0.10708457
77	0x3d971446	0.07376914
78	0x3db08351	0.086187966
79	0xbc102ee5	-0.008800243
80	0x3c2db6b8	0.010602646
81	0xbe084e29	-0.13311066
82	0x3d90c3cc	0.07068595
83	0x3bfe85df	0.0077674235
84	0xbe1904e4	-0.14943272
85	0xbcfe78d1	-0.03106347
86	0x3dad7161	0.08468891
87	0xbd800ae8	-0.0625208
88	0xbd89d32c	-0.06729731
89	0xbaabc1dd	-0.001310404
90	0xbd9f45a5	-0.077769555
91	0x3bdfbe50	0.006828107
92	0x3cf56d96	0.029959481
93	0x3cf55efe	0.029952522
94	0xbdd5cc3a	-0.10439344
95	0x3decfc7c	0.11571595
96	0x3d2ae1d0	0.041719258
97	0xbe0ffc5f	-0.14061116
98	0x3c9d0ee0	0.019172132
99	0xbdcf5883	-0.10124304
100	0xbde65330	-0.112463355
101	0xbd3f4d5f	-0.046704646
102	0xbda79d80	-0.081843376
103	0x3d17d2bd	0.03706621
104	0xbdddfe63	-0.10839536
105	0xbdc41aa3	-0.09575393
106	0xbd9dd413	-0.077064656
107	0x3d332033	0.04373188
108	0x3bdf5108	0.0068150796
109	0xbda31f84	-0.079649955
110	0x3db8fafa	0.09032245
111	0xbd8166a7	-0.063184075
112	0x3cc8583c	0.024456136
113	0x3ddbe212	0.10736479
114	0xbd293c08	-0.041317016
115	0x3c8e266f	0.017352311
116	0xbe082024	-0.1329351
117	0xbc31287d	-0.010812876
118	0xbc214a3c	-0.009844359
119	0xbc38c4ba	-0.011277372
120	0x3da735cb	0.08164557
121	0xbc359d93	-0.011084932
122	0xbca4d101	-0.020119192
123	0xbd4baf1b	-0.04972754
124	0x3c38ead9	0.011286461
125	0x3de9b35b	0.114111625
126	0x3da1f495	0.079079784
127	0x3dc1dabc	0.094655484
128	0xbdf30fca	-0.11868246
129	0x3cb7de34	0.022444822
130	0x3d9c2b64	0.076254636
131	0x3d1fa3d4	0.038974598
132	0xbde6b7ea	-0.112655476
133	0x3df894b9	0.121377416
134	0x3de6562e	0.11246906
135	0x3d87e8ab	0.06636175
136	0x3dab3875	0.08360378
137	0xbdc05987	-0.09392076
138	0xbdd58e32	-0.10427512
139	0x3dc71078	0.09719938
140	0xbcf07467	-0.02935238
141	0x3debc9ef	0.11513125
142	0x3d8d536e	0.069006786
143	0xbde81bae	-0.113334045
144	0x3d7204be	0.059086554
145	0xbdd9f39b	-0.10642167
146	0x3e06a612	0.13149288
147	0x3d18ab7d	0.03727292
148	0xbc5e9eca	-0.013587663
149	0xbdfe47fa	-0.12416072
150	0x3dd4a99e	0.103839144
151	0x3bfddc3e	0.007747202
152	0x3d6a3e4b	0.057188313
153	0xbda7862c	-0.08179888
154	0x3d1f792e	0.038933925
155	0x3d8d93aa	0.0691293
156	0xbdd749cc	-0.105121225
157	0xbdaf8928	-0.08571082
158	0xbde1dc78	-0.11028379
159	0xbdafcd42	-0.08584072
160	0xbdb6d9e2	-0.089282766
161	0x3db40b9d	0.087912776
162	0x3e04c3ab	0.12965266
163	0x3ca9e30a	0.020738143
164	0x3de0d9e8	0.10979062
165	0xbd222b68	-0.039592177
166	0x3cc8e593	0.024523532
167	0x3b76c8e7	0.0037656368
168	0xbc8dda1c	-0.017315917
169	0x3d012e8e	0.03153854
170	0xbbfeb856	-0.0077734394
171	0xbd55b5be	-0.052175276
172	0xbd228fc0	-0.039687872
173	0xbde5fb76	-0.11229603
174	0x3d9b7d75	0.075922884
175	0x3db80b2d	0.089865066
176	0xbddb1710	-0.10697758
177	0x3dab0a9d	0.08351634
178	0xbd4d4d4e	-0.05012255
179	0x3d22a8d8	0.039711803
180	0xbda913b3	-0.082557105
181	0xbd4db347	-0.0502198
182	0xbd90c32d	-0.07068477
183	0xbcc45bc2	-0.023969535
184	0x3bb7e0c7	0.0056115123
185	0xbc715aaf	-0.014731093
186	0x3d539768	0.051658064
187	0x3db62b10	0.08894932
188	0x3e097119	0.1342205
189	0x3d1154f7	0.03548142
190	0x3dd29d8c	0.10283956
191	0x3d397ac0	0.04528308
192	0x3d9ffcda	0.078118995
193	0x3c783041	0.015148223
194	0x3d530d93	0.051526617
195	0x3d44c60b	0.04804043
196	0xbda7e71e	-0.08198379
197	0x3c4424f2	0.011971699
198	0xbdb4ad60	-0.08822131
199	0xbd9231f9	-0.07138438
200	0xbcfb1ac2	-0.030652408
201	0xbd8d6018	-0.06903094
202	0x3de94438	0.11389965
203	0xbdaee226	-0.08539228
204	0x3deeaab4	0.11653653
205	0xbd777e91	-0.060423438
206	0x3b15defc	0.0022868505
207	0xbc7161aa	-0.014732758
208	0x3cbbc509	0.022921102
209	0xbdd14e07	-0.10219961
210	0x3da0da90	0.078541875
211	0x39ec5c74	0.0004508231
212	0x3d740925	0.059579033
213	0xbd15ab13	-0.036540102
214	0xbbf010c9	-0.0073262197
215	0xbd8c078d	-0.06837378
216	0xbde158d6	-0.11003272
217	0xbc767c12	-0.015044229
218	0x3de89e60	0.11358333
219	0x3d9a443b	0.07532545
220	0x3df0bca3	0.117547296
221	0xbcc2f67f	-0.02379918
222	0xbdca41de	-0.098758444
223	0xbd514bda	-0.05109773
224	0x3cfbd501	0.030741217
225	0x3d8ced11	0.06881154
226	0x3dab3814	0.083603054
227	0x3dae9212	0.085239545
228	0xbde2d383	-0.11075499
229	0xbc95d273	-0.018288827
230	0x3e000f75	0.12505896
231	0xbdd82e96	-0.105557606
232	0x3d0138c5	0.03154828
233	0xbdae744a	-0.08518274
234	0xbd41d001	-0.04731751
235	0x3cff497e	0.031162973
236	0x3d5904cc	0.05298309
237	0x3daaf908	0.0834828
238	0x3c6487b9	0.013948374
239	0x3d3a4e33	0.045484733
240	0x3db83da0	0.08996129
241	0xbd3d6825	-0.046241898
242	0x3d451e4a	0.04812459
243	0x3c2e076a	0.010621885
244	0xbdc73559	-0.09726972
245	0x3da1a746	0.07893233
246	0x3d9877a8	0.074446976
247	0x3d844f8d	0.064604856
248	0xbcfc3b21	-0.030789914
249	0x3cdfa7da	0.027301718
250	0x3df01e83	0.1172457
251	0xbaa67082	-0.0012698325
252	0x3e01b6c8	0.12667382
253	0xbd857356	-0.06516139
254	0xbd3331bf	-0.043748613
255	0x3d71e8ca	0.059059896

gru.weight_hh_l0 f4 [192, 64]
0	0xbd41aa24	-0.0472814
1	0xbc201ac0	-0.009772003
2	0x3c658060	0.014007658
3	0xbd3df02c	-0.046371624
4	0x3d360058	0.04443392
5	0x3d034f2c	0.032057926
6	0x3a72da00	0.0009264052
7	0xbde55b4c	-0.11199054
8	0x3d4ba560	0.04971826
9	0xbc8ca310	-0.017167598
10	0xbc2de170	-0.0106128305
11	0x3a82ba00	0.0009973645
12	0xbdf0ed3e	-0.11764
13	0x3db10378	0.0864324
14	0x3d65aff4	0.056076005
15	0xbc9cd188	-0.019142881
16	0xbdfed440	-0.12442827
17	0x3df24688	0.11829859
18	0xbce44df0	-0.027869195
19	0xba30af00	-0.0006739944
20	0xbcc86ea0	-0.024466813
21	0xbdbc64fe	-0.0919895
22	0xbd0dbeac	-0.034605667
23	0x3d38ff28	0.04516521
24	0xbd83b01c	-0.064300746
25	0x3cf8ecb0	0.030386299
26	0xbd821150	-0.06350958
27	0x3d8ae756	0.06782405
28	0x3da962a2	0.08270766
29	0x3d117b14	0.035517767
30	0xbd44c8b4	-0.048042968
31	0x3c530b90	0.012881175
32	0x3dccf590	0.10007775
33	0xbc0751a0	-0.008259207
34	0xbd19b688	-0.03752759
35	0x3d4ea6e8	0.050452143
36	0x3d9ada5a	0.075611785
37	0xbce36f00	-0.02776289
38	0xbd4462f4	-0.04794593
39	0x3dde63c4	0.108588725
40	0x3c7f3ff0	0.015579209
41	0x3d8a7d18	0.06762141
42	0x3da548c2	0.08070518
43	0xbde11830	-0.109909415
44	0x3da3e9dc	0.080035895
45	0xbd020220	-0.031740308
46	0xbddb240c	-0.10700235
47	0x3d91f084	0.07125953
48	0xbdc4ea38	-0.09614986
49	0x3ca59ff0	0.020217866
50	0xbda57aaa	-0.08080037
51	0x3a134400	0.0005617738
52	0xbdbc19b2	-0.091845885
53	0xbd34e044	-0.04415919
54	0x3d899b44	0.06719068
55	0x3d131848	0.03591183
56	0xbce8fe78	-0.028441653
57	0xbdd49ce6	-0.103814885
58	0xbdd6bffc	-0.10485837
59	0x3da3a160	0.07989764
60	0xbd905548	-0.07047516
61	0xbdcc028e	-0.09961425
62	0x3df080ee	0.117433414
63	0x3cdf34d0	0.027246863
64	0x3d42a8e4	0.047524348
65	0xbd33a6bc	-0.043860182
66	0xbd930366	-0.071783826
67	0x3d8ed80c	0.069748014
68	0xbdb90954	-0.09034982
69	0xbd48180c	-0.048851058
70	0xbd88a2c2	-0.066716686
71	0x3c71a3c0	0.014748514
72	0xbce19f18	-0.027541682
73	0x3cd82e98	0.026389405
74	0x3d7cc5f4	0.06171222
75	0x3d35f740	0.04442525
76	0xbd1fb8ec	-0.038994715
77	0xbdce6068	-0.10076982
78	0xbdb47558	-0.08811444
79	0x3b13ea80	0.0022570193
80	0xbd44e308	-0.048068076
81	0xbdc39972	-0.09550752
82	0x3c853188	0.01625897
83	0xbdc70ce2	-0.09719254
84	0x3ddf17e4	0.10893229
85	0x3d7d8770	0.06189674
86	0x3dd9f408	0.106422484
87	0x3dde278a	0.10847385
88	0xbb380880	-0.0028081238
89	0x3da3ea04	0.08003619
90	0xbd155a88	-0.03646329
91	0x3bd63b60	0.00653784
92	0xbd1490ac	-0.036270782
93	0x3d64ec88	0.055889636
94	0x3d8cc56e	0.06873594
95	0x3c1d4870	0.00959979
96	0x3d104f4c	0.035231873
97	0xbddb3880	-0.10704136
98	0x3dc6cbfa	0.09706874
99	0xbdd74dc6	-0.10512881
100	0xbab18e00	-0.0013546348
101	0x3de0664a	0.1095701
102	0xbdf81ab0	-0.12114465
103	0x3b58b040	0.0033064038
104	0xbda01cbc	-0.07817981
105	0xbd5fbdbc	-0.054624304
106	0xbd88c570	-0.06678283
107	0xbcd42d80	-0.025900602
108	0x3df3a280	0.11896229
109	0xbc0be310	-0.008538023
110	0xbd2182c0	-0.039431334
111	0xbda0ab50	-0.07845175
112	0x3d0ec464	0.03485526
113	0x3dcd4d02	0.10024454
114	0xbc30b280	-0.010784745
115	0x3dce8338	0.10083622
116	0x3df2fd4e	0.1186472
117	0x3d4a4440	0.049381495
118	0xbdb0d3c6	-0.086341426
119	0x3df75920	0.12077546
120	0xbde84a3e	-0.113422856
121	0xbd80dfa2	-0.062926546
122	0xbc885fc8	-0.016647235
123	0x3da2d46e	0.07950674
124	0xbd139d9c	-0.03603898
125	0x3a8d4480	0.0010777861
126	0x3da77cf2	0.08178128
127	0x3dcc38fc	0.099718064
128	0x3d07d1f8	0.033159226
129	0x3b3aea40	0.0028520972
130	0x3df5cace	0.120015725
131	0xbd1c3e64	-0.038145438
132	0xbbd2fd60	-0.006438896
133	0xbcf7b400	-0.030237198
134	0xbcb32328	-0.02186735
135	0xbd9c42f8	-0.07629961
136	0xbd95effe	-0.073211655
137	0xbbf8f7a0	-0.0075978786
138	0x3c186850	0.009302214
139	0x3d832d78	0.06405157
140	0xbd8d04ba	-0.06885667
141	0xbba2be60	-0.004966542
142	0x3d80e316	0.06293313
143	0x3df0530a	0.117345884
144	0x3dfdac0c	0.12386331
145	0xbbcfae00	-0.006337881
146	0x3d5dca40	0.05414796
147	0x3d53f648	0.051748544
148	0x3dc697a4	0.09696892
149	0xbd0185fc	-0.031621918
150	0xbda3701c	-0.079803675
151	0x3d622f2c	0.055220768
152	0xbd44c6b8	-0.048041075
153	0x3d1a36f0	0.03765005
154	0xbdc18d98	-0.09450835
155	0x3d1667c4	0.036720052
156	0xbdb95722	-0.090498224
157	0xbcea0a40	-0.02856934
158	0xbdc83f2c	-0.09777674
159	0x3d751378	0.05983302
160	0x3dccce72	0.10000314
161	0x3dc9a5d8	0.09846085
162	0xbde392ec	-0.111120075
163	0x3d50d5f4	0.05098529
164	0x3d90f34c	0.07077655
165	0xbdc91a2c	-0.09819445
166	0xbd4a21a0	-0.049348474
167	0xbd43c4e0	-0.047795177
168	0x3ad6fa80	0.0016401559
169	0x3dfc3638	0.12315029
170	0xbd193ce8	-0.0374116
171	0xbdf3be56	-0.11901538
172	0x3d04e58c	0.032445475
173	0x3dff07f4	0.12452689
174	0xbdb7c700	-0.08973503
175	0x3c8107c0	0.015750766
176	0x3cbdf520	0.023188174
177	0x3d5281dc	0.051393375
178	0x3cb0a468	0.02156277
179	0x3d044d18	0.032300085
180	0xbdc9b5b8	-0.09849113
181	0x3d1ee45c	0.038792
182	0x3dd77a6e	0.105213985
183	0x3de930a2	0.11386229
184	0xbde34dc8	-0.1109882
185	0x3dff03b0	0.12451875
186	0x3dc130a0	0.094331026
187	0xbdca12e0	-0.09866881
188	0x3d125318	0.035723776
189	0x3dfa0404	0.12207797
190	0x3d5d2358	0.053988785
191	0x3d5c7128	0.05381885
192	0x3dadf59e	0.084941134
193	0xbd8cb844	-0.068710834
194	0x3d06b10c	0.03288369
195	0xbd6c370c	-0.057669684
196	0x3db1b346	0.08676772
197	0x3b012f80	0.001971215
198	0x3d72f0d4	0.059311703
199	0x3d7cd608	0.061727554
200	0xbbfb2920	-0.0076648146
201	0xbdab7a94	-0.08372989
202	0x3cf16ea0	0.029471695
203	0x3c7ab3e0	0.015301675
204	0xbdb778ca	-0.089585856
205	0x3d177628	0.036977917
206	0xbdfce770	-0.12348831
207	0xbcb74408	-0.022371307
208	0x3de2774c	0.1105791
209	0xbd335ab4	-0.043787673
210	0xbd04ac40	-0.032390833
211	0xbc0accd0	-0.008471683
212	0xbdc53422	-0.09629084
213	0x3d5e5f24	0.054289952
214	0xbdfcc8d6	-0.12342994
215	0xbdd1a928	-0.10237342
216	0x3c322710	0.010873571
217	0xbd8422ae	-0.06451927
218	0xbd9daeca	-0.07699354
219	0x3d1180e8	0.035523325
220	0x3d76c64c	0.060247704
221	0xbdef1e84	-0.11675742
222	0x3dcaa432	0.09894599
223	0xbd0b54f0	-0.03401655
224	0xbd52e34c	-0.0514863
225	0x3d30b814	0.0431443
226	0xbd620468	-0.055179983
227	0xbdb7389a	-0.08946343
228	0xbde17664	-0.11008909
229	0xbde9ca38	-0.11415523
230	0xbdbec336	-0.09314577
231	0x3dca25b6	0.09870474
232	0x3dd83588	0.10557085
233	0x3dd35cb8	0.10320419
234	0x3d3d94b8	0.046284407
235	0xbd0d2e5c	-0.03446804
236	0x3da63d3a	0.08117147
237	0x3dd24338	0.10266727
238	0x3dc2693e	0.094927296
239	0x3dbbcc32	0.091698065
240	0x3d9e6c64	0.077355176
241	0xbdda1342	-0.106482044
242	0xbdffb436	-0.124855444
243	0x3b243cc0	0.0025060624
244	0xbdd27f70	-0.10278213
245	0x3defe81c	0.11714193
246	0xbd0b9eb8	-0.034086913
247	0x3d0ac488	0.033878833
248	0xbdcab7ba	-0.09898324
249	0xbb9c0f40	-0.00476256
250	0x3dac1208	0.08401877
251	0x3db71528	0.08939582
252	0xbdef32e8	-0.116796315
253	0xbd5e4b5c	-0.054271087
254	0xbd4c8228	-0.049928814
255	0xbd66abc8	-0.056316167

gru.bias_ih_l0 f4 [192]
0	0x3d3e3bd4	0.046443775
1	0xbe104a6a	-0.14090887
2	0x3df40ba5	0.119162835
3	0xbdeaaa82	-0.11458303
4	0x3d947e56	0.07250659
5	0xbda6366d	-0.0811585
6	0x3c73522f	0.014851137
7	0xbd6330ad	-0.055466343
8	0x3dcdc0fe	0.10046576
9	0x3cca8a82	0.024724249
10	0x3be1f412	0.0068955505
11	0xbd9c335c	-0.076269835
12	0xba856a88	-0.0010178844
13	0xbdf765a9	-0.12079937
14	0xbdb8a531	-0.09015883
15	0x3d7d9fec	0.06192009
16	0xbdb0f6e9	-0.086408444
17	0xbd8d155b	-0.06888839
18	0x3ce026fd	0.027362341
19	0x3ccc5dcc	0.02494707
20	0xbd05bc2d	-0.03265016
21	0x3dd21261	0.10257412
22	0x3b4b9938	0.0031066667
23	0xbe1324e6	-0.14369544
24	0x3de531a2	0.11191107
25	0xbdf8ba52	-0.12144913
26	0x3dc563aa	0.0963815
27	0xbe08ba0a	-0.13352218
28	0xbdb4b06d	-0.08822713
29	0xbdd7afe7	-0.105315976
30	0xbb70b5e0	-0.00367295
31	0x3dde5701	0.108564384
32	0x3d8ff075	0.070282854
33	0xbd0eecbe	-0.034893744
34	0xbd8e5273	-0.0694932
35	0xbe1945a5	-0.14967974
36	0x3db182d6	0.08667533
37	0x3d0efb3c	0.034907565
38	0xbc5b6627	-0.013391054
39	0x3d07e62e	0.0331785
40	0xbdb485f1	-0.0881461
41	0xbe10232a	-0.14075914
42	0xbd38fe96	-0.045164667
43	0x3e074e9c	0.13213581
44	0xbc678dfa	-0.014132971
45	0xbdc5fb1f	-0.09667038
46	0xbda1280c	-0.078689665
47	0xbda5f548	-0.08103424
48	0xbc2a9e26	-0.010413682
49	0x3ddb137e	0.10697077
50	0x3db5e20f	0.08881008
51	0xbe1a82af	-0.15088914
52	0xbd56986c	-0.052391455
53	0xbddfd4c2	-0.10929252
54	0x3d60ce19	0.05488405
55	0x3dc20e2a	0.09475358
56	0xbdef7b78	-0.11693472
57	0x3dbb8812	0.09156813
58	0x3dc38c3a	0.095482305
59	0x3cbe3f0f	0.023223428
60	0xbc9548f4	-0.018223263
61	0xbdfc3434	-0.123146445
62	0x3db03722	0.08604266
63	0xbd0e24ba	-0.034702994
64	0xba89f428	-0.0010525035
65	0xbdce9567	-0.1008709
66	0x3d7276ed	0.059195448
67	0x3d3d0236	0.046144687
68	0x3d4d128b	0.050066512
69	0xbb90cd17	-0.00441898
70	0x3cfa0726	0.030520987
71	0x3dc23bd3	0.09484067
72	0xbd00fdcd	-0.031492043
73	0xbdf0505c	-0.11734077
74	0x3d8865cc	0.06660041
75	0xbd912d72	-0.07088746
76	0x3d6c161c	0.057638273
77	0xbdd62888	-0.104569495
78	0x3d36083d	0.04444145
79	0x3a8ec447	0.0010892235
80	0xbd42f68c	-0.047598407
81	0xbe144a39	-0.14481439
82	0xbcb0a77a	-0.021564234
83	0x3d87a178	0.066225946
84	0x3c96a790	0.018390447
85	0xbda893b3	-0.082312964
86	0x3c8d2096	0.017227452
87	0x3d431d93	0.047635626
88	0x3d4f70cf	0.050644692
89	0xbdab5a82	-0.08366872
90	0xbadcbbb3	-0.0016840607
91	0xbd226518	-0.03964719
92	0xbda32e72	-0.07967843
93	0x3dd1e504	0.102487594
94	0xbde003e1	-0.1093824
95	0x3d2c3886	0.042046092
96	0xbdd275d2	-0.10276379
97	0xbde62b80	-0.11238766
98	0xbd6c6351	-0.057711903
99	0xbe0f57fd	-0.13998409
100	0x3bff68ea	0.007794489
101	0xbc394b3a	-0.011309439
102	0x3d4efb1e	0.050532453
103	0x3c9371ed	0.01799866
104	0x3c234cae	0.009967012
105	0x3cd4078e	0.025882509
106	0x3b0c5993	0.0021415695
107	0xbce0e861	-0.027454557
108	0xbe0e1704	-0.13875967
109	0xbd4be18e	-0.049775653
110	0xbdf7272b	-0.120680176
111	0xbd15b17c	-0.036546215
112	0xbd823760	-0.06358218
113	0xbdd9bd8b	-0.106318556
114	0xbdd7276c	-0.10505566
115	0xbda55d7c	-0.08074471
116	0xbdd90961	-0.10597492
117	0x3d862254	0.06549516
118	0x3d9db549	0.07700593
119	0xbe0ff6b5	-0.14058955
120	0x3d4b3932	0.049615093
121	0xbe1eb2a6	-0.15497836
122	0xbd2e86d1	-0.04260904
123	0x3d0016fd	0.031271923
124	0xbda63e19	-0.08117313
125	0x3d46c631	0.048528854
126	0xbd2b0342	-0.041751154
127	0xbe1ef25c	-0.1552214
128	0xbd25ef06	-0.040511154
129	0x3d88c85f	0.06678843
130	0xbcd6583b	-0.026165118
131	0xbe006645	-0.12539013
132	0xbe07bbe7	-0.13255273
133	0x3dff6bca	0.12471731
134	0xbcef952b	-0.029245934
135	0x3dc1c669	0.09461672
136	0xbd00471b	-0.03131781
137	0xbd570098	-0.0524908
138	0xbda2b19f	-0.07944035
139	0xbda49921	-0.080370195
140	0x3dc13dde	0.09435628
141	0xbe0f7a8f	-0.14011596
142	0x3ded1377	0.11575978
143	0x3da4d083	0.08047583
144	0xbe17cea9	-0.14824928
145	0xbd86961f	-0.06571602
146	0x3dd57e01	0.10424424
147	0xbd12cf70	-0.03584236
148	0xbd9694cd	-0.073526
149	0xbcaa6ee9	-0.02080484
150	0x3e01c52d	0.12672873
151	0xbd5021ef	-0.05081361
152	0xbd3b210e	-0.04568582
153	0x3e19dae7	0.15024911
154	0x3cfa323e	0.030541535
155	0x3cae439e	0.021272477
156	0xbd5cc5c7	-0.053899553
157	0x3d90e4a2	0.07074858
158	0xbdc1391e	-0.09434722
159	0x3d582805	0.05277254
160	0xbd9d7184	-0.07687667
161	0xbdbce603	-0.09223559
162	0xbdba0024	-0.09082058
163	0x3c369309	0.011143454
164	0xbc40f51d	-0.01177719
165	0xbd460bf7	-0.048351254
166	0x3d444643	0.04791857
167	0xbdbe2453	-0.09284272
168	0xbdeceb04	-0.11568263
169	0xbd2c61ec	-0.042085573
170	0x3de0e442	0.10981037
171	0xbde9b99c	-0.11412355
172	0x3d6fe627	0.0585691
173	0x3dcd597e	0.10026835
174	0xbdd90ce0	-0.10598159
175	0xbcdea83d	-0.027179832
176	0xbd9f3936	-0.07774584
177	0xbda56520	-0.08075929
178	0xbce508f6	-0.027958374
179	0xbc6e00b3	-0.014526534
180	0xbd940766	-0.07227974
181	0x3c8a06c0	0.016848922
182	0x3d989a7e	0.07451342
183	0xbdbfdeae	-0.09368645
184	0xbd4869ee	-0.048929147
185	0xbe1d1b8d	-0.15342541
186	0xbcfe76cb	-0.031062504
187	0x3d42acf3	0.04752822
188	0x3d8bb862	0.068222776
189	0xbd9f61fd	-0.07782362
190	0x3d0d7a61	0.034540538
191	0x3defc70e	0.117078885

gru.bias_hh_l0 f4 [192]
0	0x3be36b3b	0.006940273
1	0x3d7a9737	0.061179366
2	0xbd8134e1	-0.06308914
3	0x3ce42e50	0.027854115
4	0xbd08a538	-0.03336069
5	0x3dfce761	0.123488195
6	0xbde849ef	-0.11342227
7	0xbdb56d84	-0.08858779
8	0x3da1a6dc	0.07893154
9	0x3d688388	0.056766063
10	0x3de2059d	0.11036227
11	0x3cfbdb6c	0.030744277
12	0xbdd9cded	-0.1063498
13	0x3cd4eae5	0.025990913
14	0x3d8162df	0.06317686
15	0xbda32865	-0.07966689
16	0x3d0bb835	0.03411122
17	0x3dfa0c43	0.1220937
18	0x3e0ccb56	0.13749442
19	0xbd739ecd	-0.059477616
20	0xbdcc6118	-0.09979457
21	0x3ce0d481	0.02744508
22	0xbd9205dd	-0.071300246
23	0xbd087fa6	-0.03332486
24	0xbaa3edfc	-0.0012506838
25	0xbd554063	-0.052063357
26	0x3ddd326e	0.10800634
27	0xbe18aaee	-0.14908955
28	0x3cb4e65b	0.022082498
29	0xbc83439e	-0.016023453
30	0x3db5ab9d	0.08870623
31	0x3da4614d	0.08026371
32	0x3d80c5ad	0.06287704
33	0x3e01546f	0.12629865
34	0x3da90434	0.08252755
35	0x3db597bd	0.088668324
36	0xbe038cb6	-0.12846646
37	0x3c866e1b	0.016409924
38	0xbbdc3c12	-0.006721028
39	0x3d681fea	0.05667106
40	0x3e133a7b	0.14377777
41	0x3dbf1435	0.09330026
42	0xbca795d3	-0.020457184
43	0x3da60eea	0.081083134
44	0xbd13eb66	-0.036113165
45	0xbde69c95	-0.112603344
46	0x3d87ea3b	0.06636473
47	0xbe1992c7	-0.14997397
48	0xbd491f7f	-0.049102303
49	0x3d9832d6	0.07431571
50	0xbc3c1f0d	-0.011482012
51	0xbc7d78d1	-0.015470699
52	0xbd999265	-0.07498626
53	0xbddd9c30	-0.10820806
54	0x3d761ed0	0.06008798
55	0x3da13812	0.07872023
56	0xbdda70a1	-0.106660135
57	0xbd5a1b1e	-0.053248517
58	0x3dea7f5c	0.11450073
59	0xbde3bf2d	-0.11120448
60	0x3d923ab5	0.07140104
61	0x3d5f88ea	0.05457393
62	0xbc96a637	-0.018389804
63	0xbdaf3e7f	-0.08556842
64	0xbc48be97	-0.012252471
65	0xbe1ffb05	-0.156231
66	0xbd4ebf1b	-0.05047522
67	0x3da39cdb	0.07988902
68	0xbe062769	-0.13100971
69	0xbde24b47	-0.11049514
70	0x388fe7f0	6.861973e-05
71	0x3d8269c9	0.06367833
72	0xbd8a671e	-0.06757949
73	0xbe0a11a0	-0.13483286
74	0xbcb24ee6	-0.021766137
75	0xbe0f0b37	-0.13969122
76	0xbd473b10	-0.04864031
77	0xbda4993e	-0.08037041
78	0xbd617f87	-0.05505326
79	0xbe1ef904	-0.1552468
80	0xbe0a095d	-0.13480134
81	0xbd62b25e	-0.055345885
82	0xbdc670b7	-0.096894674
83	0x3d070792	0.032966204
84	0xbe0544f2	-0.13014582
85	0xbde5c745	-0.11219648
86	0xbdc8b1f2	-0.097995654
87	0xbc977fe4	-0.0184936
88	0x3c8072b9	0.015679704
89	0xbd839294	-0.06424442
90	0x3c3d40ab	0.011551063
91	0x3dc66c2c	0.09688601
92	0xbe0fe47e	-0.14052007
93	0xbc13b888	-0.009016164
94	0xbdafcf09	-0.08584411
95	0xbe10b5db	-0.14131872
96	0x3dcdf9c8	0.100574076
97	0xbcab17cc	-0.02088537
98	0xbdd42923	-0.10359409
99	0xbd32d9de	-0.043664806
100	0xbdd52088	-0.104065955
101	0xbdf499cc	-0.11943397
102	0x3d8105c2	0.06299926
103	0x3d3c509f	0.045975324
104	0x3d95afd7	0.073089294
105	0xbded7277	-0.11594098
106	0xb91e9770	-0.00015124469
107	0xbdb97575	-0.09055606
108	0xbd94fc1d	-0.07274649
109	0xbdfe4848	-0.1241613
110	0xbd881cc6	-0.06646113
111	0xbdf47cad	-0.119378425
112	0x3db0f7f2	0.08641042
113	0x3d50bc58	0.05096087
114	0x3d4fd683	0.050741684
115	0xbdf60a44	-0.12013677
116	0x3d02738c	0.031848475
117	0x3b287c97	0.0025709027
118	0xbdeea701	-0.11652947
119	0xbd539cc8	-0.05166319
120	0xbd87f52d	-0.066385604
121	0xbd4af235	-0.049547393
122	0x3d79f705	0.06102659
123	0x3d7fa567	0.0624136
124	0xbd685635	-0.05672284
125	0x3d10c2ad	0.035341907
126	0xbd5f4eb2	-0.05451841
127	0xbd35b746	-0.044364236
128	0xbdcf27c4	-0.101150066
129	0x3b7ae0fa	0.003828107
130	0xbdb9d7f2	-0.090743914
131	0xbd354e3a	-0.044264056
132	0xbbb39b0c	-0.0054811295
133	0x3db3db1b	0.087820254
134	0x3dd1bd73	0.10241213
135	0x3dd3c6d8	0.10340661
136	0xbe1928c7	-0.14956962
137	0xbe1f7e54	-0.15575534
138	0x3cd40540	0.02588141
139	0xbc67a060	-0.0141373575
140	0xbce62ae4	-0.028096624
141	0xbca18c56	-0.019720238
142	0x3d935abc	0.071950406
143	0x3dc5f5fc	0.096660584
144	0xbe0da74c	-0.1383335
145	0xbde69395	-0.11258618
146	0x3e005fcb	0.12536542
147	0xbd70ae13	-0.05875976
148	0x3ca4ca59	0.020116018
149	0x3e0be1c8	0.13660347
150	0x3ccb13e2	0.024789754
151	0x3da0fa50	0.07860243
152	0xbe0bd4fa	-0.13655463
153	0xbc5f4b79	-0.013628834
154	0x3d90c7c9	0.07069356
155	0xbd96d8c6	-0.07365565
156	0x3cbc01d7	0.022950096
157	0x3ca22645	0.019793639
158	0xbda09e46	-0.07842688
159	0x3c85e24b	0.016343256
160	0xbd3dd884	-0.046349064
161	0x3e103c5a	0.14085522
162	0xbbf5a745	-0.0074967467
163	0xbce17071	-0.027519437
164	0x3c19afe4	0.0093803145
165	0x3e1328b9	0.14371003
166	0x3d805ed9	0.06268091
167	0x3e0bb613	0.13643675
168	0xbdb146e6	-0.08656101
169	0x3dc176e8	0.09446508
170	0xbd57f6d8	-0.052725643
171	0xbdd9d062	-0.10635449
172	0xbd50107b	-0.050796967
173	0x3beb35ab	0.0071780286
174	0xbe1bddd9	-0.15221347
175	0x3c3a5a43	0.011374059
176	0xbdbc0488	-0.09180552
177	0xbd03c231	-0.032167617
178	0xbc8e8ba3	-0.017400568
179	0xbc8677b8	-0.016414508
180	0xbc690944	-0.0142234005
181	0xbd6f4f82	-0.058425434
182	0xbc20702b	-0.009792368
183	0xbc59aa8b	-0.0132852895
184	0xbcb01d7e	-0.021498438
185	0xbde6a27b	-0.112614594
186	0x3dca8f04	0.09890559
187	0x3db368ee	0.08760248
188	0x3d5afdec	0.053464815
189	0x3a9e2d3f	0.0012067928
190	0x3df7d615	0.1210138
191	0x3c2aeef1	0.010432945

gru.weight_ih_l1 f4 [192, 64]
0	0x3da4cf59	0.08047361
1	0xbd30b276	-0.043138944
2	0xbce4165d	-0.027842695
3	0xbde98d40	-0.114038944
4	0xbd0303d5	-0.031986076
5	0xbc707b4e	-0.014677836
6	0xbe14a3a0	-0.14515543
7	0xbd89fb2d	-0.06737361
8	0x3dc44c4f	0.09584867
9	0x3d9a38fd	0.07530401
10	0xbb6914a0	-0.0035565272
11	0xbcba3de2	-0.022734586
12	0x3b2acf08	0.0026063342
13	0xbd6ce016	-0.057830893
14	0x3d224492	0.039616175
15	0x3e0486b1	0.12942006
16	0xbd8b5ea0	-0.06805158
17	0x3cf168dc	0.029468946
18	0xbcd5cc26	-0.026098322
19	0xbda1be58	-0.07897633
20	0xbc6f8afc	-0.014620539
21	0x3e1ea280	0.15491676
22	0xbdd7554b	-0.10514315
23	0x3bda2e5b	0.006658358
24	0xbd591c05	-0.053005237
25	0xbd9acfee	-0.07559191
26	0xbd85644f	-0.06513273
27	0xbd191b57	-0.03737959
28	0x3c85bc96	0.016325276
29	0x3c07af2e	0.008281512
30	0xbdbf34c3	-0.093362354
31	0x3da6dfbc	0.08148143
32	0x3a7a3c06	0.00095456874
33	0xbc6f41a1	-0.0146030495
34	0xbcb0554a	-0.021525044
35	0x3dffe147	0.1249414
36	0xbdb68d9c	-0.089137286
37	0x3dc6974f	0.096968286
38	0x3c2e57d4	0.010641057
39	0x3e0966b2	0.13418081
40	0xbc59e8f4	-0.013300169
41	0x3ce79ca6	0.028272938
42	0x3e1715b6	0.14754376
43	0x3d26884c	0.040657327
44	0xbd080320	-0.033206105
45	0x3d9ca6fd	0.07649038
46	0xbd81a75a	-0.06330748
47	0x3da6a9b6	0.081378385
48	0xbd292312	-0.04129321
49	0xbd414b95	-0.04719122
50	0x3d2a830d	0.041628886
51	0x3cac3ac1	0.02102411
52	0xbae8bb1c	-0.0017755958
53	0x3d0d508d	0.034500647
54	0xbdc3b836	-0.0955662
55	0x3d65cc0a	0.05610279
56	0x3d9e1d1e	0.077203974
57	0xbd161a80	-0.036646366
58	0x3e045b3b	0.12925427
59	0xbd04cd4a	-0.03242234
60	0x3dd656bd	0.10465763
61	0xbdc9cc4c	-0.0985342
62	0xbcfcca56	-0.0308582
63	0xbdbbb067	-0.091645055
64	0x3e039219	0.128487
65	0xbd2d23af	-0.04227036
66	0xbdd266a7	-0.10273486
67	0xbd612068	-0.054962546
68	0x3d500410	0.050785124
69	0x3d3c242d	0.045932937
70	0x3d5d4843	0.054023992
71	0xbd38f7ca	-0.045158185
72	0x3dc82540	0.0977273
73	0xbba750a6	-0.0051060496
74	0x3cf6a38e	0.030107286
75	0x3dd74b5c	0.105124205
76	0xbdc8cc36	-0.09804575
77	0xbd83d9f7	-0.06438058
78	0xbccd1c60	-0.025037944
79	0xbd35e74b	-0.04441003
80	0x3d192cc9	0.037396226
81	0xbd6bc766	-0.057563208
82	0xbba52e11	-0.005040892
83	0x3df99433	0.1218647
84	0xbd840274	-0.064457804
85	0xbd445d75	-0.04794069
86	0xbdefa15b	-0.11700698
87	0xbcc48ec2	-0.023993853
88	0xbdcdffca	-0.100585535
89	0xbe0bc04d	-0.13647576
90	0xbb8fb519	-0.004385602
91	0x3d81ff28	0.06347495
92	0xbd385c6a	-0.045010008
93	0x3d31eff7	0.04344174
94	0x3baf9ae7	0.005359042
95	0xbd88a591	-0.06672204
96	0xbe19a0cc	-0.15002745
97	0x3d5814fc	0.052754387
98	0x3dbec29f	0.09314465
99	0x3d7459a9	0.05965582
100	0x3d8dc1ee	0.06921755
101	0xbdbc9c1e	-0.092094645
102	0xbbaf78c9	-0.005354975
103	0x3cd7c767	0.0263402
104	0xbce387d9	-0.027774738
105	0xbd2f08bf	-0.04273295
106	0xbdaee75a	-0.085402206
107	0xbb4dd05e	-0.0031404714
108	0x3d23c67e	0.03998422
109	0xbdbf73e6	-0.09348278
110	0x3df6c1e7	0.12048703
111	0x3d5e67da	0.05429826
112	0xbc66bdd1	-0.014083342
113	0x39a326a6	0.00031118578
114	0xbd428e52	-0.04749901
115	0x3a93e704	0.0011284058
116	0x3dc98dfe	0.09841536
117	0x3d61d5df	0.055135604
118	0x3d9a13ed	0.07523332
119	0xbdf08107	-0.1174336
120	0x3d81fa15	0.063465275
121	0x3d3f218a	0.046662845
122	0x3b75ffbf	0.003753647
123	0x3da6abf0	0.08138263
124	0xbdf33d99	-0.11876983
125	0xbde72e77	-0.11288159
126	0x3d5843d7	0.052799072
127	0xbdb5a4c9	-0.08869321
128	0x3d88f089	0.066865034
129	0x3d1960d4	0.037445858
130	0x3b44afea	0.003001208
131	0xbd16551c	-0.03670226
132	0xbe0e513e	-0.13898179
133	0x3de8725a	0.11349936
134	0x3cffdde5	0.031233737
135	0xbbba82e0	-0.005691871
136	0xbdbda0ff	-0.09259223
137	0xbdc631ea	-0.09677489
138	0xbd8f426a	-0.06995089
139	0xbd1556c1	-0.036459688
140	0x3d7e2b30	0.062052906
141	0xbde8a432	-0.11359443
142	0x3dea2f4e	0.11434804
143	0x3e1d71a4	0.15375382
144	0xbd497991	-0.0491882
145	0x3d8a6239	0.06757016
146	0xbbca8b6a	-0.00618117
147	0x3d41c13d	0.047303427
148	0x3e0c242d	0.13685675
149	0x3b64d7dc	0.0034918701
150	0xbdb4d724	-0.08830097
151	0xba0ad655	-0.000529622
152	0xbd8aa762	-0.06770207
153	0x3c7ad57c	0.015309688
154	0xbd818c87	-0.063256316
155	0x3cd60b2a	0.02612837
156	0x3db86c30	0.0900501
157	0xbde9941d	-0.114052035
158	0xbc9e14b8	-0.019296989
159	0x3e045daf	0.12926362
160	0xbce89aa7	-0.028394056
161	0x3d5dd17b	0.054154854
162	0x3d16de45	0.036833066
163	0x3d722849	0.05912045
164	0x3e01b384	0.12666136
165	0x3db36aae	0.08760582
166	0x3dcdf8e3	0.10057237
167	0x3e01afb0	0.12664676
168	0xbd401a36	-0.046899997
169	0xbe06061a	-0.13088265
170	0xbd799433	-0.06093235
171	0xbe0d0d21	-0.1377454
172	0xbe107025	-0.1410528
173	0xbbaebfc9	-0.005332921
174	0xbe091b45	-0.13389309
175	0x3d93e619	0.07221622
176	0xbddf2657	-0.108959846
177	0xbdb275bb	-0.087138616
178	0x3cc0c383	0.023530727
179	0x3d9d44f2	0.07679166
180	0xbd7cbd26	-0.061703824
181	0x3d03b132	0.03215141
182	0xbd0a64ff	-0.033787724
183	0xbd9cc719	-0.07655162
184	0xbe13bfa2	-0.14428571
185	0x3d8b94e6	0.068155095
186	0x3d8ab6da	0.067731574
187	0xbdf5a1d6	-0.119937584
188	0x3d8e335b	0.06943389
189	0xbda27ee5	-0.079343595
190	0xbc831c28	-0.016004637
191	0x3dd8d1f2	0.10586919
192	0xbe10ca9d	-0.14139791
193	0xbd8a7ed5	-0.067624725
194	0x3c8fdfbd	0.017562741
195	0x3d8c4b2b	0.06850275
196	0xbdc855d8	-0.097819984
197	0x3e10b4b1	0.14131428
198	0xbdcfc404	-0.10144809
199	0x3df5c9d6	0.12001388
200	0x3d33b087	0.04386952
201	0xbdc23f59	-0.09484739
202	0x3de06e73	0.109585665
203	0xbc1a1cdc	-0.009406295
204	0x3e06fe6e	0.13182995
205	0x3d9f6c8b	0.07784375
206	0x3d559835	0.05214711
207	0xbd831494	-0.06400409
208	0x3d75cb32	0.060008235
209	0xbdbd3d42	-0.092401996
210	0xbd0a05a6	-0.033696793
211	0xbd817625	-0.063213624
212	0xbd4fe638	-0.050756663
213	0x3d592b82	0.053020008
214	0xbd933201	-0.07187272
215	0xbd2bfe79	-0.04199073
216	0xbd84a496	-0.06476705
217	0xbd0fe77d	-0.035132874
218	0x3ded5b52	0.115896836
219	0xbdc0f528	-0.0942176
220	0xbd7573a1	-0.059924725
221	0xbcedd790	-0.029033452
222	0x3d6e5dec	0.05819504
223	0x3d6eaf57	0.058272686
224	0xbb60277d	-0.0034203224
225	0x3da61213	0.08108916
226	0x3d9247b5	0.07142583
227	0x3aca05e6	0.0015413135
228	0x3cba5bb8	0.022748813
229	0x3de79d26	0.113092706
230	0x3d320c31	0.043468658
231	0xbc854d13	-0.016272103
232	0xbb98dc22	-0.0046649138
233	0xbcb50b6d	-0.022100175
234	0x3cafce54	0.02146069
235	0x3d8334e7	0.06406575
236	0x3d244791	0.040107314
237	0x3b83b1ec	0.0040190127
238	0xbcc5446e	-0.024080481
239	0x3d904bb1	0.07045687
240	0x3ba0080e	0.0048837727
241	0x3dcc02d1	0.09961475
242	0x3d836529	0.06415779
243	0x3d4799aa	0.04873053
244	0xbd92e386	-0.07172303
245	0xbcecef7a	-0.028922785
246	0xbdc37d96	-0.09545438
247	0x3d1c8d26	0.038220547
248	0xbdbba4b5	-0.09162275
249	0x3db6b9b7	0.08922141
250	0x3b0b97dc	0.0021300232
251	0xbe1e866b	-0.15480964
252	0xbdbb2b69	-0.09139139
253	0xbbe8cd57	-0.0071045565
254	0x3e092c04	0.13395697
255	0x3d951284	0.07278922

gru.weight_hh_l1 f4 [192, 64]
0	0x3bf2a040	0.007404357
1	0x3c128c70	0.008944616
2	0x3d5ced68	0.053937346
3	0xbd150398	-0.03638038
4	0x3dcf9b18	0.10137004
5	0x3d268304	0.04065229
6	0x3b72af80	0.0037030876
7	0x3ba87fc0	0.005142182
8	0x3c899208	0.016793266
9	0xbb160380	-0.002289027
10	0x3c32f980	0.010923743
11	0x3df21338	0.11820072
12	0x3dc13d10	0.09435475
13	0x3d655d90	0.05599743
14	0x3da351ea	0.07974608
15	0xbd7e4ac0	-0.062083006
16	0x3d896314	0.06708351
17	0xbd32d400	-0.04365921
18	0x3d5bc204	0.053651825
19	0xbdb253f2	-0.087074175
20	0x3ddbf61e	0.107403025
21	0xbd97ab58	-0.07405728
22	0x3d99b91c	0.0750601
23	0x3d06e9a0	0.032937646
24	0xbdb040dc	-0.08606121
25	0x3da577b2	0.08079471
26	0xbd25c694	-0.040472582
27	0xbdb3dede	-0.08782743
28	0xbd3cbabc	-0.04607652
29	0x3df381de	0.118900046
30	0xbd883356	-0.066504166
31	0xbd63febc	-0.055662856
32	0x3d0f2edc	0.034956798
33	0x3da6bb8c	0.081412405
34	0xbd46a7cc	-0.048499867
35	0xbdee1c5a	-0.116265014
36	0x3d172bc8	0.036906987
37	0xbd6e8488	-0.05823186
38	0xbd652ad8	-0.055949062
39	0x3dfb6054	0.122742325
40	0x3dbefb14	0.09325233
41	0xbc0ec6b0	-0.008714363
42	0x3dc0acdc	0.0940797
43	0xbb0e8800	-0.0021748543
44	0x3ce6c0b0	0.028168052
45	0x3c02bbf0	0.007979378
46	0xbd2da97c	-0.04239796
47	0x3db9d08c	0.0907298
48	0x3b1efa80	0.0024258196
49	0x3d19f1fc	0.03758429
50	0xbcf7d9e8	-0.030255273
51	0x3d4cfaf8	0.05004403
52	0xbdde24a0	-0.108468294
53	0xbdc2adae	-0.09505783
54	0xbddd59c0	-0.10808134
55	0x3c827e98	0.015929505
56	0x3dba94fe	0.09110449
57	0xbdf4f4a8	-0.11960727
58	0xbc55f730	-0.013059422
59	0x3da1f538	0.079081
60	0x3cb526e8	0.022113279
61	0x3d1fc270	0.03900379
62	0xbdc562aa	-0.09637959
63	0x3d845416	0.064613506
64	0xbcb1c208	-0.021698967
65	0xbbeb66a0	-0.0071838647
66	0x3de42b6c	0.111410946
67	0x3dd6fbf0	0.10497272
68	0x3d58b0d4	0.05290301
69	0xbd9af18c	-0.07565603
70	0x3de6df20	0.112730265
71	0xbccf26a0	-0.025286973
72	0x3c285910	0.01027514
73	0x3c9137e8	0.017726853
74	0xbd1075f4	-0.03526874
75	0x3dbb0352	0.09131493
76	0xbd12b2ac	-0.035814926
77	0x3d59cee8	0.053175837
78	0xbdad1ce0	-0.08452773
79	0x3dba3af4	0.09093276
80	0xbc5833c0	-0.013195932
81	0x3c6828f0	0.0141699165
82	0xbb828d60	-0.0039841384
83	0x3dd9004c	0.1059576
84	0xbd86eefa	-0.0658855
85	0xbd74f3f0	-0.05980295
86	0x3d7a0e60	0.061048865
87	0xbdd1414e	-0.10217534
88	0xbdbe8f3e	-0.09304665
89	0x3d9a6332	0.07538451
90	0xbd63a230	-0.055574596
91	0xbd656910	-0.0560084
92	0x3dc482d6	0.095952675
93	0x3da81800	0.08207703
94	0x3d682a60	0.056681037
95	0x3dc1cfca	0.09463461
96	0xbde07d46	-0.10961394
97	0xbde59ed0	-0.11211932
98	0xbd9c4ec2	-0.07632209
99	0x3d68d42c	0.056842968
100	0x3c4d5f70	0.012534961
101	0xbd80bfb8	-0.062865674
102	0x3de4ff5a	0.11181517
103	0x3bfee8a0	0.007779196
104	0xbdc1b95e	-0.09459184
105	0xbdbf5c84	-0.09343818
106	0x3dea42a2	0.114384905
107	0x3cbd93c0	0.023141742
108	0xbcb50820	-0.0220986
109	0x3de93104	0.11386302
110	0xbdcfe33c	-0.101507634
111	0x3d6f05f0	0.05835527
112	0x3ce91128	0.028450564
113	0x3985bc00	0.00025507808
114	0xbd646d00	-0.055768013
115	0x3da8a956	0.08235423
116	0xb9996400	-0.0002925694
117	0x3d208aa8	0.039194733
118	0xbd2c9750	-0.04213649
119	0xbdefee70	-0.117154
120	0xbd13de68	-0.036100775
121	0x3d17b768	0.037040144
122	0xbcffa690	-0.031207353
123	0x3c228280	0.009918809
124	0xbc8607b8	-0.016361102
125	0xbc67f6e0	-0.014157981
126	0x3dc44632	0.09583701
127	0xbdab3bca	-0.08361013
128	0x3da771b0	0.08175981
129	0x3de47214	0.11154571
130	0x3de6dbbc	0.1127238
131	0x3dc8b8f0	0.09800899
132	0xbdc14bbe	-0.09438275
133	0xba120400	-0.0005570054
134	0xbd70a4f8	-0.058751076
135	0x3d5f4744	0.054511324
136	0x3db1e9dc	0.08687183
137	0xbdcfe382	-0.101508155
138	0xbdc27000	-0.094940186
139	0x3da167de	0.07881139
140	0xbd856dc0	-0.06515074
141	0xbd4d842c	-0.050174877
142	0xbdadea3c	-0.08491942
143	0xbbc1ab20	-0.0059102923
144	0xbdd6ffcc	-0.10498008
145	0xbc3c9880	-0.011510968
146	0xbd98fc12	-0.074699536
147	0x3d9b3c8e	0.07579909
148	0x3bee52c0	0.007273048
149	0x3db8c8ec	0.09022698
150	0x3de73f3c	0.11291358
151	0x3d5ae140	0.05343747
152	0xbd45906c	-0.048233435
153	0xbde653cc	-0.11246452
154	0x3dca4db4	0.09878102
155	0xbdf1e410	-0.118110776
156	0xbd9d92a8	-0.07693988
157	0xbdd6b7cc	-0.10484275
158	0xbcaea080	-0.021316767
159	0x3dc85f50	0.097838044
160	0xbdf814d2	-0.12113346
161	0xbc0a6ac0	-0.008448303
162	0x3d939f5a	0.07208128
163	0x3da1eaa0	0.07906079
164	0x3d6c4158	0.057679504
165	0x3da6c3c8	0.08142811
166	0x3dbc555e	0.0919597
167	0x3dc6e38e	0.09711371
168	0x3dfde7b8	0.123977125
169	0xbddec4b4	-0.10877362
170	0xbd917984	-0.071032554
171	0x3d9d21b0	0.07672441
172	0xbdb48148	-0.08813721
173	0xbdf98dc8	-0.12185246
174	0x3d9fe1da	0.0780675
175	0x3d1840f0	0.037171304
176	0x3d48e670	0.049047887
177	0xbda9b4c0	-0.082864285
178	0xbd123fd4	-0.035705402
179	0xbd80d13c	-0.06289908
180	0x3c670ef0	0.0141026825
181	0x3ddcb148	0.10776001
182	0x3ddb0e9e	0.106961474
183	0xbdf1238a	-0.11774357
184	0x3db6ab84	0.08919433
185	0xbcd74338	-0.02627717
186	0xbd84ba0e	-0.064807996
187	0x3cbd7608	0.02312757
188	0xbc7933b0	-0.015210077
189	0x3d51c84c	0.05121641
190	0xbd048040	-0.03234887
191	0xbd8d0d1c	-0.06887266
192	0x3d86516a	0.06558497
193	0x3d5f014c	0.054444596
194	0x3c089060	0.008335203
195	0x3d9125f6	0.070873186
196	0xbd3a7f94	-0.045531824
197	0xbc2e42f0	-0.010636076
198	0xbdedf742	-0.11619426
199	0xbdd6b74e	-0.10484181
200	0x3da980e4	0.08276537
201	0x3cdd0770	0.026981086
202	0x3df912c0	0.121617794
203	0xbcb0f360	-0.021600425
204	0x3d205b40	0.039149523
205	0xbcdc73f0	-0.026910752
206	0xbce41338	-0.027841195
207	0x3d97e8da	0.0741746
208	0xbd956c76	-0.07296078
209	0xbdbc4f2c	-0.09194788
210	0xbd3e0d3c	-0.04639934
211	0xbdf0f858	-0.11766118
212	0x3d785a6c	0.060633108
213	0xbc495c70	-0.012290105
214	0xbd01c0c4	-0.031677976
215	0x3be7e920	0.007077351
216	0xbdc97e3c	-0.098385304
217	0x3cd8ab30	0.026448816
218	0x3dc9c3c8	0.098517954
219	0xbd1e7508	-0.03868583
220	0xbdbcc5d0	-0.09217417
221	0xbdeb33be	-0.114844784
222	0xbdc79ca4	-0.09746674
223	0xbcfa0500	-0.030519962
224	0xbdd95aa4	-0.106129915
225	0x3dd99f18	0.10626048
226	0xbd4b2eb4	-0.049605086
227	0x3dc82a8c	0.0977374
228	0xbd7c5448	-0.061603814
229	0x3df0d158	0.11758679
230	0x3db054fa	0.08609958
231	0xbd8f8b98	-0.07009047
232	0x3c5ec1b0	0.013595983
233	0x3d8cf626	0.068828866
234	0x3d36f500	0.044667244
235	0xbbcdb6c0	-0.006277889
236	0x3d6ad108	0.057328254
237	0x3d1ba0f4	0.037995294
238	0xbcfe7ec0	-0.031066298
239	0xbcd85880	-0.026409388
240	0x3d1de17c	0.038545117
241	0x3d281a94	0.041040972
242	0x3dec19a8	0.11528331
243	0x3dd58e26	0.10427503
244	0xbd0ee2a4	-0.03488411
245	0x3dd6f92a	0.10496743
246	0x3d9cf82e	0.07664524
247	0xbcbebef0	-0.023284405
248	0x3d856564	0.06513479
249	0xbdae461c	-0.08509466
250	0xbd91c05c	-0.07116768
251	0x3dc57224	0.09640911
252	0x3d55185c	0.052025184
253	0x3df08d7e	0.117457375
254	0x3c4f3c60	0.012648672
255	0xbd98a05a	-0.0745246

gru.bias_ih_l1 f4 [192]
0	0x3e10df8c	0.14147776
1	0xbdba4234	-0.090946585
2	0xbca56876	-0.020191412
3	0x3da916fc	0.08256337
4	0xbd3056b1	-0.043051425
5	0x3d837619	0.0641901
6	0xbcb868e3	-0.022510951
7	0xbbd5084c	-0.006501233
8	0x3d250bed	0.040294576
9	0x3acdcf08	0.0015701959
10	0x3c3423c3	0.010994854
11	0x3c6dcdf5	0.014514436
12	0x3dd1beb9	0.102414556
13	0xbc8cf671	-0.017207356
14	0xbc78b178	-0.015179031
15	0x3e0baeec	0.13640946
16	0x3d2d8650	0.04236442
17	0x3d91cc49	0.071190424
18	0x3d371842	0.04470087
19	0x3d97f711	0.07420171
20	0xbc85e363	-0.016343778
21	0xbcdccbdc	-0.026952676
22	0xbb2f627c	-0.0026761582
23	0x3daca9cd	0.084308244
24	0xbdb7d33e	-0.08975838
25	0x3dc0653d	0.0939431
26	0x3dfef533	0.12449112
27	0xbdc55b96	-0.09636609
28	0xbd5a7faf	-0.053344425
29	0xbc2ed571	-0.010671006
30	0xbd879c1f	-0.066215746
31	0x3d3b7810	0.045768797
32	0xbdfa3dc0	-0.12218809
33	0x3df5a047	0.11993461
34	0x3cd77ec4	0.026305564
35	0x3d286a8c	0.041117236
36	0xbc37c888	-0.011217244
37	0x3d87b342	0.066259876
38	0x3df6362e	0.12022053
39	0xbd23f88e	-0.040031962
40	0x3d229e85	0.039701957
41	0x3dc87deb	0.09789642
42	0xbdb029c8	-0.08601719
43	0xbcee7555	-0.029108683
44	0x3db19f49	0.08672959
45	0xbd9f7995	-0.07786862
46	0x3db80d5e	0.089869246
47	0x3d1ad65a	0.037802078
48	0xbcc65106	-0.024208557
49	0x3d49a32a	0.04922787
50	0x3d4aa539	0.049473975
51	0xbda374f4	-0.079812914
52	0x3c309045	0.010776584
53	0xbd2027f3	-0.0391006
54	0x3d7f0ccf	0.062268075
55	0xbd4a6d94	-0.049420908
56	0x3d0fc54e	0.035100274
57	0xbd87e7fe	-0.06636046
58	0x3de99b36	0.11406557
59	0x3db72ad0	0.08943713
60	0x3e0c4420	0.13697863
61	0x3dd40658	0.103527725
62	0xbe0b756e	-0.13619015
63	0x3d3cc434	0.04608555
64	0x3d8fe985	0.07026962
65	0x3d08d605	0.03340723
66	0x3d56d484	0.052448764
67	0xbd278aed	-0.040903974
68	0xbda1ad2f	-0.0789436
69	0x3dc120bd	0.094300725
70	0x3d48453e	0.04889416
71	0x3d5eac63	0.05436362
72	0x3cfe3168	0.031029418
73	0xbcfed3ab	-0.03110679
74	0x3da9fec4	0.08300546
75	0xbc9fa4ce	-0.019487765
76	0xbe04c716	-0.1296657
77	0x3d9d436d	0.07678876
78	0xbdd98cb7	-0.10622542
79	0x3d22b313	0.03972156
80	0x3d3c9524	0.04604067
81	0xbba8871a	-0.0051430585
82	0xbda52f26	-0.080656335
83	0xbe08ada5	-0.1334749
84	0xbde4506c	-0.11148152
85	0xbe07ec6e	-0.13273785
86	0xbe044cbb	-0.12919895
87	0x3b18aeb4	0.002329749
88	0x3bd3f49c	0.0064683687
89	0x3d39d92b	0.045373123
90	0x3dc11a78	0.09428877
91	0x3c5b8dc2	0.013400497
92	0x3db91255	0.090367
93	0x3d32c153	0.0436414
94	0x3db632c6	0.08896403
95	0xbdcf205a	-0.101135924
96	0x3da8cbd1	0.08242
97	0xbc89482f	-0.016758053
98	0x3d4fc94a	0.050729074
99	0x3dbfb79e	0.09361194
100	0x3c29059a	0.010316277
101	0xbdb575f2	-0.08860387
102	0xbc752a31	-0.0149636725
103	0x3dbd8b5b	0.092550956
104	0xbe1a68dc	-0.15079063
105	0xbd29f981	-0.04149771
106	0xbd604274	-0.054750875
107	0xbd1e129c	-0.038591966
108	0xbdb4ecf8	-0.08834261
109	0xbdbef650	-0.09324324
110	0xbdac43ba	-0.08411355
111	0xbc843abc	-0.016141288
112	0x3d4f278b	0.05057482
113	0xbe14f0ec	-0.1454503
114	0x3cf09bc8	0.029371157
115	0x3dd3cd59	0.10341901
116	0x3d98a19e	0.07452701
117	0xbdbbe0d5	-0.09173743
118	0x3ddbb2ca	0.10727461
119	0xbcdd9b6d	-0.027051652
120	0xbde6bd38	-0.11266559
121	0xbe092e79	-0.13396634
122	0xbc993fa2	-0.0187071
123	0x3d0717df	0.03298175
124	0x3b96f3bf	0.0046066935
125	0x3dd2e141	0.1029687
126	0xbd989df7	-0.074520044
127	0x3dd4f211	0.10397733
128	0x3b874371	0.0041279127
129	0xbd655d2a	-0.05599705
130	0x3dfe672b	0.124220215
131	0x3d5c10b0	0.053726852
132	0xbd3649ac	-0.044503853
133	0x3d47b955	0.04876073
134	0xbd934e32	-0.07192649
135	0x3cdb871a	0.02679782
136	0x3cad1e15	0.021132508
137	0x3d2efe99	0.042723272
138	0x3d89f1a4	0.067355424
139	0x3dc6aed8	0.097013175
140	0xbc604f29	-0.013690748
141	0xbd61b6b2	-0.055105872
142	0xbe1189ca	-0.14212719
143	0xbd581ece	-0.052763753
144	0xbdbff10d	-0.09372149
145	0x3d879009	0.066192694
146	0xbdf61747	-0.120161586
147	0x3d9f25fe	0.07770918
148	0xbdf25c5f	-0.11834025
149	0x3daeae6c	0.08529362
150	0xbde778ad	-0.11302314
151	0xbd75c1e0	-0.059999347
152	0xbe158c92	-0.14604405
153	0x3e1dec59	0.1542219
154	0x3d9435e3	0.072368406
155	0xbc449f54	-0.012000877
156	0x3d7da92b	0.06192891
157	0xbdb5b957	-0.088732414
158	0xbdb7a904	-0.08967784
159	0xbd77df8b	-0.06051592
160	0x3dbfc93e	0.09364556
161	0x3df91474	0.12162104
162	0xbdb9173f	-0.09037637
163	0x3c714112	0.014724987
164	0xbd9b20ea	-0.07574637
165	0xbcd316a8	-0.02576764
166	0x3d60cb55	0.054881413
167	0x3e156aa7	0.14591466
168	0xbe1a737f	-0.15083121
169	0x3d107922	0.03527177
170	0xbd8bc6cb	-0.06825026
171	0xbdc2cafe	-0.09511374
172	0xbe1072f1	-0.14106347
173	0x3d94961a	0.07255192
174	0x3c021c6a	0.007941345
175	0x3d29a528	0.04141727
176	0xbd09adc8	-0.033612996
177	0xbdd17c01	-0.1022873
178	0xbd918298	-0.07104987
179	0x3d824a3e	0.06361817
180	0xbd82bda9	-0.06383831
181	0x39540d18	0.00020222773
182	0x3ba2f515	0.0049730637
183	0x3c954035	0.018219093
184	0xbc9f94b6	-0.01948009
185	0x3d30d99b	0.043176275
186	0x3a83a910	0.0010044891
187	0x3d1af302	0.037829407
188	0xbd190789	-0.0373607
189	0x3dc6c167	0.09704857
190	0xbe0a47d9	-0.1350397
191	0xbdc9fcdb	-0.098626815

gru.bias_hh_l1 f4 [192]
0	0x3da8c4f2	0.08240689
1	0xbdb19e9b	-0.0867283
2	0x3d1142b6	0.03546401
3	0xbb00ab77	-0.001963345
4	0x3db48b10	0.088155866
5	0x3c52b7a1	0.012861163
6	0x3db34b56	0.087546036
7	0x3c28dabc	0.010306057
8	0xbc221b18	-0.009894155
9	0xbd4c7c7a	-0.049923398
10	0x3a811b2c	0.0009850017
11	0xbdddf978	-0.10838598
12	0x3e0d0eb3	0.13775139
13	0xbcfcda0a	-0.030865688
14	0x3d60a7a8	0.05484739
15	0x3d9c6659	0.07636709
16	0xbd63bd43	-0.055600416
17	0xbdac682e	-0.08418308
18	0xbe05228a	-0.13001457
19	0x3dc47736	0.0959305
20	0x3c656eb5	0.014003445
21	0x3de71af1	0.112844355
22	0x3cbcf273	0.023064828
23	0xbd4df75a	-0.05028472
24	0x3d0ed30f	0.03486925
25	0xbc5e6e22	-0.013576062
26	0xbd3f8842	-0.046760805
27	0x3dcb3852	0.099228516
28	0xbd2d97db	-0.04238115
29	0xbd829053	-0.06375184
30	0xbc569d7a	-0.013099069
31	0xbd75b805	-0.059989948
32	0x3d5f91fe	0.05458259
33	0x3d991267	0.07474213
34	0xbdecbb78	-0.11559194
35	0xbdd7e3cf	-0.10541498
36	0xbdf3cc64	-0.11904219
37	0xbd9f2176	-0.07770054
38	0x3d992626	0.07477979
39	0xbc2f360a	-0.010694036
40	0xbd51d483	-0.051228058
41	0xbc8b1d74	-0.016981818
42	0x3dbfbd58	0.09362286
43	0xbdb66610	-0.089061856
44	0x3dca270b	0.09870728
45	0xbded5a1c	-0.115894526
46	0xbb3c21a6	-0.002870658
47	0xbd225583	-0.03963233
48	0x3cb2bfd7	0.021819992
49	0x3d15d940	0.03658414
50	0xbcfc442c	-0.030794226
51	0x39b597e8	0.0003463619
52	0x3df1e934	0.11812058
53	0x3dd318be	0.103074536
54	0xbdd84127	-0.10559302
55	0x3c85342a	0.016260225
56	0xbcab5012	-0.020912204
57	0x3ab1955e	0.0013548543
58	0x3e016bda	0.12638798
59	0xbdba3e8a	-0.0909396
60	0xbdb0a318	-0.08624858
61	0x3ddbe7ee	0.107375965
62	0x3dad9985	0.08476547
63	0x3db5b9fd	0.08873365
64	0x3b6dd820	0.003629215
65	0x3cfe0fee	0.031013455
66	0xbd5e7708	-0.054312736
67	0x3ccc4c60	0.024938762
68	0x3ce37012	0.0277634
69	0x3d2c08bd	0.04200052
70	0xbcd78452	-0.026308212
71	0x3d923634	0.07139245
72	0xbcbb1f8e	-0.022842195
73	0xbd7c597a	-0.06160877
74	0xbe1d96cc	-0.15389556
75	0x3d3b7103	0.045762073
76	0x3d95cd92	0.073146
77	0x3dbd7ed1	0.09252704
78	0xbde90ee1	-0.11379791
79	0xbd623c94	-0.055233553
80	0xbda87522	-0.08225466
81	0x3dad9d70	0.084772944
82	0x3d009fc4	0.031402364
83	0x3d129878	0.035789937
84	0xbe1164e4	-0.14198643
85	0x3d1f6a32	0.038919635
86	0xbb39d6c4	-0.002835677
87	0xbd62686e	-0.055275373
88	0xbd3f13ba	-0.046649672
89	0x3cd1a60b	0.02559187
90	0xbc10a66c	-0.008828741
91	0xbe160e77	-0.14653955
92	0x3c2b3953	0.010450679
93	0xbda28ef5	-0.07937423
94	0x3e008904	0.12552267
95	0xbdae7d0f	-0.08519947
96	0xbd9b76b1	-0.07590998
97	0xbe15f514	-0.14644271
98	0xbc7ebb03	-0.015547517
99	0xbdeaf156	-0.114718124
100	0x3da724fe	0.081613526
101	0x3d3a1a32	0.045435138
102	0xbdb7defb	-0.08978077
103	0xbe177f28	-0.147946
104	0xbd858346	-0.06519179
105	0x3d6a4b9f	0.057201024
106	0xbe035a47	-0.12827407
107	0x3d2a80e4	0.041626826
108	0xbd84b151	-0.06479133
109	0xbda2cfef	-0.079498164
110	0xbd9ec86c	-0.07753071
111	0xbd93dacf	-0.07219469
112	0xbd90ba3b	-0.07066771
113	0xbdcc4f11	-0.09976018
114	0x3c46f4ff	0.012143373
115	0xbd9960f5	-0.07489196
116	0xbc7ac342	-0.015305342
117	0xbd5e2bfd	-0.05424117
118	0x3dc31f60	0.09527469
119	0xbdf8e690	-0.12153351
120	0xbd8db3f6	-0.069190904
121	0xbc4ddefd	-0.012565372
122	0xbded07a2	-0.115737215
123	0xbdd859e7	-0.105640225
124	0x3d1168a0	0.03550017
125	0x3dd7df53	0.105406426
126	0xbd6f8aff	-0.058482166
127	0x3dbf7b41	0.09349681
128	0x3d88cbbe	0.06679486
129	0x3d8500ea	0.06494315
130	0x3d3e5297	0.046465483
131	0x3ddefccd	0.10888062
132	0xbd3e1c29	-0.046413574
133	0x3db54b88	0.08852297
134	0xbe04bfb9	-0.12963761
135	0xbd91ac87	-0.07112985
136	0x3e16fee8	0.14745677
137	0xbd0677bb	-0.032829028
138	0x3c8ce05a	0.017196823
139	0xbd8f659a	-0.07001801
140	0xbd17fc85	-0.037106056
141	0xbca383a3	-0.01996023
142	0x3b4e713e	0.0031500603
143	0xbd2d2f45	-0.042281408
144	0x3dfc7bd5	0.123283066
145	0x3dc9896c	0.09840664
146	0x3da156e1	0.07877899
147	0x3ddf33ca	0.1089855
148	0x3d1812d3	0.037127327
149	0x3dc17e2a	0.09447892
150	0x3d7dee73	0.06199498
151	0xbd7df957	-0.062005367
152	0xbdceb095	-0.10092274
153	0xbd2d845f	-0.042362567
154	0xbde6547e	-0.11246584
155	0xbdb66b07	-0.089071326
156	0x3d0d40a1	0.034485463
157	0x3cf1f20c	0.029534362
158	0x3d982c00	0.07430267
159	0x3de4148c	0.111367315
160	0x3c6b4ad9	0.014361107
161	0x3e13e513	0.14442854
162	0xbc96541d	-0.018350655
163	0xbd1d9a59	-0.038477276
164	0x3be5fdf6	0.0070188
165	0x3e081df5	0.13292678
166	0x3e061ab8	0.1309613
167	0x3e18d758	0.14925897
168	0xbe05cc3e	-0.13066193
169	0x3dd2cb65	0.10292701
170	0xbdc2aaf5	-0.09505264
171	0x3dd70980	0.10499859
172	0xbdb39516	-0.0876867
173	0xbc8d8b7f	-0.017278431
174	0x3caad534	0.020853616
175	0x3dff9135	0.12478868
176	0x3bf544e8	0.007485021
177	0xbd9cca54	-0.076557785
178	0xbd6e04e9	-0.05811015
179	0x3d63dfc8	0.055633336
180	0xbd175f46	-0.036956094
181	0x3da6602d	0.08123813
182	0xbdaf8573	-0.08570375
183	0xb9b6dd96	-0.0003487884
184	0xbe17898d	-0.14798565
185	0xbd4eb3ad	-0.05046432
186	0xbe03f370	-0.12885833
187	0xbc3e3dca	-0.011611411
188	0xbe0ab211	-0.1354449
189	0x3d305e59	0.043058727
190	0x3d7cdb6a	0.061732687
191	0x3daa1d15	0.08306328
