squat_model.pth (torch, 63792 bytes, 7 tensors)

model.0.weight f4 [128, 36]
-0.033302456 -0.16662648 0.15889534 0.10132544 0.14641078 0.071715124 -0.04577944 0.05583308
-0.022024166 0.07600211 -0.020498617 -0.052562583 -0.13707966 0.10681477 -0.155204 0.11273265
-0.07036803 -0.024631279 -0.060280345 -0.092592336 0.049748342 0.00056874537 -0.017436491 -0.08241068
-0.01546524 0.030367019 -0.116574645 0.036401685 -0.11083383 -0.13550167 -0.062226884 -0.05925242
0.04412801 -0.1643829 0.14752847 0.08937882 -0.1307627 0.1397845 0.1362571 -0.016150909
0.10290728 0.13989492 -0.11272504 0.11489143 0.030525545 0.042225596 -0.06182985 0.022957966
-0.09283938 -0.122755654 -0.086601 0.1351628 -0.0024186387 -0.029626044 0.0060209916 0.17712721
0.04530633 -0.007077605 -0.09528071 0.115840115 -0.07605421 0.16285113 0.05999807 0.16504318
0.17309962 0.087452605 0.10000085 -0.13386047 0.08791852 0.18480025 0.113480054 0.012752265
0.17845076 0.07020083 0.01894963 -0.0077012577 0.09965605 -0.04898008 0.11383257 -0.12100871
-0.009268773 0.163569 -0.09435719 0.028634364 0.17379609 0.17149812 -0.08165693 -0.09193311
0.02596253 -0.07862212 0.15798028 0.082548626 -0.016227158 0.08187077 0.14037582 0.057079792
0.15986332 0.13540852 0.03639412 0.028545646 0.107332475 -0.056000624 0.06952554 -0.09324372
-0.0653349 0.14833894 0.04511901 -0.005614515 -0.102785945 0.13301042 -0.026280642 -0.0903189
0.0016306242 0.15690327 -0.0820933 -0.08730787 -0.043971956 -0.042080343 -0.073431596 -0.017870149
0.15625778 0.14941564 0.11116956 0.0618636 -0.11691471 -0.055205785 -0.13873959 -0.04129718
-0.11359861 -0.044219397 -0.12270622 -0.16130307 -0.15012066 0.032560192 0.044627648 0.023390055
-0.12793832 0.0003341834 0.15217863 0.022732735 0.12520695 -0.09762987 0.0054334207 -0.14623478
0.109258406 0.13501035 0.09309501 -0.13533051 -0.059389558 0.12850301 0.07265817 0.14585993
-0.0015261855 0.07498702 0.06982442 -0.15360586 -0.1626602 -0.09583541 0.108593695 -0.1389363
-0.08594973 0.033623707 0.007046997 0.16339119 -0.11754993 -0.11713939 0.007591063 0.071133666
-0.13556778 0.057540137 -0.020312928 0.031266112 0.04590235 -0.05803031 0.09322841 0.08738205
0.15532447 -0.13308989 0.13895889 -0.10467435 0.0403257 0.009015489 -0.02684769 0.11798776
-0.02799592 0.14497994 -0.008430871 0.15402828 0.19177626 0.08715069 0.0065774573 0.09160185
-0.08608728 0.071737535 -0.10707962 0.048314866 -0.09765663 0.13241372 0.08660586 0.19688796
0.18666925 0.14510581 0.17420329 0.12706883 0.09911247 -0.089087546 0.09837824 0.12473281
0.03393085 -0.121524565 0.047914077 0.1475372 -0.065495014 0.09979344 -0.031249318 -0.012844937
0.14998205 0.18475904 -0.099167645 -0.0026125228 -0.08126119 -0.012242418 0.07295195 0.01786243
0.011405803 0.18939549 -0.090285435 0.015054797 0.12158268 -0.026274657 0.17050791 0.028270049
-0.11554488 0.10888113 0.0052594785 0.044919364 0.08778313 0.016700352 -0.03125436 -0.09341634
-0.006301113 0.1534802 -0.013567848 0.14709707 -0.030680863 0.18000063 0.15818974 0.10313251
0.19647115 -0.0983027 0.09856246 -0.10516239 -0.04140387 -0.08092706 -0.05588627 -0.08639841
00000000: 2868 08bd 22a0 2abe 76b5 223e b683 cf3d
00000010: b5ec 153e 61df 923d 3983 3bbd 3ab1 643d
00000020: 066c b4bc ffa6 9b3d b7ec a7bc dd4b 57bd
00000030: 9c5e 0cbe b4c1 da3d cced 1ebe 60e0 e63d
00000040: 1d1d 90bd 89c7 c9bc 86e8 76bd 0da1 bdbd
00000050: ebc4 4b3d db17 153a f9d6 8ebc eec6 a8bd
00000060: eb61 7dbc 41c4 f83c b0be eebd ef19 153d
00000070: d9fc e2bd f3c0 0abe 9ee1 7ebd aab2 72bd
00000080: 92bf 343d fe53 28be b411 173e 3e0c b73d
00000090: a8e6 05be ab23 0f3e fb86 0b3e e94e 84bc
000000a0: 0dc1 d23d 9d40 0f3e 63dc e6bd 334c eb3d
000000b0: b510 fa3c bff4 2c3d 4c41 7dbd 5812 bc3c
000000c0: 9322 bebd 5167 fbbd dd5b b1bd 1e68 0a3e
000000d0: 0682 1ebb 51b2 f2bc bd4b c53b d660 353e
000000e0: 2193 393d 41eb e7bb 8822 c3bd 953d ed3d
000000f0: 4fc2 9bbd 72c2 263e 89c0 753d 1401 293e
00000100: 0741 313e 5a1a b33d 3fcd cc3d b812 09be
00000110: a00e b43d 473c 3d3e 3b68 e83d e0ee 503c
00000120: ccbb 363e 74c5 8f3d 413c 9b3c d55a fcbb
00000130: 7918 cc3d 569f 48bd 0d21 e93d 6ad3 f7bd
00000140: 0ddc 17bc a27e 273e 583e c1bd 9d92 ea3c
00000150: 9af7 313e 349d 2f3e c03b a7bd 6d47 bcbd
00000160: 5faf d43c a204 a1bd 95c5 213e 410f a93d
00000170: d1ee 84bc ddab a73d aebe 0f3e 80cc 693d
00000180: 36b3 233e 88a8 0a3e 0012 153d 8fd8 e93c
00000190: 21d1 db3d e960 65bd 6863 8e3d 90f6 bebd
000001a0: 4ece 85bd 2ae6 173e b6ce 383d f7f9 b7bb
000001b0: 7081 d2bd e233 083e 804a d7bc 1ef9 b8bd
000001c0: abba d53a 40ab 203e 8820 a8bd 78ce b2bd
000001d0: f01b 34bd 705c 2cbd 4e63 96bd 6b64 92bc
000001e0: 0a02 203e 6a00 193e deac e33d b064 7d3d
000001f0: fb70 efbd 761f 62bd c011 0ebe 3b27 29bd
00000200: 63a6 e8bd 661f 35bd 664d fbbd a22c 25be
00000210: 3bb9 19be d65d 053d 7bcb 363d 809c bf3c
00000220: 4302 03be 5635 af39 b7d4 1b3e 003a ba3c
00000230: 4036 003e 2bf2 c7bd d60a b23b 92be 15be
00000240: dfc2 df3d 2740 0a3e 99a8 be3d 1594 0abe
00000250: 7742 73bd 4b96 033e cecd 943d 4e5c 153e
00000260: 4a0a c8ba cb92 993d 1b00 8f3d db4a 1dbe
00000270: 6590 26be 5b45 c4bd 5f66 de3d 5145 0ebe
00000280: 6906 b0bd 03b9 093d 7fea e63b 0550 273e
00000290: 05be f0bd c7e6 efbd 74be f83b 87ae 913d
000002a0: 48d2 0abe 35af 6b3d 4c67 a6bc e510 003d
000002b0: 1a04 3c3d 31b1 6dbd 89ee be3d 5cf5 b23d
000002c0: 610d 1f3e b748 08be 3d4b 0e3e 815f d6bd
000002d0: 902c 253d b4b5 133c b0ef dbbc 91a3 f13d
000002e0: b357 e5bc 9f75 143e a321 0abc 97b9 1d3e
000002f0: ff60 443e 107c b23d b687 d73b c099 bb3d
00000300: 874e b0bd 21eb 923d 8f4c dbbd cfe5 453d
00000310: 3300 c8bd 7697 073e 6a5e b13d ff9c 493e
00000320: 3926 3f3e 9e96 143e 5962 323e 551e 023e
00000330: 7bfb ca3d 8873 b6bd 887a c93d ea73 ff3d
00000340: 13fb 0a3d dfe1 f8bd 8d41 443d fe13 173e
00000350: 4022 86bd 8160 cc3d 92fe ffbc 9273 52bc
00000360: e594 193e 7931 3d3e 6818 cbbd dc36 2bbb
00000370: 446c a6bd 6c94 48bc d567 953d 3b54 923c
00000380: 68df 3a3c e4f0 413e 92e7 b8bd 65a8 763c
00000390: 5700 f93d f33d d7bc a099 2e3e 9796 e73c
000003a0: cba2 ecbd 12fd de3d b457 ac3b 5efd 373d
000003b0: a4c7 b33d 2dcf 883c 9204 00bd 1151 bfbd
000003c0: 9179 cebb ea29 1d3e ae4b 5ebc 9da0 163e
000003d0: 6f56 fbbc 1652 383e 7efc 213e 2337 d33d
000003e0: bc2f 493e ed52 c9bd 1ddb c93d 615f d7bd
000003f0: 1b97 29bd 16bd a5bd 00e9 64bd a6f1 b0bd

model.0.bias f4 [128]
0.03219501 -0.11187736 0.17417766 -0.042614102 0.08774618 -0.08564844 0.1701419 -0.1633666
0.022795986 -0.061604682 0.043841023 0.057270408 -0.08259234 0.024939543 0.1146206 -0.15340072
-0.1518749 -0.14905274 -0.14241758 0.05949302 0.05965082 -0.1332294 -0.016794262 -0.16128129
0.055125155 0.16351028 0.11394789 0.04634512 -0.1596148 0.00041165427 -0.15268956 0.14728715
0.09786979 0.0031927072 -0.0664561 0.19335665 -0.094344355 0.13936897 0.07016455 -0.044195853
0.07582395 0.10445961 -0.06611479 -0.072761774 -0.099631034 0.129618 0.06240504 0.08378161
0.056621276 0.030301433 -0.11667661 0.045547273 0.022392206 0.076709025 -0.115838945 0.033960566
0.072378695 0.03484138 -0.07124689 0.12775962 0.011342962 -0.07911792 -0.11154365 -0.11759727
-0.066358365 0.018719688 0.18397553 -0.11448487 -0.16982664 0.05205826 -0.06765493 0.19060792
-0.14692679 0.06468121 0.07126373 0.011703046 -0.09825294 0.0074083367 0.082683966 -0.10790396
-0.0041975956 -0.029947158 0.1016394 -0.019451717 -0.13412617 0.1761634 -0.1054918 0.11643035
0.09779809 0.17263642 0.17264003 0.14485605 0.16364741 0.17558311 -0.018484872 -0.052222393
0.022859732 -0.13856113 -0.010204415 0.16395505 0.043477714 0.01808195 0.0021901615 0.1972635
-0.06584166 0.08111755 0.091985315 0.019784741 0.17511746 -0.1523681 0.004566611 0.124209575
0.019278508 0.10831571 0.09681236 0.14162381 -0.13467368 0.07197454 0.12837417 0.05977506
-0.048223298 0.046180036 -0.051241964 0.18218328 -0.09295603 -0.1106032 0.1545426 -0.12497761
00000000: eade 033d f51f e5bd a15b 323e 208c 2ebd
00000010: 45b4 b33d 7368 afbd ae39 2e3e 9349 27be
00000020: a6be ba3c 3155 7cbd a592 333d 6094 6a3d
00000030: 2c26 a9bd 034e cc3c 35be ea3d 1415 1dbe
00000040: 1885 1bbe 48a1 18be ead5 11be f4ae 733d
00000050: 6b54 743d 4a6d 08be 1f94 89bc ec26 25be
00000060: eaca 613d 3d6f 273e 835d e93d 61d4 3d3d
00000070: 1072 23be 4dd3 d739 a75a 1cbe 71d2 163e
00000080: f56f c83d bd3c 513b 231a 88bd 49ff 453e
00000090: 9d37 c1bd bdb6 0e3e 6eb2 8f3d b606 35bd
000000a0: 9649 9b3d ecee d53d 3167 87bd 2004 95bd
000000b0: 5b0b ccbd 95ba 043e 6d9c 7f3d b195 ab3d
000000c0: b6eb 673d b63a f83c 26f4 eebd c78f 3a3d
000000d0: dc6f b73c 9f19 9d3d f83c edbd 3c1a 0b3d
000000e0: 483b 943d d6b5 0e3d e4e9 91bd 6bd3 023e
000000f0: d5d7 393c 9308 a2bd ff70 e4bd d6d6 f0bd
00000100: e5e6 87bd 085a 993c 1564 3c3e 0b77 eabd
00000110: 09e7 2dbe 0b3b 553d ab8e 8abd b92e 433e
00000120: fa73 16be 9577 843d b8f2 913d 22be 3f3c
00000130: d638 c9bd a2c1 f23b 3656 a93d c0fc dcbd
00000140: fc8b 89bb be53 f5bc 5128 d03d 3559 9fbc
00000150: 5f58 09be 2e64 343e 160c d8bd 0973 ee3d
00000160: 5d4a c83d 9ac7 303e 8cc8 303e 2555 143e
00000170: 3093 273e 0fcc 333e 966d 97bc 26e7 55bd
00000180: 5544 bb3c f8e2 0dbe 6b30 27bc d5e3 273e
00000190: b015 323d 9920 943c d088 0f3b 71ff 493e
000001a0: fed7 86bd f520 a63d cc62 bc3d 9c13 a23c
000001b0: fe51 333e 6206 1cbe 82a3 953b 9761 fe3d
000001c0: f6ed 9d3c a1d4 dd3d 8f45 c63d d505 113e
000001d0: e6e7 09be 6367 933d 8574 033e b1d6 743d
000001e0: cb85 45bd 4727 3d3d 18e3 51bd 418e 3a3e
000001f0: bb5f bebd ee83 e2bd 6a40 1e3e 43f4 ffbd

model.3.weight f4 [64, 128]
0.04741048 0.027866663 -0.0849094 -0.014641383 0.008595632 -0.0016034432 0.023229688 -0.05728648
-0.080646396 -0.023595853 -0.07345249 0.040121958 -0.04595642 0.016203761 0.011043736 0.02426255
-0.0038645077 -0.028089901 -0.022674287 0.025992319 -0.026754063 -0.083999366 -0.07319118 0.05984904
-0.062831245 0.023042519 -0.06212798 -0.017371098 -0.05392255 0.042599395 0.039478026 0.024838086
0.045194056 -0.109433405 0.025388436 -0.01954889 -0.021511767 0.03543953 0.038710088 -0.07415769
-0.040653273 -0.040348254 -0.024418503 -0.016956802 -0.06662714 -0.08694826 -0.045244355 -0.02162703
-0.065365754 0.03146969 -0.01573945 -0.07805441 0.040152766 0.051525984 0.005225027 -0.06510573
-0.028070873 0.048656978 -0.010101806 -0.040512037 -0.031311586 -0.029675648 0.028178992 0.04778754
0.04066328 0.014465745 -0.051334575 -0.04525833 -0.084946506 -0.07168002 -0.020433709 -0.04111319
-0.031355802 -0.059911147 -0.037242156 -0.028197343 -0.0023424586 0.05754462 0.055312406 -0.0049626543
0.010078291 -0.01773258 0.00032774222 0.052267905 -0.07202492 -0.011505119 -0.007303058 0.02949398
-0.100406475 -0.043932386 -0.04025584 -0.0896089 0.03746876 0.06658625 -0.018000666 0.015829524
-0.04136358 0.06457069 -0.012448093 0.0031706207 -0.04592272 -0.045103397 -0.07918325 0.01800715
0.06304141 0.022220308 0.046298623 0.066232644 0.00050572853 0.069931544 -0.039544977 0.0057881954
0.007667839 0.07534396 -0.022783255 0.015610697 -0.008438525 -0.0811397 0.045196522 0.044632852
-0.06498207 -0.089515805 0.05049702 -0.01731884 -0.04457678 0.041007765 -0.015753226 -0.045316566
-0.03874407 0.13066316 0.12930116 0.025185892 0.025455587 0.048753053 0.092772715 0.042155802
-0.07597795 0.091093 0.07827775 0.14045872 0.12783407 0.21652678 -0.028257554 -0.0725942
-0.011340073 0.016467353 -0.088136494 0.1647449 0.044519458 0.015312519 0.07282565 0.08791363
0.060290053 0.09251232 0.096625045 0.05428003 -0.03119521 0.08124997 -0.00804026 0.039518174
0.0277327 0.060726818 0.14662273 0.21510816 -0.03462919 0.065189034 0.15248351 -0.08645039
0.13972662 0.12039814 0.14205222 0.0985652 0.06783417 0.18150494 0.17131126 0.017190002
0.19023313 0.08385514 0.18214726 0.18890724 0.17792936 0.109661326 0.18086387 0.080506675
0.070770904 0.027964538 0.090102114 0.060475886 -0.01609254 -0.022395696 0.21401635 -0.015690902
0.039559808 0.087865755 0.064939335 0.04609291 0.039799932 -0.016306678 -0.03243709 0.19934854
0.03895771 0.17040639 0.1432163 0.1816103 0.041027028 -0.03274946 0.13311268 0.042938575
0.07511308 0.1836127 0.048667733 0.14080253 0.0732877 0.14685082 0.088123165 0.1688859
0.06681362 0.12878811 0.07525932 0.16429658 0.1257504 0.14917667 -0.016812284 -0.016372534
0.19539814 0.103449166 -0.032968033 0.043450583 0.15812418 -0.0112330625 0.06605917 0.1462092
0.07070546 0.074554175 -0.02915916 0.057052337 0.14901784 0.046607964 0.078303374 0.06807354
0.09197287 0.07711896 0.21154928 0.20155798 -0.019649517 0.08862178 0.22943798 0.107277595
-0.040869884 0.12753585 0.19621712 0.115717255 0.043991867 0.04774672 0.053659987 0.17570439
00000000: 7e31 423d a148 e43c fbe4 adbd 69e2 6fbc
00000010: b2d4 0c3c a02a d2ba 304c be3c 3aa5 6abd
00000020: f029 a5bd 174c c1bc 426e 96bd ec56 243d
00000030: cd3c 3cbd c0bd 843c c9f0 343c 41c2 c63c
00000040: ae43 7dbb cb1c e6bc 6dbf b9bc d8ed d43c
00000050: 562b dbbc dc07 acbd 42e5 95bd 4424 753d
00000060: abad 80bd aac3 bc3c e979 7ebd d54d 8ebc
00000070: e4dd 5cbd b47c 2e3d b6b3 213d 3e79 cb3c
00000080: 671d 393d 9f1e e0bd 69fb cf3c fe24 a0bc
00000090: 7239 b0bc 0a29 113d 788e 1e3d fddf 97bd
000000a0: 0c84 26bd 3644 25bd 5009 c8bc fee8 8abc
000000b0: cf73 88bd ee11 b2bd 2552 39bd 2b2b b1bc
000000c0: 7bde 85bd 5de6 003d 05f0 80bc feda 9fbd
000000d0: 3a77 243d e90c 533d b436 ab3b 2756 85bd
000000e0: e3f4 e5bc 8a4c 473d 0c82 25bc f3ef 25bd
000000f0: 9440 00bd 581a f3bc a1d7 e63c debc 433d
00000100: 8a8e 263d bb01 6d3c 3444 52bd cc60 39bd
00000110: 6ff8 adbd f9cc 92bd 9864 a7bc 4e66 28bd
00000120: f16e 00bd 6465 75bd 3b8b 18bd 1dfe e6bc
00000130: ef83 19bb e8b3 6b3d 438f 623d c39d a2bb
00000140: 6b1f 253c ea43 91bc d1d4 ab39 df16 563d
00000150: cd81 93bd f77f 3cbc 7e4e efbb 5c9d f13c
00000160: e9a1 cdbd 72f2 33bd 4fe3 24bd df84 b7bd
00000170: d878 193d 5f5e 883d 2276 93bc ebac 813c
00000180: db6c 29bd a33d 843d 16f3 4bbc 30ca 4f3b
00000190: 7619 3cbd 57be 38bd d42a a2bd bb83 933c
000001a0: db1b 813d 5d07 b63c a0a3 3d3d fba4 873d
000001b0: de92 043a 4538 8f3d eaf9 21bd e7aa bd3b
000001c0: 7f42 fb3b ef4d 9a3d f3a3 babc 02c4 7f3c
000001d0: bd41 0abc 922c a6bd fd1f 393d f0d0 363d
000001e0: 5215 85bd 1054 b7bd f7d5 4e3d 3de0 8dbc
000001f0: 2496 36bd c2f7 273d e90c 81bc dd9d 39bd
00000200: 1ab2 1ebd 90cc 053e 8667 043e a552 ce3c
00000210: 3c88 d03c 48b1 473d 9fff bd3d 90ab 2c3d
00000220: 549a 9bbd f78e ba3d 1650 a03d 69d4 0f3e
00000230: efe6 023e 32b9 5d3e 637c e7bc 45ac 94bd
00000240: b7cb 39bc 8be6 863c e880 b4bd e3b2 283e
00000250: 095a 363d 5ce1 7a3c 9d25 953d 100c b43d
00000260: b4f2 763d 1977 bd3d 5ae3 c53d bd54 5e3d
00000270: 198d ffbc 6266 a63d 4bbb 03bc cfdd 213d
00000280: b02f e33c afbc 783d 4524 163e 5045 5c3e
00000290: 56d7 0dbd d481 853d a324 1c3e e70c b1bd
000002a0: 7f14 0f3e 4d93 f63d 2376 113e 8ddc c93d
000002b0: a4ec 8a3d 6edc 393e 386c 2f3e 0cd2 8c3c
000002c0: 79cc 423e 3ebc ab3d d084 3a3e e670 413e
000002d0: 1d33 363e 1e96 e03d 6134 393e afe0 a43d
000002e0: 56f0 903d e315 e53c 7587 b83d 90b5 773d
000002f0: 81d4 83bc 2e77 b7bc 1a27 5b3e 358a 80bc
00000300: 7709 223d f6f2 b33d eafe 843d ebcb 3c3d
00000310: 4105 233d 9595 85bc c1dc 04bd 0622 4c3e
00000320: 1f92 1f3d 037f 2e3e 4ba7 123e 0df8 393e
00000330: f50b 283d 4c24 06bd b14e 083e 5ce0 2f3d
00000340: e3d4 993d f804 3c3e d157 473d 8a2e 103e
00000350: dd17 963d 1060 163e eb79 b43d 6df0 2c3e
00000360: 94d5 883d 08e1 033e 8f21 9a3d 5d3d 283e
00000370: b6c4 003e c5c1 183e eab9 89bc b11f 86bc
00000380: 7316 483e 28dd d33d 7d09 07bd 3df9 313d
00000390: 4eeb 213e e10a 38bc 084a 873d ddb7 153e
000003a0: 06ce 903d dcaf 983d 31df eebc b6af 693d
000003b0: 2298 183e fee7 3e3d 855d a03d 246a 8b3d
000003c0: 465c bc3d 8cf0 9d3d 60a0 583e 3765 4e3e
000003d0: 06f8 a0bc 567f b53d caf1 6a3e 5bb4 db3d
000003e0: 2e67 27bd c298 023e 24ed 483e 2bfd ec3d
000003f0: d130 343d 1192 433d 93ca 5b3d daeb 333e

model.3.bias f4 [64]
-0.012040653 0.09061857 0.08601146 0.036472406 0.092942126 -0.017043537 -0.02649233 -0.022403002
0.013271518 0.023134392 0.06960428 -0.00680827 0.046164047 0.022175789 -0.03756543 -0.02188136
-0.009058138 -0.06293369 -0.020045973 -0.05594037 0.09556449 0.05181158 -0.031889193 0.0018587854
-0.02378688 0.026794573 0.02450206 -0.012780618 -0.09471148 -0.059476133 -0.022253824 0.11629252
0.019125225 -0.014405663 -0.026521195 0.058835946 -0.024126625 -0.09185342 -0.013577642 0.009817679
-0.0130023435 0.10517925 0.046791997 -0.079717346 0.072387084 0.11312619 -0.04243182 -0.014603061
-0.09014769 0.04346068 -0.024761146 -0.016352965 -0.014455507 0.0044514798 0.028997032 -0.0020153
-0.041779064 -0.037982024 0.026628353 -0.03129148 -0.05396127 -0.057074524 0.04957896 -0.003974736
00000000: 2946 45bc 3b96 b93d c726 b03d 1764 153d
00000010: 7158 be3d e39e 8bbc 7106 d9bc 8086 b7bc
00000020: c870 593c 5684 bd3c b08c 8e3d e817 dfbb
00000030: 8316 3d3d 00aa b53c 35de 19bd 8a40 b3bc
00000040: 9668 14bc 61e3 80bd 7437 a4bc bb21 65bd
00000050: 51b7 c33d 6138 543d 3e9e 02bd 7da2 f33a
00000060: b4dc c2bc 4b80 db3c 8bb8 c83c cc65 51bc
00000070: 18f8 c1bd 3f9d 73bd a74d b6bc c62a ee3d
00000080: 81ac 9c3c bb05 6cbc fa42 d9bc f6fd 703d
00000090: 33a5 c5bc a51d bcbd c274 5ebc 55da 203c
000000a0: c807 55bc 3868 d73d f7a8 3f3d d942 a3bd
000000b0: ae3f 943d b4ae e73d fdcc 2dbd ad41 6fbc
000000c0: 5a9f b8bd d303 323d e3d7 cabc a7f6 85bc
000000d0: cad6 6cbc b8dd 913b 2f8b ed3c 2013 04bb
000000e0: 8620 2bbd 0a93 1bbd b423 da3c 7f2b 00bd
000000f0: 7e06 5dbd fac6 69bd 4f13 4b3d 813e 82bb

model.6.weight f4 [32, 64]
0.057740625 0.08897609 0.045372244 0.023812726 -0.02243181 0.0344918 0.094816364 0.05761448
-0.04133732 0.046684414 -0.053533323 0.03142424 -0.11366551 0.06901441 0.035369433 -0.09886639
0.05745461 0.07659328 -0.022334695 0.07656578 0.017228244 -0.060365282 0.0006031642 0.059794515
-0.06630722 -0.0023522011 0.049518853 0.061727818 0.0765007 -0.017069353 -0.062428314 -0.06535442
-0.08451222 0.027845317 -0.006266713 -0.043705493 -0.051243044 0.023467083 -0.023451898 -0.039883323
-0.013158303 -0.11116709 -0.009169007 0.08534752 -0.020591795 0.03437999 -0.07254773 -0.09962212
0.11726393 0.06995992 0.069253296 0.08239283 -0.01713444 -0.09880961 -0.086317 -0.06671676
0.09046253 0.017628439 -0.09999807 0.09678301 -0.12702413 -0.06023307 -0.12261933 -0.11841216
0.13502161 0.15533136 0.10543467 0.059676625 0.09429978 0.089435354 0.16644411 0.05500255
0.06886955 -0.05182746 -0.04992057 0.05885293 0.090240285 0.14853886 0.116745315 0.15751289
0.11583094 -0.12336774 0.26337045 0.0010589712 -0.023288667 -0.034121446 -0.009233784 0.10769421
-0.02203388 0.010847225 -0.008963613 -0.04431384 0.103928246 0.025908932 0.118755065 0.09444932
0.11429054 -0.027419092 -0.058629826 0.01270883 0.12473118 -0.06906561 -0.084749915 0.1164704
0.067162104 0.13628162 -0.07495378 -0.10119094 0.0042162896 0.019441765 -0.10674269 0.03967602
0.060016803 -0.036099683 0.012979755 0.063201845 -0.11413288 -0.029030794 -0.07043717 -0.013668767
-0.026154002 -0.0022396592 -0.038464293 0.0715517 0.07808202 -0.11844709 0.09309851 0.032963235
-0.010996142 0.24486461 0.042563025 -0.007465603 0.072229326 0.13548842 0.085242234 0.011967507
0.120211884 -0.06375638 -0.019049138 0.039001018 0.077645406 -0.016948342 -0.08683086 0.052238874
-0.097735934 0.09157018 0.21316616 -0.064030014 0.09872905 -0.043474983 -0.02347977 -0.057430517
-0.060671113 -0.066161074 -0.057864614 -0.056208447 -0.014453956 0.031074377 -0.099145144 -0.06812714
-0.03352475 0.014903754 0.029109418 0.16650085 -0.002611683 -0.07168996 0.066170976 0.008979202
0.10401873 0.15944767 0.015187102 0.04239976 -0.017893543 0.033486556 0.04174205 0.021902889
-0.020752767 -0.006139283 -0.08123842 0.13852997 0.092548706 0.14440295 -0.08321132 -0.04458693
-0.09758052 0.075565 0.012190078 -0.001735125 0.13386607 0.011459426 -0.058102775 0.115499854
-0.082327135 0.2321276 0.0074096983 -0.09447228 -0.007903446 -0.059733093 0.10423429 0.15979068
0.006229686 -0.059063494 0.007664513 0.10774428 0.1569486 -0.064428315 0.11788465 -0.045426108
-0.044475064 -0.0340098 0.065620534 0.060583975 -0.0047522676 0.124309346 0.09503963 -0.10069425
-0.03629369 -0.0377817 -0.10542913 0.11115494 0.021425039 0.11672893 0.0699742 0.1409388
-0.085697226 -0.12128194 -0.0116482675 0.035069037 0.07504381 0.068866916 0.065745875 -0.04754292
0.03584004 -0.028791782 0.07754967 -0.049972832 -0.06405024 -0.03886392 -0.104589075 0.148633
-0.067715526 -0.06864404 0.023752198 0.026665289 -0.0362941 0.14508125 -0.09746396 0.13832803
0.020273142 0.028674632 0.056842525 0.10945986 -0.0559769 -0.09820786 -0.09270466 0.16412915
00000000: 6f81 6c3d 1939 b63d 3fd8 393d e812 c33c
00000010: eac2 b7bc 4647 0d3d 152f c23d 29fd 6b3d
00000020: 5251 29bd 2838 3f3d c245 5bbd b4b6 003d
00000030: 77c9 e8bd 6d57 8d3d 8adf 103d 767a cabd
00000040: 8655 6b3d f0dc 9c3d 40f7 b6bc 85ce 9c3d
00000050: 3f22 8d3c 9641 77bd aa1d 1e3a 18eb 743d
00000060: 14cc 87bd 6327 1abb 48d4 4a3d 4fd6 7c3d
00000070: 66ac 9c3d 07d5 8bbc d5b4 7fbd 8ad8 85bd
00000080: be14 adbd dd1b e43c 0059 cdbb 8804 33bd
00000090: 3ae4 51bd 0a3e c03c 321e c0bc b25c 23bd
000000a0: ec95 57bc 92ab e3bd 9a39 16bc aeca ae3d
000000b0: 20b0 a8bc 08d2 0c3d e793 94bd af06 ccbd
000000c0: 1228 f03d 2647 8f3d acd4 8d3d 92bd a83d
000000d0: 865d 8cbc b15c cabd f8c6 b0bd cca2 88bd
000000e0: 6b44 b93d 8469 903c cacb ccbd 2c36 c63d
000000f0: 9d12 02be f4b6 76bd d81f fbbd 1382 f2bd
00000100: 1b43 0a3e 2f0f 1f3e 22ee d73d 7a6f 743d
00000110: 3e20 c13d e229 b73d 5370 2a3e 5b4a 613d
00000120: 7b0b 8d3d 0849 54bd 8379 4cbd c50f 713d
00000130: e6cf b83d 921a 183e 2b18 ef3d 0f4b 213e
00000140: c638 ed3d 3aa8 fcbd 7ed8 863e 2dcd 8a3a
00000150: e0c7 bebc eec2 0bbd 4c49 17bc c88e dc3d
00000160: 6580 b4bc 8fb8 313c 1edc 12bc 6e82 35bd
00000170: 55d8 d43d f83e d43c db35 f33d a56e c13d
00000180: 2911 ea3d 019e e0bc d425 70bd b238 503c
00000190: 1073 ff3d 4572 8dbd 5d91 adbd 0888 ee3d
000001a0: 498c 893d 698d 0b3e 5e81 99bd 323d cfbd
000001b0: cd28 8a3b 5644 9f3c e99b dabd 5383 223d
000001c0: 2ed4 753d 43dd 13bd 0aa9 543c f86f 813d
000001d0: 80be e9bd fdd1 edbc 5d41 90bd f7f2 5fbc
000001e0: eb40 d6bc 3fc7 12bb bc8c 1dbd b389 923d
000001f0: 77e9 9f3d 6394 f2bd 6eaa be3d 7504 073d
00000200: 2a29 34bc cabd 7a3e 9156 2e3d 04a2 f4bb
00000210: f8ec 933d 7abd 0a3e 7b93 ae3d 5d13 443c
00000220: a631 f63d b492 82bd f00c 9cbc 88bf 1f3d
00000230: 8e04 9f3d 40d7 8abc 61d4 b1bd 6ef8 553d
00000240: c729 c8bd 2689 bb3d 3b48 5a3e 2b22 83bd
00000250: 7532 ca3d d312 32bd a658 c0bc 433c 6bbd
00000260: 4682 78bd 757f 87bd 7203 6dbd d43a 66bd
00000270: 49d0 6cbc b18f fe3c 9c0c cbbd 3e86 8bbd
00000280: 4051 09bd e02e 743c e076 ee3c 337f 2a3e
00000290: c528 2bbb 30d2 92bd a684 873d 811d 133c
000002a0: c607 d53d 4046 233e 53d3 783c 5fab 2d3d
000002b0: 7b95 92bc 3329 093d b6f9 2a3d b06d b33c
000002c0: b501 aabc 0a2c c9bb 5460 a6bd cdda 0d3e
000002d0: 2d8a bd3d 5ede 133e b26a aabd c9a0 36bd
000002e0: 4cd8 c7bd d3c1 9a3d e5b8 473c 226d e3ba
000002f0: 3014 093e 51c0 3b3c 2dfd 6dbd 308b ec3d
00000300: 219b a8bd dcb2 6d3e 0ecd f23b af7a c1bd
00000310: 757d 01bc b0aa 74bd ca78 d53d 2ba0 233e
00000320: 6522 cc3b 90ec 71bd 9826 fb3b 08a9 dc3d
00000330: 22b7 203e fef2 83bd 826d f13d ba10 3abd
00000340: 7c2b 36bd dc4d 0bbd 0f64 863d e726 783d
00000350: e9b8 9bbb e695 fe3d 23a4 c23d c938 cebd
00000360: b1a8 14bd fcc0 1abd 3aeb d7bd 34a5 e33d
00000370: 9083 af3c 940f ef3d a24e 8f3d 4352 103e
00000380: 0782 afbd aa62 f8bd 60d8 3ebc 8da4 0f3d
00000390: 92b0 993d 190a 8d3d c6a5 863d 5dbc 42bd
000003a0: 01cd 123d bedc ebbc 5dd2 9e3d 50b0 4cbd
000003b0: c62c 83bd c62f 1fbd cc32 d6bd 4033 183e
000003c0: 70ae 8abd 3f95 8cbd f893 c23c 2a71 da3c
000003d0: 1fa9 14bd 2e90 143e 2f9b c7bd dda5 0d3e
000003e0: dc13 a63c 10e7 ea3c b5d3 683d 7e2c e03d
000003f0: 0948 65bd 3421 c9bd f1db bdbd 7911 283e

model.6.bias f4 [32]
-0.039337862 0.06778134 0.15089741 -0.016327469 -0.005107961 0.0127321845 0.048707277 0.124946825
-0.022481324 -0.012557095 -0.029188825 0.051575188 0.013884665 -0.04343026 0.04856548 -0.046153758
-0.07583128 0.080982104 0.09592126 -0.08523519 0.07076722 0.027205154 0.09439185 0.06904228
-0.06668047 0.09137715 -0.016594507 -0.12094885 -0.0479412 -0.14614414 0.05296825 -0.04559405
00000000: bd20 21bd f1d0 8a3d da84 1a3e 2fc1 85bc
00000010: af60 a7bb a79a 503c 4881 473d 1fe4 ff3d
00000020: c12a b8bc 46bc 4dbc 671d efbc 8140 533d
00000030: 827c 633c eee3 31bd 99ec 463d b90b 3dbd
00000040: 6e4d 9bbd f2d9 a53d 5e72 c43d ca8f aebd
00000050: 67ee 903d 58dd de3c 8450 c13d 0a66 8d3d
00000060: c58f 88bd f123 bb3d 34f1 87bc 08b4 f7bd
00000070: fe5d 44bd cfa6 15be 3cf5 583d d4c0 3abd

model.8.weight f4 [1, 32]
-0.016013267 0.17753956 0.19535767 0.21819516 0.1612185 0.11503803 0.14556786 0.19774199
0.21086206 -0.1622083 0.216003 0.34418052 -0.12844177 0.13499485 0.15251699 0.15687408
0.09706188 -0.045785565 0.13687508 0.1482714 0.21093255 -0.09356053 0.05732576 -0.1541205
-0.13048787 0.0849959 0.07794326 -0.022867335 0.09328122 -0.11053656 0.114706375 -0.08505527
00000000: 412e 83bc eecc 353e d70b 483e 8d6e 5f3e
00000010: 7616 253e 0f99 eb3d be0f 153e e07c 4a3e
00000020: 39ec 573e ef19 26be e42f 5d3e 6e38 b03e
00000030: 3d86 03be 173c 0a3e 6a2d 1c3e 99a3 203e
00000040: 61c8 c63d a589 3bbd fb28 0c3e 75d4 173e
00000050: b4fe 573e aa9c bfbd 6bce 6a3d c4d1 1dbe
00000060: 9d9e 05be 5512 ae3d b7a0 9f3d 4754 bbbc
00000070: 390a bf3d fe60 e2bd 2deb ea3d 7531 aebd
