squat_model.pth (torch, 79152 bytes, 7 tensors)

model.0.weight f4 [128, 66]
000000 15 2f 78 bd dc 3e 2d 3d b4 80 6f bd 71 1a de 3b
       -0.060591776 0.042296275 -0.05847235 0.0067780544
000010 6a 48 be bd 0a d2 6c 3c 32 30 f9 bb 02 32 a9 3c
       -0.09291156 0.014454374 -0.0076046223 0.020653728
000020 a6 99 4e 3d b0 96 ad bd f8 42 4a bd 4f ac 06 be
       0.0504395 -0.08476007 -0.049380273 -0.13151668
000030 28 15 ec bd 2a 66 05 be 77 c4 cf 3d 59 d0 46 3d
       -0.11527473 -0.13027254 0.101448946 0.04853854
000040 c7 0a 6c bd 61 df f3 bd 2e fe b9 bc 51 a7 fa 3c
       -0.057627466 -0.119078405 -0.02270421 0.03059736
000050 a4 b5 64 3d 35 0f 25 bd 7c b7 d0 bb e3 06 32 3d
       0.05583729 -0.040297706 -0.0063695293 0.0434636
000060 8c 4a 08 3d 76 82 c7 3d e9 53 b7 3c 2d 8c d6 3d
       0.03327422 0.0974168 0.022378879 0.10475955
000070 50 42 e5 bd e2 5d 2b bd 70 e8 ca bd d9 90 5d 3d
       -0.11194289 -0.04183758 -0.09907615 0.054093216
000080 fc d9 8b 3d b6 f5 90 bd 62 1c 81 bc e5 ae 85 bd
       0.068286866 -0.07078116 -0.015760604 -0.06527499
000090 7d dc 99 bc 1d 92 07 be 37 5a 1c 3d ce 88 e4 bd
       -0.018781895 -0.13239332 0.038171973 -0.11158906
0000a0 43 dc 90 3d c7 ac bd bd 81 29 47 bd f0 3b b0 3d
       0.070732616 -0.0926147 -0.048623566 0.08605182
0000b0 0c 32 a0 3d c5 7b 20 3d 6f 13 9e bc cf b0 ad bd
       0.07822046 0.039180536 -0.019296376 -0.08480989
0000c0 96 98 0a 3d dc 3f f2 bd 13 24 26 3c f4 28 2d bc
       0.033836924 -0.118285865 0.010140437 -0.010568846
0000d0 f4 28 1c 3d e1 b3 a9 3d 4f 17 8d bc fc 37 a5 bc
       0.038124993 0.08286262 -0.017223028 -0.020168297
0000e0 e2 17 9f bd b2 89 a3 bd 01 51 05 bd 8c 48 a9 bc
       -0.07768227 -0.07985248 -0.032547954 -0.020664476
0000f0 25 db 8d 3d c5 4f c7 bc ad 04 db 3d 81 32 5b 3d
       0.06926564 -0.02433003 0.10694251 0.05351496
000100 a1 15 d6 bd 3f 7c 97 bc ff dd 4d 3d 90 11 1d bd
       -0.10453344 -0.018491862 0.05026054 -0.038346827
000110 b2 82 1d 3d 8d c2 ac 3c 36 7d 09 3e be 77 fe 3d
       0.03845472 0.021088863 0.1342667 0.12425183
000120 ee 08 11 3e 95 99 d9 3d a6 fb a1 bd f7 2c 8b bd
       0.14163563 0.106249966 -0.07909326 -0.06795686
000130 43 21 67 bd fa 92 ac 3b e0 0e da 3d ab 31 f7 3d
       -0.056428205 0.0052665444 0.106473684 0.1207002
000140 1a f3 ce ba 4b 1e e3 3d 40 29 5c 3c 9d 9a d8 3d
       -0.0015789003 0.11089762 0.013437569 0.10576365
000150 fc fb 15 3e 05 88 81 bd 29 0c 87 3d 74 33 3f ba
       0.14646906 -0.06324772 0.06594116 -0.0007293739
000160 00 fe a6 bd a1 23 a0 bc 25 09 20 3e cb 9e 1b 3d
       -0.081539154 -0.01954824 0.15628488 0.037993234
000170 b0 c3 57 3c fa e2 12 3c fe a4 a3 3c 15 cf 2c bd
       0.013169214 0.008965248 0.019976135 -0.042189676
000180 0c 7e d5 3d 87 0e 32 3d 5b 80 8d 3d 01 c2 89 bd
       0.10424432 0.043470886 0.069092475 -0.067264564
000190 ad af 16 3c 85 1a 04 3e 4a 65 69 3d 7e 6b e8 3d
       0.009197158 0.12900741 0.056981362 0.113486275
0001a0 9e ec 96 bd 1e 1d 31 3d 3f 50 b5 3d 1b 0e 45 bd
       -0.0736935 0.04324066 0.08853196 -0.048109155
0001b0 8e 2f 21 3e 97 ce 72 bd 88 cb 10 bd b6 b2 01 3e
       0.15740797 -0.05927905 -0.035350353 0.12665829
0001c0 23 d5 71 bd e5 02 a4 bd 25 05 9d 3d b8 95 fb 3d
       -0.059041154 -0.080083646 0.07666997 0.12284416
0001d0 3b e8 20 3e b6 c8 c4 3d cf 40 e1 3c 0d f6 b9 bb
       0.15713589 0.09608595 0.027496723 -0.0056750835
0001e0 e5 1d ca 3d 7f 0d 84 bd fc 67 0f 3e ef 8c a2 bd
       0.09868983 -0.06447887 0.1400451 -0.07937037
0001f0 34 71 10 3e 6c 3b c2 3d fb b4 ae 3b cf 4f b5 3d
       0.14105684 0.0948399 0.005331633 0.08853113
000200 ea db f8 3c 52 3f a4 bd 63 2b 15 bd 55 e4 4c 3d
       0.0303783 -0.0801989 -0.03641833 0.050022442
000210 a7 32 1f 3e 66 70 cc 3d 4c a4 9a bd d5 8a 17 3e
       0.15546666 0.09982376 -0.075508684 0.14799054
000220 ed b4 ce 3d 35 0f 04 3e 7e 8f 15 bd 06 62 c3 3d
       0.100931026 0.12896426 -0.036513798 0.09540181
000230 3a a3 09 3e 4f 8b d2 3d be c0 1c 3e 10 d0 0a 3e
       0.13441172 0.10280477 0.153079 0.13555932
000240 6e 7f 45 bd 15 4e af 3b 0c ce b6 3d fa 21 c2 3c
       -0.04821723 0.0053498843 0.08926019 0.023697842
000250 1e 49 30 3d 90 10 40 3d 44 09 48 3d 30 8f 00 3e
       0.04303848 0.046890795 0.04883696 0.12554622
000260 2a 16 b3 3d f4 ca 3f 3d f6 72 eb 3d 4e 55 da bb
       0.08744462 0.04682441 0.114965364 -0.006663001
000270 fd 2e 12 3e 80 df 85 bc db 36 f0 3d 1b 16 37 bc
       0.14275737 -0.016341925 0.11729213 -0.011174704
000280 83 93 84 3c 0a 2c a2 3c 15 7d 2b 3d 3c 02 f7 3d
       0.01618362 0.01979639 0.041867334 0.12060973
000290 b9 7c 84 bd f4 a9 9f 3c 93 b9 a7 bd 5b 38 8f bd
       -0.064691015 0.01949022 -0.08189692 -0.06993171
0002a0 c3 d6 09 3e f2 bd 4d 3d ba d0 75 3b 9c 9d 04 3e
       0.13460831 0.050229974 0.0037508444 0.12950748
0002b0 96 55 51 3c 33 b5 eb bc 12 94 23 bd cc 70 ad bd
       0.012776753 -0.028772926 -0.039936133 -0.0846878
0002c0 bf 09 41 3c d2 0b e6 3d dc 4d ff 3d f6 7d 04 3e
       0.011782109 0.11232723 0.12466022 0.12938675
0002d0 73 40 13 3e 01 f5 c4 3d 65 1b 94 bd 1d a5 06 3e
       0.14380054 0.09617043 -0.072317876 0.13148923
0002e0 9e eb 4f bd 69 78 c5 3d fa 9e 90 3d d4 1b bc 3c
       -0.05076181 0.09642107 0.070615724 0.022962488
0002f0 e9 18 cd 3d ac 96 99 3d d0 cf 01 3e 22 92 25 3c
       0.10014517 0.074994415 0.1267693 0.010105642
000300 08 67 db 3d 9d 19 d0 3c 63 3d d0 3d 11 63 8c 3d
       0.10713011 0.025402838 0.101679586 0.06854833
000310 86 a7 02 3e 17 19 84 3c 4b fd 5a 3d 33 64 ec 3d
       0.12759218 0.016125245 0.053464215 0.11542549
000320 14 c3 89 bd ba 4f 05 3e 35 cc c6 bc 18 74 4c bd
       -0.06726661 0.13018695 -0.024267295 -0.049915403
000330 32 2d d3 bc b9 f7 e3 bb d3 85 52 3d 62 d7 b9 bc
       -0.025778387 -0.006957021 0.051397156 -0.02268571
000340 d3 97 fe 3d bf de 60 bc 93 9c e5 3c cb 36 e5 3d
       0.12431302 -0.013724982 0.028028762 0.111920916
000350 4e 35 9f 3c 43 1c 9f 3c 46 11 3e 3d b6 cd 5d bd
       0.019434597 0.019422656 0.046403192 -0.05415126
000360 e5 64 dc 3d 45 a4 e6 3d bc dc 1c 3c e0 9d 10 3e
       0.107614316 0.11261801 0.009574112 0.14122725
000370 7b ba 78 3c c3 3c 1b bd 95 d0 97 bb db 99 72 bc
       0.015181179 -0.037899744 -0.004633019 -0.01480719
000380 ee 36 8e bc 3f 6e 56 bd 2a 58 6e 3c 7d 03 05 bb
       -0.017360177 -0.052351233 0.014547387 -0.0020296269
000390 8a d9 51 bd 4b a6 ab 3d 32 c0 8f 3b 89 9d b6 bc
       -0.051232852 0.08381327 0.004386925 -0.022291915
0003a0 1d 92 77 bd ba fa cc 3d 00 9e cf 3d fd c7 6f ba
       -0.06044208 0.1000876 0.10137558 -0.0009146927
0003b0 07 44 e8 bb 38 9a c5 3d 6f a7 d0 3d a2 6f 12 3e
       -0.0070881876 0.096485555 0.101881854 0.14300397
0003c0 90 92 8e bd 4a 62 d4 bc bf 9e 0b 3e d7 1c 17 3c
       -0.06961548 -0.025925774 0.13634776 0.009223185
0003d0 5f de ca 3c 36 28 2e 3d b1 5f 9e bc be 39 da 3d
       0.024764238 0.042518817 -0.019332739 0.10655545
0003e0 3d be e2 bc 57 98 93 3c 86 20 18 bd ed 91 f1 3d
       -0.027678603 0.018016977 -0.03714039 0.11795411
0003f0 30 ac c9 3d 94 74 fa 3d 36 20 f1 3c 93 2e 72 3c
       0.09847295 0.12229267 0.029434305 0.014781612

model.0.bias f4 [128]
000000 51 8f a3 3b 86 77 f6 3c a6 cb 1c bc e1 3a d1 3c
       0.00499145 0.03008629 -0.009570038 0.025540771
000010 63 c6 9e 3d 1c 04 14 3e c5 47 83 3c 09 ad 58 3c
       0.07752683 0.14454693 0.016025433 0.013224849
000020 5a cf b2 bd 67 72 e6 3d 9b 0a 3d 3d 76 15 0e 3e
       -0.087309554 0.11252289 0.046152692 0.13875374
000030 27 d5 ee 3d 4d a3 2d bd 6c fc 93 3d 50 6f 18 3e
       0.11661749 -0.042392064 0.0722588 0.14886212
000040 ea 8b 34 3c 83 ac c3 bc fa d8 0a bd 16 2e cf 3d
       0.011019686 -0.023885971 -0.03389833 0.10116212
000050 07 5e 8f 3d 47 33 cc 3c ef ef c8 bc 1a 52 f2 3d
       0.07000356 0.024926795 -0.024528472 0.11832066
000060 99 d3 0c 3e 6d 24 d6 bd c6 0b de bd d2 35 67 bd
       0.13752593 -0.104561664 -0.10842089 -0.05644781
000070 de a4 12 3e 70 5b 37 3d 43 25 4d bd 3b db 72 3c
       0.14320704 0.044764936 -0.050084364 0.014822776
000080 68 ed 9c bd 5b 58 58 3d df 62 00 3e 59 f0 85 3d
       -0.07662469 0.052818637 0.12537716 0.06539983
000090 dc 4a c7 3d 6c e6 27 3d ea a5 2b 3d 5d e8 a7 bd
       0.09731075 0.04099123 0.041906275 -0.08198617
0000a0 c8 42 31 bc 02 f0 91 3d 29 7f f7 bc 19 d5 a1 bd
       -0.010819145 0.07125856 -0.030212002 -0.07901973
0000b0 d9 11 94 bd 97 11 7e 3d 14 1d 97 3d df b2 2c 3d
       -0.07229967 0.062028494 0.07378593 0.042162772
0000c0 4b 80 ed bc fe d1 c7 3c 7c aa d3 3c c1 e2 8f 3d
       -0.028991839 0.024392124 0.02583813 0.07025672
0000d0 42 f1 a7 3d b7 0f b3 bd ad 6e fc 3d 52 a8 bb 3d
       0.08200313 -0.08743232 0.12325797 0.09162964
0000e0 ff 29 52 3c ce 63 81 3d eb 3e 99 3d 2f 59 1b bd
       0.012827395 0.06317864 0.07482704 -0.03792685
0000f0 56 de 12 3c 8d ed 75 3d bb cc 15 3e 63 f5 db bc
       0.008964142 0.060041 0.1462888 -0.026850408
000100 49 2b 90 3d ce f5 0c 3c 0e a1 ef 3d 6a ec 25 3c
       0.07039506 0.008603526 0.117006406 0.010127166
000110 9e 0f 5f bb 3a bb a9 bd b1 5b e3 3d 64 07 a0 bd
       -0.0034036408 -0.08287664 0.11101473 -0.0781391
000120 28 f0 fb 3d 3d 47 6b 3d c3 ae 04 3e 14 91 16 3d
       0.123016655 0.057440985 0.12957291 0.03675945
000130 a3 d3 f4 bc ba 0b cf 3d 27 4a eb bd f1 56 01 3e
       -0.029886073 0.101096585 -0.11488753 0.12630822
000140 00 62 1d bd b2 3c 2b bd f0 ac 00 bd 33 c2 33 bd
       -0.03842354 -0.04180593 -0.031414926 -0.043886375
000150 90 5e f8 bb 12 cf c4 bd 15 8b c3 3d 18 dd aa 3d
       -0.007579632 -0.09609808 0.09548012 0.083429515
000160 61 69 e7 bc 33 87 02 3c 87 fd 27 3d f5 18 a4 bd
       -0.02824849 0.007966804 0.041013267 -0.08012573
000170 9b 17 ba 3d 09 c1 ed 3d 1f c8 8e 3d 35 53 ba bd
       0.09086534 0.11609084 0.06971764 -0.09097902
000180 c4 91 87 bd b2 10 20 bd 8b 4c c5 3b ec 1f 99 3d
       -0.066195995 -0.039078422 0.0060210875 0.07476792
000190 73 d4 43 bd 4c 2c 40 3d 36 49 63 bd 9a a0 a7 3d
       -0.04781003 0.046917245 -0.05548974 0.08184929
0001a0 36 ba 1f 3d f2 b8 b0 bc c2 40 0b bd 7b 5f 04 3e
       0.038995944 -0.021572564 -0.033997305 0.12927048
0001b0 51 d4 8a bd c4 71 01 3c 16 37 9b bb 70 43 d4 bd
       -0.067787774 0.007900659 -0.0047367914 -0.10364425
0001c0 d8 39 1e 38 72 43 85 3d 86 9a b1 3d 4d dd 52 bd
       3.7724007e-05 0.06507005 0.08672051 -0.05148058
0001d0 69 8b e3 bd 3b 57 f6 bd 4d 68 ea bc 80 5c bc 3d
       -0.11110575 -0.12028357 -0.028614188 0.091973305
0001e0 d0 ab 02 bd af 36 91 bd 78 ca 9f 3d e3 12 13 bd
       -0.031902134 -0.07090508 0.0780229 -0.035906684
0001f0 56 d9 1b bd 9c 9f 03 3e 01 fd b2 3d f2 f3 d3 bc
       -0.038049065 0.12853855 0.08739663 -0.025873158

model.3.weight f4 [64, 128]
000000 ee b1 09 3c 9d 43 48 bd 8f ef b8 3c 11 53 07 3c
       0.008404238 -0.048892606 0.022575168 0.008259551
000010 ae 6d e6 3d 49 c4 5e bd 00 50 3e 3d 11 1a 9b 3d
       0.112513885 -0.05438641 0.046463013 0.07573331
000020 32 5f 93 3d d2 0d 1c bd c6 d0 39 3d 7d 59 45 3d
       0.071958914 -0.038099118 0.045365117 0.048181046
000030 35 16 e5 3d 87 77 86 3c 0b df e4 3c 6e b7 13 3d
       0.11185876 0.016414417 0.027938386 0.036063604
000040 64 ef 51 3d 25 5f 60 3d 78 09 8b bd 26 54 cd 3d
       0.05125369 0.054778237 -0.067889154 0.10025816
000050 79 d0 de 3c bf a3 cd 3a 4c a5 03 bd 01 b9 db 3d
       0.027199017 0.0015689059 -0.03214006 0.10728646
000060 8c 6b be 3d fe c7 52 bb 6e 73 a5 3d d0 b5 3c bd
       0.09297857 -0.0032162662 0.08078657 -0.046071827
000070 c5 b9 40 bd c3 f6 51 3d 9f a2 b6 3d ed d0 df bb
       -0.047052164 0.05126072 0.08917736 -0.006830326
000080 0d 19 46 3d 72 d7 58 bd 27 e6 f2 3d f3 c0 cb 3d
       0.048363734 -0.05293984 0.11860304 0.099489115
000090 54 c0 47 bd 9f 71 9e 3c 2d 6d d3 3d 48 2e 3c 3c
       -0.048767403 0.019341288 0.10323558 0.011485644
0000a0 f9 a4 85 3d 60 a8 2d bd 43 dd 3f 3d 4d 70 a1 3d
       0.06525607 -0.042396903 0.04684187 0.07882748
0000b0 aa 99 e0 3d 42 bb 0a bb 09 92 5f 3d e2 43 8d 3c
       0.10966809 -0.0021168743 0.05458263 0.017244283
0000c0 38 66 7a 3d fe f2 3b bd a4 72 6a bd 4e 9d 59 3d
       0.06113264 -0.045886032 -0.057238236 0.053128533
0000d0 38 17 f9 3c ed d9 b1 3d 48 86 83 3d 27 50 4a 3d
       0.03040658 0.08684144 0.064220965 0.049392845
0000e0 87 3d 9b 3d 56 84 b5 3d 54 08 32 bc 37 e1 72 3d
       0.07580095 0.08863132 -0.010866243 0.059296813
0000f0 a6 84 b0 bc 1e 03 94 3d c5 39 8a 3d f0 c6 23 bc
       -0.021547627 0.07227157 0.067493 -0.009996161
000100 ff a4 38 3d 4e 51 8f 3d 82 c4 d3 bc 3e a4 6c bd
       0.045079228 0.069979295 -0.025850538 -0.05777382
000110 b7 e8 d9 3c 72 f9 7b 3d d1 e5 41 3d 6b 0f bf bc
       0.026600225 0.061517186 0.04733831 -0.023322782
000120 0d 74 e8 3d 8f 95 9a bc e7 77 85 bc af 87 fd bc
       0.1135026 -0.018870143 -0.016292525 -0.030948488
000130 8a 05 5d 3c 7f 8c 1d 3d 6d 77 39 3d 09 47 50 3d
       0.01349009 0.038464066 0.04527991 0.050848994
000140 59 46 9b bd a0 85 8a 3c e2 53 42 ba 77 88 b6 3c
       -0.07581777 0.01690942 -0.0007413012 0.022281868
000150 31 ea 33 bd 5b c9 69 3d 87 a3 22 bc 9e ef f2 bc
       -0.043924514 0.057076793 -0.009926683 -0.029655274
000160 a3 7a 7d 3d 3d b2 ae 3d 3a 0a 41 bc 86 f5 78 3d
       0.061884534 0.0853009 -0.011782223 0.060781024
000170 2e 56 3d 3d 6e 96 e7 3d 9f 3a 83 bd 67 2b 63 3b
       0.046224765 0.11307989 -0.064076655 0.003466332
000180 39 3e 4a bd f4 f1 22 3d d5 93 20 bb c0 08 ce bc
       -0.049375746 0.039781526 -0.0024502177 -0.025150657
000190 e8 c8 52 bd 2f 14 d1 3d e1 95 34 bd c6 50 ed 3d
       -0.05146113 0.10208928 -0.04408825 0.11587672
0001a0 ca ba 5c 3c d6 88 94 3d 7a 2c 81 3d 28 7d b7 3c
       0.013472268 0.07252662 0.06307311 0.022398546
0001b0 c7 0e 42 3d a5 14 14 3d d2 c1 8f 3d 34 fd aa 3d
       0.047377374 0.0361525 0.0701939 0.08349076
0001c0 33 ca 6b 3d 55 18 9e 3d d3 da 4c 3d 66 d5 76 3b
       0.05756588 0.07719485 0.050013375 0.0037663816
0001d0 63 12 d2 3b 93 6a e3 bc a2 90 12 bc d2 14 2b 3d
       0.0064108833 -0.02776078 -0.008945616 0.041767903
0001e0 f7 63 6c 3d be 4a 1e bd 00 17 f5 bc 76 bb 38 3d
       0.05771252 -0.0386455 -0.029918194 0.04510065
0001f0 82 08 ed 3c 55 bb 1f 3d 64 47 2f 3c d2 fe 09 bb
       0.02893472 0.038997013 0.010698173 -0.0021056426
000200 60 be 8b bd 05 fd 21 3d 06 b3 fc 3d 08 01 e6 3d
       -0.068234205 0.03954794 0.123388335 0.112306654
000210 fe 0f e2 3c b8 d8 f0 bc 9a ff 4f bc 3f d5 d8 3d
       0.027595516 -0.029400215 -0.0126952175 0.105875485
000220 9b 04 b3 3d 2f 76 c4 bc 97 9e bf bc ca b1 53 3c
       0.08741113 -0.023982136 -0.023391051 0.012920806
000230 8c 49 18 3d 68 bf d5 3d c5 70 89 3d 76 b4 c5 3d
       0.037179515 0.104368985 0.06710962 0.09653561
000240 f6 6a ae 3b 3c 15 4c 3d e5 b7 bf bc 2a e5 47 bd
       0.0053228093 0.04982494 -0.023403117 -0.048802532
000250 17 a9 18 3c b6 1b 5e 3d b8 8c b2 bc 7a a1 c0 3c
       0.009317658 0.054225646 -0.021795616 0.023514498
000260 1d 58 1d 3c ef 88 da 3c a6 1d 88 bc 69 26 b4 bc
       0.009603527 0.026676623 -0.0166157 -0.021990972
000270 47 21 d5 3d 01 e0 66 3d 7d b6 4a 3d 19 a7 b6 3d
       0.10406738 0.05636597 0.04949044 0.0891859
000280 43 73 88 3d 17 20 0c bd 5b 8a 2d 3d 4d 5b e6 3c
       0.066626094 -0.03421029 0.042368274 0.028119707
000290 87 34 27 3d 73 0e 06 bd e6 1d e6 3d 6f 23 a6 3d
       0.04082158 -0.032728624 0.112361714 0.08112227
0002a0 e3 e8 85 3d 04 16 23 3d 38 7c e4 3d 20 86 60 bc
       0.0653856 0.039815918 0.11156505 -0.013703853
0002b0 e8 d6 d6 3d 19 95 27 3c f4 51 8c 3b c0 77 f7 3d
       0.10490209 0.010228419 0.0042822305 0.120833874
0002c0 0f c9 38 3d 9b 06 b1 bc 07 ee b7 bc 45 1b a0 3d
       0.04511362 -0.021609595 -0.022452367 0.07817701
0002d0 0a 95 fe 3c b3 44 1e bd 12 6e d4 3d 8d d7 f3 3d
       0.031076927 -0.038639735 0.10372557 0.119063474
0002e0 7b c4 a1 3d d0 94 ca 3d fd dc 81 3d 1a b0 76 bd
       0.07898804 0.09891665 0.06340978 -0.060226537
0002f0 e5 08 52 3d 5c 7a fd 3d 10 f3 b5 ba b4 30 91 3d
       0.051278014 0.12376854 -0.0013881642 0.070893675
000300 cd bc 23 3d ac 74 8b 3d 09 9b 78 3d ad 55 24 3c
       0.039974976 0.06809363 0.060694728 0.010030192
000310 68 8a a2 bd 99 f4 1b 3c 8c 61 48 3d f2 d6 13 3c
       -0.07936555 0.009518766 0.048921153 0.009023415
000320 48 23 d1 3c 67 04 0d 3d 3b 47 84 3d d1 35 09 bd
       0.025529519 0.034428027 0.06458899 -0.03349859
000330 32 96 bb 3d ea 9d 6a 3d 2d 7f 2f bd 49 bf f9 3c
       0.09159507 0.057279505 -0.042845894 0.03048672
000340 50 8e 92 bc 09 88 45 bb 14 d9 40 3d 1a 8a 5c 3c
       -0.017890126 -0.0030140898 0.04708202 0.01346066
000350 c2 9e b3 3d f6 56 54 3d a3 97 0b 3d d2 e5 f6 3d
       0.08770515 0.051840745 0.03408016 0.120555535
000360 35 cf 7c bd af d0 6e 3d 17 dd 69 3d 6d 11 45 bd
       -0.061721046 0.058304485 0.057095613 -0.04811232
000370 39 3b 04 3d 22 1a 7a 3d 9c ba fb bc 4a d3 e4 3d
       0.03228304 0.06106008 -0.03072863 0.11173113
000380 d4 51 43 bd 6a fa 59 3d 8b 73 e0 3d 78 11 95 bc
       -0.04768546 0.05321733 0.10959538 -0.018196806
000390 df 0c 32 3d 54 42 d6 3d 07 85 89 3d 41 52 bd bb
       0.043469306 0.1046187 0.06714826 -0.0057776277
0003a0 8c 52 6f bc 26 14 73 3d 9b 05 af bd 4f 25 46 3d
       -0.014607083 0.059345387 -0.08545991 0.048375424
0003b0 ed 94 ec 3d f5 b6 9d bd 47 1f c4 3c 61 ba 7a 3c
       0.11551843 -0.07700912 0.023940695 0.015303225
0003c0 77 5a b7 3d 30 95 8d 3d be 24 e4 3d 7b 0d de 3d
       0.08952802 0.06913221 0.111398205 0.10842415
0003d0 34 1f 98 3d 21 3a 86 bd 1e f9 5c bc 76 d8 ee 3d
       0.074278265 -0.06554056 -0.013487129 0.116623804
0003e0 34 f2 14 3d f8 66 2b bd e8 26 a5 3d 3a 2c 9d 3d
       0.036363795 -0.041846246 0.080640614 0.07674451
0003f0 84 f2 72 3d 73 59 61 3d 49 04 f0 3c ce be 99 3d
       0.059313312 0.055016946 0.029298918 0.07507096

model.3.bias f4 [64]
000000 d2 b9 b7 3b d9 da 2f bc d9 72 f9 3d 29 1c 79 bc
       0.0056068683 -0.01073333 0.121801086 -0.015204468
000010 35 25 3a bc 73 f2 82 3d 35 d4 e8 3b 6c ea e2 3c
       -0.01136141 0.063939 0.007105375 0.027699672
000020 d9 22 2f ba c7 fc 34 3d bc 7d a2 3d b9 ec e2 3d
       -0.0006680913 0.04418638 0.07934138 0.110803075
000030 31 fe 9f bd 4e 3e 03 bd 19 34 7e bc f4 ed 30 3d
       -0.07812155 -0.03204184 -0.015515351 0.04319568
000040 15 c9 24 3c e8 cc d0 bc c1 2c 79 3d 1e ae 0a bd
       0.010057707 -0.025488332 0.060833696 -0.033857457
000050 94 26 af 3d 82 44 c3 3d 78 df e5 3d ae 13 bf bc
       0.0855228 0.09534551 0.11224264 -0.023324814
000060 99 cd 86 3d 57 7f 90 bd 83 1d be 3d 78 03 be bb
       0.065821834 -0.07055538 0.09282973 -0.0057987534
000070 2b 57 7f bd 8b 5c 12 3d 23 4d b6 bd 56 d7 bb 3d
       -0.06233899 0.035732787 -0.089014314 0.091719314
000080 00 6d 8f 3b 13 46 72 3d 6e 9f 31 bd af 56 73 3c
       0.0043770075 0.05914886 -0.043364935 0.01485221
000090 ae 8e 24 bd 12 6a 37 3d a7 48 0a 3d 4c 81 b5 3d
       -0.040175132 0.04477889 0.033760693 0.08862552
0000a0 06 92 bc bd c8 ff 5c 3c 5d bd 3d 3d 0c b2 db 3b
       -0.09207539 0.013488717 0.04632317 0.0067045745
0000b0 ee a8 e0 3d 61 5c 0f bc 02 cc cb 3d 63 d7 c7 3c
       0.10969721 -0.008750052 0.09951021 0.024394697
0000c0 1d 0b 5b bd ef 39 a1 bc dd 04 33 bd 2e 8c b1 3d
       -0.053477395 -0.019680945 -0.04370581 0.08669315
0000d0 16 51 01 bd b4 de 58 3c 0c 81 b6 3d ca 3c 88 bd
       -0.03157147 0.01323669 0.089113325 -0.066522196
0000e0 ca d0 46 bd 81 02 7c 3a 49 d8 d0 3d f1 95 31 bd
       -0.04853896 0.000961341 0.10197503 -0.043355886
0000f0 8a 33 16 3d a0 12 16 bd e1 5a 6d 3d 7a 57 79 bb
       0.036670245 -0.036638856 0.057947997 -0.0038046525

model.6.weight f4 [32, 64]
000000 1c 6a b7 bd 3a 07 69 3c 52 2e e3 bd cb b7 56 3d
       -0.08955786 0.014222914 -0.11092819 0.052421372
000010 7a 7f e9 3d 85 0d 16 be 4a de 01 bb 68 01 cd bb
       0.11401267 -0.14653595 -0.0019816332 -0.006256271
000020 e1 09 67 3d 17 bd 89 3c c9 e3 97 bc b1 c0 fb bd
       0.056405906 0.016813798 -0.018541234 -0.12292612
000030 40 83 8e bb 81 11 27 bc 4c 57 a9 bd 5e 0b 99 bd
       -0.0043491423 -0.010197044 -0.08268604 -0.07472871
000040 6d d2 c7 ba 20 72 cb 3b d4 d8 b4 bd 18 2d a0 3c
       -0.0015245207 0.006208673 -0.08830419 0.019552752
000050 4e 97 5c 3d 26 f7 98 3d 7c e8 c6 bd d2 f4 26 3d
       0.053855233 0.07469015 -0.097123116 0.040760823
000060 48 df 22 3b e6 2d c2 bc b3 cc 0a be 30 bd 62 bd
       0.0024852324 -0.023703527 -0.13554649 -0.055356205
000070 f0 ef 07 bd 5f 67 94 bc 2e e3 ee bd 35 3a f0 3b
       -0.033187807 -0.018115697 -0.11664425 0.0073311576
000080 5b 63 5c 3c fd 6d 7e 3c 06 3c 8d 3d 63 59 a8 3b
       0.013451423 0.015529153 0.06896214 0.005137609
000090 18 dd d7 bd fa 1d ba 3d 8c d2 52 bd e4 45 a1 bd
       -0.10540217 0.09087749 -0.051470324 -0.07874659
0000a0 05 a6 e4 3d 2a 9c e0 3d 08 e1 b8 bd 94 af 5a 3d
       0.11164478 0.10967286 -0.09027296 0.0533901
0000b0 3a e0 1c 3c 18 87 f1 3d 06 cb 0a bc 49 b6 ca bd
       0.009574944 0.11793345 -0.008471256 -0.098980494
0000c0 e2 00 be bd b8 3e db 3c c1 46 d9 3d 35 74 1e 3d
       -0.09277512 0.026763305 0.10609198 0.038685042
0000d0 95 6c ba 3d 2a d6 c7 bd 14 5d e4 3c 9a 43 02 be
       0.09102742 -0.097576454 0.027876414 -0.127211
0000e0 d8 78 5a 3d e4 3e 0e be 9b 26 0b bc 02 32 e6 bd
       0.0533379 -0.13891178 -0.008493091 -0.11240007
0000f0 4d 5f 53 bc 45 e9 9d 3d c4 1b 83 bc d4 d6 6b 3d
       -0.012901139 0.07710508 -0.01600445 0.057577923
000100 b6 e2 55 3b 22 51 83 bc 56 6a 1c 3e b1 8a dd bb
       0.003263635 -0.016029898 0.15274939 -0.006760918
000110 24 88 07 3d 62 58 18 3e 67 16 b1 3d b7 5f 11 3e
       0.03308882 0.14877465 0.08646851 0.14196669
000120 05 20 0b 3e 08 1e fe 3d 90 e6 86 3d e0 51 c2 bb
       0.13586433 0.12408072 0.06586945 -0.0059301704
000130 8d 36 88 bc 98 8b ad 3d 48 c3 f4 bb 68 b3 f0 3d
       -0.016627574 0.08473891 -0.0074695684 0.11752969
000140 6d b2 11 3e d8 05 71 bd c8 9e e5 3d 45 33 0f 3e
       0.1422822 -0.058843464 0.11211926 0.13984402
000150 34 4c fa 3d 26 da a6 bc 9d 87 85 3d f1 29 9b 3d
       0.12221566 -0.020367693 0.06520007 0.07576359
000160 2e 24 cc bd 70 70 c6 3d 8b b0 9d bd f6 6f f3 3d
       -0.09967838 0.096894145 -0.076996885 0.11886589
000170 06 39 b0 bd ad 6e c6 3c fe 96 e5 bd a5 6f fc 3d
       -0.08604626 0.024222696 -0.1121044 0.12325982
000180 0f dd e3 3d b7 bb ca bc 16 1a b9 bd 71 7d ca bc
       0.11126148 -0.024747713 -0.090381786 -0.024718018
000190 9c 35 3a bd 02 1f 2d bd aa e4 bf bd 04 cc a4 bd
       -0.045461282 -0.0422659 -0.09369786 -0.080467254
0001a0 d5 c6 04 3e 1a b7 5b 3b 66 5b c0 bd 6c bf 59 3e
       0.12966473 0.0033525885 -0.09392433 0.21264428
0001b0 2a 71 95 3d b7 7b a3 bd d9 13 f0 3d 30 19 0d 3d
       0.07296975 -0.07982581 0.11722536 0.03444785
0001c0 a6 dc c7 bc f2 cc af 3d 9e ce 01 3e 23 31 e3 3d
       -0.024397206 0.08584012 0.12676474 0.110933565
0001d0 39 f8 5c bd e5 06 bc 3c 51 cd f5 ba 31 4b 94 3d
       -0.05394766 0.022952506 -0.0018753206 0.07240904
0001e0 dc 99 ab 3c cf a3 59 bd b5 cb 3a 3d 36 4a d7 bd
       0.02094739 -0.053134736 0.045604426 -0.105122015
0001f0 ce 08 1d 3e 97 81 38 3c 2f f3 85 bd 3b cb ea 3d
       0.1533539 0.011261365 -0.06540524 0.114645444
000200 35 d0 6d bd 18 41 4f bd 50 55 cf 3d 08 83 09 3e
       -0.05805989 -0.050599188 0.10123694 0.1342889
000210 60 c7 90 3b b5 80 00 3e 69 60 cc 3d 6d 47 e4 3d
       0.0044182986 0.12549098 0.09979326 0.11146436
000220 de 51 a6 3d 94 f6 04 3d bb 0a bc bd 94 34 b8 3d
       0.08121084 0.032461718 -0.09181734 0.089944035
000230 94 a6 74 bd 30 e8 e0 3d 94 dd 89 3d 6e fa 87 3d
       -0.059729174 0.10981786 0.06731716 0.066395625
000240 8c b4 df 3d 0a c0 ca bc 5e 63 46 bd 69 50 04 bc
       0.109231085 -0.024749774 -0.048434608 -0.008075812
000250 d9 b9 0a bd 97 35 92 bd 7a 9d 88 3b dd 2e 6d 3d
       -0.033868644 -0.07139128 0.0041691633 0.05790602
000260 92 7a 4c bd fc db a4 3b 5a 3d 85 bd 40 5c 1b bd
       -0.04992158 0.005031107 -0.065058425 -0.037929773
000270 34 52 67 bd 54 f1 3d 3c c8 84 a1 bc 10 47 25 bd
       -0.05647488 0.011593182 -0.019716635 -0.040350974
000280 45 0b 38 bd 0e 5d 2a bd 88 b5 07 3d 27 49 81 3d
       -0.044932622 -0.04159265 0.033132106 0.06312781
000290 e2 f1 84 bd 32 2e 5c 3d 59 1b b5 bd 15 2e 37 3d
       -0.06491448 0.053754993 -0.08843107 0.04472168
0002a0 da 3a 6a bd ac 1f c9 3d 12 26 d1 bd 44 bd 97 3d
       -0.05718503 0.09820494 -0.102123395 0.074091464
0002b0 d3 7c 9b 3d 30 4c e2 3c db b8 40 3d 06 a6 b0 bd
       0.07592168 0.02762422 0.047051292 -0.086254165
0002c0 c9 2f b8 3d 24 a8 88 bd f2 20 b6 3d 70 03 08 3e
       0.08993489 -0.06672695 0.088930026 0.13282561
0002d0 6f 55 49 bd ec f2 a4 bd 38 f9 72 bd e0 16 73 bd
       -0.04915374 -0.08054146 -0.059319705 -0.059347987
0002e0 7e ea 39 bd e9 7d 88 3d b5 32 9d 3d 48 3f b1 bd
       -0.045389645 0.066646405 0.07675687 -0.08654648
0002f0 56 86 11 3e 9a f2 95 3d 73 07 ed 3d 5a 29 8a bd
       0.14211401 0.07321663 0.115736865 -0.067461684
000300 cb 4d 34 bc fe cd 0c be ed c5 68 3d 76 cb 09 be
       -0.011004875 -0.13750455 0.05682938 -0.1345652
000310 28 b2 1f 3d c7 03 f1 bd 3c 6a e8 bc 78 8e b3 bd
       0.038988262 -0.117682986 -0.028370969 -0.08767408
000320 6a 39 13 3d 03 d1 cd bd b0 0a 95 3d 1e 4c 6d 3d
       0.035943426 -0.100496314 0.07277429 0.05793392
000330 34 48 1e 3d 43 55 e1 3d 72 c6 d3 3d 92 0f 7e bd
       0.038643077 0.110025905 0.10340585 -0.062026568
000340 96 43 0c bd a8 9e ff bd e2 40 5c 3d 72 e6 ab 3d
       -0.034244142 -0.12481433 0.053772815 0.08393563
000350 a9 be 56 3d 5e 17 b0 bd 1c 3c 66 bd 8b 02 fd bc
       0.05242792 -0.08598207 -0.05620967 -0.030885002
000360 aa f4 08 be 24 36 29 3c 17 d6 c9 3d e7 f4 17 3d
       -0.13374582 0.01032785 0.098552875 0.03709879
000370 4b 6d 69 bd 17 1a ac bc c1 c3 e0 bd be 3d e4 3d
       -0.056988996 -0.021008534 -0.10974837 0.11144589
000380 a2 b2 17 bd 4a 3c f7 bd e0 b0 a7 3d 0d 4c 83 3d
       -0.037035592 -0.12072046 0.08188033 0.0641099
000390 d6 5c d2 3a 83 64 74 bd 35 c2 e0 bc e3 bb fe bd
       0.0016049396 -0.059666168 -0.027436355 -0.1243818
0003a0 e7 a9 9e bd db 41 2f bc da 7f d8 bd 26 b2 0a be
       -0.0774725 -0.0106968535 -0.10571261 -0.1354452
0003b0 99 2f ee 3c f6 05 4d 3c c7 e4 16 bb 46 04 a4 3c
       0.02907543 0.012513628 -0.0023024546 0.020021569
0003c0 80 24 f2 bb 60 a9 bb bc c4 23 26 3d 53 f2 08 be
       -0.007389605 -0.022907913 0.040561453 -0.1337369
0003d0 86 d5 7a 3d 52 23 0e 3d 25 e0 57 3d 90 7c 84 3c
       0.061238788 0.034701653 0.052703995 0.016172677
0003e0 22 ff 8e bc 5f 26 de 3d 79 3f ea bd a4 9f 95 bd
       -0.017455641 0.108471625 -0.11437888 -0.0730584
0003f0 e6 9c 85 3d 3f 8c c0 bd 18 4e ca bd 6f c0 12 be
       0.065240666 -0.0940175 -0.098781765 -0.1433122

model.6.bias f4 [32]
000000 c7 ac 09 be ed 56 16 3e 2b 97 8d bd 59 2c 94 3d
       -0.13444816 0.14681597 -0.069135986 0.07235021
000010 84 25 da bd 79 dd b2 bd 24 67 a3 3b 09 cb 99 bd
       -0.10651687 -0.08733649 0.0049866606 -0.07509429
000020 96 6b 76 3d f7 0f cf 3c ed 66 cb bd e8 50 0a 3e
       0.060161196 0.025276167 -0.09931741 0.13507426
000030 68 d5 7d bd 9f c2 b8 bd 2c f8 e5 3c 8a 8f 93 bd
       -0.0619711 -0.09021496 0.02807244 -0.07205112
000040 f4 9e 0e 3c d1 04 c8 bb 87 db 06 3e cc 54 8a 3c
       0.00870489 -0.00610409 0.1316968 0.016886137
000050 f9 45 45 3b f3 1c 18 3c f0 46 81 bd 90 37 09 bd
       0.0030101521 0.009284246 -0.063123584 -0.033500254
000060 10 cd 57 bd 1d 0a a8 3d fa 38 a2 bc e2 6d c2 bd
       -0.052685797 0.08205054 -0.01980256 -0.09493615
000070 b2 fe 5a 3d b4 b5 ac bd 24 d8 09 3c 7d 23 f9 3d
       0.053465553 -0.084330946 0.008413348 0.12164972

model.8.weight f4 [1, 32]
000000 e7 88 64 bd 37 77 e1 3d 96 a1 d4 3d 96 45 e9 bc
       -0.055794623 0.110090666 0.103823826 -0.028475564
000010 1f 67 15 be 41 e9 60 3d aa 4a f2 bc fa aa 17 3d
       -0.14590119 0.05490995 -0.029576618 0.03702829
000020 71 8d 6e 3d b1 e7 88 3d 14 79 47 bd fa 99 45 3e
       0.058240358 0.06684817 -0.048699453 0.19297019
000030 90 d1 25 3e 25 cc 21 3e f0 85 79 bd 4e 31 92 bd
       0.16193223 0.15800531 -0.06091875 -0.071383104
000040 73 58 3b bd 1b 2e 2d 3e 7f ed 49 3e 85 e4 05 be
       -0.04573865 0.16912119 0.19719504 -0.13075455
000050 3e d6 5d bd 1f eb a7 3d 76 72 82 bc 36 e8 89 bd
       -0.054159395 0.08199143 -0.01592372 -0.06733744
000060 d2 02 62 bd 5d da 98 3d 40 d2 23 3d b3 e8 fa 3d
       -0.05517847 0.074635245 0.039995432 0.12251415
000070 a4 82 01 3e 72 72 1f 3e fc 31 35 3e 9a 93 a6 3d
       0.12647492 0.15571001 0.17694849 0.081336215
